{"format": "graph-model", "generatedBy": "2.6.0", "convertedBy": "TensorFlow.js Converter v3.20.0", "signature": {"inputs": {"speaker_ids:0": {"name": "speaker_ids:0", "dtype": "DT_INT32", "tensorShape": {"dim": [{"size": "-1"}]}}, "input_lengths:0": {"name": "input_lengths:0", "dtype": "DT_INT32", "tensorShape": {"dim": [{"size": "-1"}]}}, "input_ids": {"name": "input_ids:0", "dtype": "DT_INT32", "tensorShape": {"dim": [{"size": "-1"}, {"size": "-1"}]}}}, "outputs": {"output_3": {"name": "Identity_3:0", "dtype": "DT_FLOAT", "tensorShape": {"dim": [{"size": "-1"}, {"size": "-1"}, {"size": "-1"}]}}, "output_2": {"name": "Identity_2:0", "dtype": "DT_FLOAT", "tensorShape": {"dim": [{"size": "-1"}, {"size": "-1"}]}}, "Identity_1:0": {"name": "Identity_1:0", "dtype": "DT_FLOAT", "tensorShape": {"dim": [{"size": "-1"}, {"size": "-1"}, {"size": "80"}]}}, "Identity:0": {"name": "Identity:0", "dtype": "DT_FLOAT", "tensorShape": {"dim": [{"size": "-1"}, {"size": "-1"}, {"size": "80"}]}}}}, "modelTopology": {"node": [{"name": "StatefulPartitionedCall/residual_projection/Tensordot/Const", "op": "Const", "attr": {"value": {"tensor": {"dtype": "DT_INT32", "tensorShape": {"dim": [{"size": "1"}]}}}, "dtype": {"type": "DT_INT32"}}}, {"name": "StatefulPartitionedCall/residual_projection/Tensordot/axes", "op": "Const", "attr": {"value": {"tensor": {"dtype": "DT_INT32", "tensorShape": {"dim": [{"size": "1"}]}}}, "dtype": {"type": "DT_INT32"}}}, {"name": "StatefulPartitionedCall/residual_projection/Tensordot/GatherV2_1/axis", "op": "Const", "attr": {"dtype": {"type": "DT_INT32"}, "value": {"tensor": {"dtype": "DT_INT32", "tensorShape": {}}}}}, {"name": "StatefulPartitionedCall/residual_projection/Tensordot/Const_1", "op": "Const", "attr": {"value": {"tensor": {"dtype": "DT_INT32", "tensorShape": {"dim": [{"size": "1"}]}}}, "dtype": {"type": "DT_INT32"}}}, {"name": "StatefulPartitionedCall/residual_projection/Tensordot/ReadVariableOp", "op": "Const", "attr": {"value": {"tensor": {"dtype": "DT_FLOAT", "tensorShape": {"dim": [{"size": "512"}, {"size": "80"}]}}}, "dtype": {"type": "DT_FLOAT"}}}, {"name": "StatefulPartitionedCall/decoder/TensorArrayV2Stack/TensorListStack/element_shape", "op": "Const", "attr": {"dtype": {"type": "DT_INT32"}, "value": {"tensor": {"dtype": "DT_INT32", "tensorShape": {"dim": [{"size": "2"}]}}}}}, {"name": "StatefulPartitionedCall/decoder/concat_3", "op": "Const", "attr": {"value": {"tensor": {"dtype": "DT_INT32", "tensorShape": {"dim": [{"size": "3"}]}}}, "dtype": {"type": "DT_INT32"}}}, {"name": "StatefulPartitionedCall/Reshape/shape/1", "op": "Const", "attr": {"dtype": {"type": "DT_INT32"}, "value": {"tensor": {"dtype": "DT_INT32", "tensorShape": {}}}}}, {"name": "StatefulPartitionedCall/Reshape/shape/2", "op": "Const", "attr": {"dtype": {"type": "DT_INT32"}, "value": {"tensor": {"dtype": "DT_INT32", "tensorShape": {}}}}}, {"name": "StatefulPartitionedCall/post_net/tf_tacotron_conv_batch_norm_5/conv_._0/conv1d/ExpandDims/dim", "op": "Const", "attr": {"dtype": {"type": "DT_INT32"}, "value": {"tensor": {"dtype": "DT_INT32", "tensorShape": {}}}}}, {"name": "StatefulPartitionedCall/post_net/tf_tacotron_conv_batch_norm_5/conv_._0/conv1d/ExpandDims_1", "op": "Const", "attr": {"dtype": {"type": "DT_FLOAT"}, "value": {"tensor": {"dtype": "DT_FLOAT", "tensorShape": {"dim": [{"size": "1"}, {"size": "5"}, {"size": "80"}, {"size": "512"}]}}}}}, {"name": "StatefulPartitionedCall/post_net/tf_tacotron_conv_batch_norm_5/conv_._0/BiasAdd/ReadVariableOp", "op": "Const", "attr": {"value": {"tensor": {"dtype": "DT_FLOAT", "tensorShape": {"dim": [{"size": "512"}]}}}, "dtype": {"type": "DT_FLOAT"}}}, {"name": "StatefulPartitionedCall/post_net/tf_tacotron_conv_batch_norm_5/batch_norm_._0/batchnorm/mul", "op": "Const", "attr": {"dtype": {"type": "DT_FLOAT"}, "value": {"tensor": {"dtype": "DT_FLOAT", "tensorShape": {"dim": [{"size": "512"}]}}}}}, {"name": "StatefulPartitionedCall/post_net/tf_tacotron_conv_batch_norm_5/batch_norm_._0/batchnorm/sub", "op": "Const", "attr": {"dtype": {"type": "DT_FLOAT"}, "value": {"tensor": {"dtype": "DT_FLOAT", "tensorShape": {"dim": [{"size": "512"}]}}}}}, {"name": "StatefulPartitionedCall/post_net/tf_tacotron_conv_batch_norm_6/conv_._1/conv1d/ExpandDims/dim", "op": "Const", "attr": {"value": {"tensor": {"dtype": "DT_INT32", "tensorShape": {}}}, "dtype": {"type": "DT_INT32"}}}, {"name": "StatefulPartitionedCall/post_net/tf_tacotron_conv_batch_norm_6/conv_._1/conv1d/ExpandDims_1", "op": "Const", "attr": {"value": {"tensor": {"dtype": "DT_FLOAT", "tensorShape": {"dim": [{"size": "1"}, {"size": "5"}, {"size": "512"}, {"size": "512"}]}}}, "dtype": {"type": "DT_FLOAT"}}}, {"name": "StatefulPartitionedCall/post_net/tf_tacotron_conv_batch_norm_6/conv_._1/BiasAdd/ReadVariableOp", "op": "Const", "attr": {"dtype": {"type": "DT_FLOAT"}, "value": {"tensor": {"dtype": "DT_FLOAT", "tensorShape": {"dim": [{"size": "512"}]}}}}}, {"name": "StatefulPartitionedCall/post_net/tf_tacotron_conv_batch_norm_6/batch_norm_._1/batchnorm/mul", "op": "Const", "attr": {"value": {"tensor": {"dtype": "DT_FLOAT", "tensorShape": {"dim": [{"size": "512"}]}}}, "dtype": {"type": "DT_FLOAT"}}}, {"name": "StatefulPartitionedCall/post_net/tf_tacotron_conv_batch_norm_6/batch_norm_._1/batchnorm/sub", "op": "Const", "attr": {"dtype": {"type": "DT_FLOAT"}, "value": {"tensor": {"dtype": "DT_FLOAT", "tensorShape": {"dim": [{"size": "512"}]}}}}}, {"name": "StatefulPartitionedCall/post_net/tf_tacotron_conv_batch_norm_7/conv_._2/conv1d/ExpandDims/dim", "op": "Const", "attr": {"value": {"tensor": {"dtype": "DT_INT32", "tensorShape": {}}}, "dtype": {"type": "DT_INT32"}}}, {"name": "StatefulPartitionedCall/post_net/tf_tacotron_conv_batch_norm_7/conv_._2/conv1d/ExpandDims_1", "op": "Const", "attr": {"dtype": {"type": "DT_FLOAT"}, "value": {"tensor": {"dtype": "DT_FLOAT", "tensorShape": {"dim": [{"size": "1"}, {"size": "5"}, {"size": "512"}, {"size": "512"}]}}}}}, {"name": "StatefulPartitionedCall/post_net/tf_tacotron_conv_batch_norm_7/conv_._2/BiasAdd/ReadVariableOp", "op": "Const", "attr": {"value": {"tensor": {"dtype": "DT_FLOAT", "tensorShape": {"dim": [{"size": "512"}]}}}, "dtype": {"type": "DT_FLOAT"}}}, {"name": "StatefulPartitionedCall/post_net/tf_tacotron_conv_batch_norm_7/batch_norm_._2/batchnorm/mul", "op": "Const", "attr": {"value": {"tensor": {"dtype": "DT_FLOAT", "tensorShape": {"dim": [{"size": "512"}]}}}, "dtype": {"type": "DT_FLOAT"}}}, {"name": "StatefulPartitionedCall/post_net/tf_tacotron_conv_batch_norm_7/batch_norm_._2/batchnorm/sub", "op": "Const", "attr": {"value": {"tensor": {"dtype": "DT_FLOAT", "tensorShape": {"dim": [{"size": "512"}]}}}, "dtype": {"type": "DT_FLOAT"}}}, {"name": "StatefulPartitionedCall/post_net/tf_tacotron_conv_batch_norm_8/conv_._3/conv1d/ExpandDims/dim", "op": "Const", "attr": {"dtype": {"type": "DT_INT32"}, "value": {"tensor": {"dtype": "DT_INT32", "tensorShape": {}}}}}, {"name": "StatefulPartitionedCall/post_net/tf_tacotron_conv_batch_norm_8/conv_._3/conv1d/ExpandDims_1", "op": "Const", "attr": {"value": {"tensor": {"dtype": "DT_FLOAT", "tensorShape": {"dim": [{"size": "1"}, {"size": "5"}, {"size": "512"}, {"size": "512"}]}}}, "dtype": {"type": "DT_FLOAT"}}}, {"name": "StatefulPartitionedCall/post_net/tf_tacotron_conv_batch_norm_8/conv_._3/BiasAdd/ReadVariableOp", "op": "Const", "attr": {"dtype": {"type": "DT_FLOAT"}, "value": {"tensor": {"dtype": "DT_FLOAT", "tensorShape": {"dim": [{"size": "512"}]}}}}}, {"name": "StatefulPartitionedCall/post_net/tf_tacotron_conv_batch_norm_8/batch_norm_._3/batchnorm/mul", "op": "Const", "attr": {"dtype": {"type": "DT_FLOAT"}, "value": {"tensor": {"dtype": "DT_FLOAT", "tensorShape": {"dim": [{"size": "512"}]}}}}}, {"name": "StatefulPartitionedCall/post_net/tf_tacotron_conv_batch_norm_8/batch_norm_._3/batchnorm/sub", "op": "Const", "attr": {"dtype": {"type": "DT_FLOAT"}, "value": {"tensor": {"dtype": "DT_FLOAT", "tensorShape": {"dim": [{"size": "512"}]}}}}}, {"name": "StatefulPartitionedCall/post_net/tf_tacotron_conv_batch_norm_9/conv_._4/conv1d/ExpandDims/dim", "op": "Const", "attr": {"dtype": {"type": "DT_INT32"}, "value": {"tensor": {"dtype": "DT_INT32", "tensorShape": {}}}}}, {"name": "StatefulPartitionedCall/post_net/tf_tacotron_conv_batch_norm_9/conv_._4/conv1d/ExpandDims_1", "op": "Const", "attr": {"dtype": {"type": "DT_FLOAT"}, "value": {"tensor": {"dtype": "DT_FLOAT", "tensorShape": {"dim": [{"size": "1"}, {"size": "5"}, {"size": "512"}, {"size": "512"}]}}}}}, {"name": "StatefulPartitionedCall/post_net/tf_tacotron_conv_batch_norm_9/conv_._4/BiasAdd/ReadVariableOp", "op": "Const", "attr": {"dtype": {"type": "DT_FLOAT"}, "value": {"tensor": {"dtype": "DT_FLOAT", "tensorShape": {"dim": [{"size": "512"}]}}}}}, {"name": "StatefulPartitionedCall/post_net/tf_tacotron_conv_batch_norm_9/batch_norm_._4/batchnorm/mul", "op": "Const", "attr": {"dtype": {"type": "DT_FLOAT"}, "value": {"tensor": {"dtype": "DT_FLOAT", "tensorShape": {"dim": [{"size": "512"}]}}}}}, {"name": "StatefulPartitionedCall/post_net/tf_tacotron_conv_batch_norm_9/batch_norm_._4/batchnorm/sub", "op": "Const", "attr": {"value": {"tensor": {"dtype": "DT_FLOAT", "tensorShape": {"dim": [{"size": "512"}]}}}, "dtype": {"type": "DT_FLOAT"}}}, {"name": "StatefulPartitionedCall/residual_projection/Tensordot/free", "op": "Const", "attr": {"dtype": {"type": "DT_INT32"}, "value": {"tensor": {"dtype": "DT_INT32", "tensorShape": {"dim": [{"size": "2"}]}}}}}, {"name": "StatefulPartitionedCall/residual_projection/Tensordot/GatherV2/axis", "op": "Const", "attr": {"value": {"tensor": {"dtype": "DT_INT32", "tensorShape": {}}}, "dtype": {"type": "DT_INT32"}}}, {"name": "StatefulPartitionedCall/residual_projection/Tensordot/Const_2", "op": "Const", "attr": {"dtype": {"type": "DT_INT32"}, "value": {"tensor": {"dtype": "DT_INT32", "tensorShape": {"dim": [{"size": "1"}]}}}}}, {"name": "StatefulPartitionedCall/residual_projection/Tensordot/concat_1/axis", "op": "Const", "attr": {"value": {"tensor": {"dtype": "DT_INT32", "tensorShape": {}}}, "dtype": {"type": "DT_INT32"}}}, {"name": "StatefulPartitionedCall/residual_projection/BiasAdd/ReadVariableOp", "op": "Const", "attr": {"value": {"tensor": {"dtype": "DT_FLOAT", "tensorShape": {"dim": [{"size": "80"}]}}}, "dtype": {"type": "DT_FLOAT"}}}, {"name": "StatefulPartitionedCall/decoder/TensorArrayV2Stack_1/TensorListStack/element_shape", "op": "Const", "attr": {"value": {"tensor": {"dtype": "DT_INT32", "tensorShape": {"dim": [{"size": "2"}]}}}, "dtype": {"type": "DT_INT32"}}}, {"name": "StatefulPartitionedCall/decoder/concat_4", "op": "Const", "attr": {"value": {"tensor": {"dtype": "DT_INT32", "tensorShape": {"dim": [{"size": "3"}]}}}, "dtype": {"type": "DT_INT32"}}}, {"name": "StatefulPartitionedCall/Reshape_1/shape/1", "op": "Const", "attr": {"dtype": {"type": "DT_INT32"}, "value": {"tensor": {"dtype": "DT_INT32", "tensorShape": {}}}}}, {"name": "StatefulPartitionedCall/decoder/while/loop_counter", "op": "Const", "attr": {"dtype": {"type": "DT_INT32"}, "value": {"tensor": {"dtype": "DT_INT32", "tensorShape": {}}}}}, {"name": "StatefulPartitionedCall/decoder/maximum_iterations", "op": "Const", "attr": {"value": {"tensor": {"dtype": "DT_INT32", "tensorShape": {}}}, "dtype": {"type": "DT_INT32"}}}, {"name": "StatefulPartitionedCall/decoder/Const", "op": "Const", "attr": {"dtype": {"type": "DT_INT32"}, "value": {"tensor": {"dtype": "DT_INT32", "tensorShape": {}}}}}, {"name": "StatefulPartitionedCall/decoder/TensorArrayV2/element_shape", "op": "Const", "attr": {"dtype": {"type": "DT_INT32"}, "value": {"tensor": {"dtype": "DT_INT32", "tensorShape": {"dim": [{"size": "2"}]}}}}}, {"name": "StatefulPartitionedCall/decoder/TensorArrayV2/num_elements", "op": "Const", "attr": {"value": {"tensor": {"dtype": "DT_INT32", "tensorShape": {}}}, "dtype": {"type": "DT_INT32"}}}, {"name": "StatefulPartitionedCall/decoder/TensorArrayV2_1/element_shape", "op": "Const", "attr": {"dtype": {"type": "DT_INT32"}, "value": {"tensor": {"dtype": "DT_INT32", "tensorShape": {"dim": [{"size": "2"}]}}}}}, {"name": "StatefulPartitionedCall/decoder/TensorArrayV2_1/num_elements", "op": "Const", "attr": {"dtype": {"type": "DT_INT32"}, "value": {"tensor": {"dtype": "DT_INT32", "tensorShape": {}}}}}, {"name": "StatefulPartitionedCall/decoder/TensorArrayV2_2/element_shape", "op": "Const", "attr": {"value": {"tensor": {"dtype": "DT_INT32", "tensorShape": {}}}, "dtype": {"type": "DT_INT32"}}}, {"name": "StatefulPartitionedCall/decoder/TensorArrayV2_2/num_elements", "op": "Const", "attr": {"dtype": {"type": "DT_INT32"}, "value": {"tensor": {"dtype": "DT_INT32", "tensorShape": {}}}}}, {"name": "StatefulPartitionedCall/zeros/packed/1", "op": "Const", "attr": {"dtype": {"type": "DT_INT32"}, "value": {"tensor": {"dtype": "DT_INT32", "tensorShape": {}}}}}, {"name": "StatefulPartitionedCall/zeros/Const", "op": "Const", "attr": {"dtype": {"type": "DT_FLOAT"}, "value": {"tensor": {"dtype": "DT_FLOAT", "tensorShape": {}}}}}, {"name": "StatefulPartitionedCall/zeros_1/packed/1", "op": "Const", "attr": {"value": {"tensor": {"dtype": "DT_INT32", "tensorShape": {}}}, "dtype": {"type": "DT_INT32"}}}, {"name": "StatefulPartitionedCall/zeros_1/Const", "op": "Const", "attr": {"dtype": {"type": "DT_FLOAT"}, "value": {"tensor": {"dtype": "DT_FLOAT", "tensorShape": {}}}}}, {"name": "StatefulPartitionedCall/zeros_2/packed/1", "op": "Const", "attr": {"dtype": {"type": "DT_INT32"}, "value": {"tensor": {"dtype": "DT_INT32", "tensorShape": {}}}}}, {"name": "StatefulPartitionedCall/zeros_2/Const", "op": "Const", "attr": {"dtype": {"type": "DT_FLOAT"}, "value": {"tensor": {"dtype": "DT_FLOAT", "tensorShape": {}}}}}, {"name": "StatefulPartitionedCall/zeros_3/packed/1", "op": "Const", "attr": {"value": {"tensor": {"dtype": "DT_INT32", "tensorShape": {}}}, "dtype": {"type": "DT_INT32"}}}, {"name": "StatefulPartitionedCall/zeros_3/Const", "op": "Const", "attr": {"value": {"tensor": {"dtype": "DT_FLOAT", "tensorShape": {}}}, "dtype": {"type": "DT_FLOAT"}}}, {"name": "StatefulPartitionedCall/zeros_4/packed/1", "op": "Const", "attr": {"value": {"tensor": {"dtype": "DT_INT32", "tensorShape": {}}}, "dtype": {"type": "DT_INT32"}}}, {"name": "StatefulPartitionedCall/zeros_4/Const", "op": "Const", "attr": {"value": {"tensor": {"dtype": "DT_FLOAT", "tensorShape": {}}}, "dtype": {"type": "DT_FLOAT"}}}, {"name": "StatefulPartitionedCall/zeros_6", "op": "Const", "attr": {"dtype": {"type": "DT_INT32"}, "value": {"tensor": {"dtype": "DT_INT32", "tensorShape": {}}}}}, {"name": "StatefulPartitionedCall/strided_slice_1/stack", "op": "Const", "attr": {"dtype": {"type": "DT_INT32"}, "value": {"tensor": {"dtype": "DT_INT32", "tensorShape": {"dim": [{"size": "1"}]}}}}}, {"name": "StatefulPartitionedCall/strided_slice_1/stack_1", "op": "Const", "attr": {"dtype": {"type": "DT_INT32"}, "value": {"tensor": {"dtype": "DT_INT32", "tensorShape": {"dim": [{"size": "1"}]}}}}}, {"name": "StatefulPartitionedCall/strided_slice_1/stack_2", "op": "Const", "attr": {"value": {"tensor": {"dtype": "DT_INT32", "tensorShape": {"dim": [{"size": "1"}]}}}, "dtype": {"type": "DT_INT32"}}}, {"name": "StatefulPartitionedCall/zeros_5/Const", "op": "Const", "attr": {"dtype": {"type": "DT_FLOAT"}, "value": {"tensor": {"dtype": "DT_FLOAT", "tensorShape": {}}}}}, {"name": "StatefulPartitionedCall/TensorArrayV2/element_shape", "op": "Const", "attr": {"dtype": {"type": "DT_INT32"}, "value": {"tensor": {"dtype": "DT_INT32", "tensorShape": {}}}}}, {"name": "StatefulPartitionedCall/TensorArrayV2/num_elements", "op": "Const", "attr": {"dtype": {"type": "DT_INT32"}, "value": {"tensor": {"dtype": "DT_INT32", "tensorShape": {}}}}}, {"name": "StatefulPartitionedCall/zeros_7/Const", "op": "Const", "attr": {"dtype": {"type": "DT_INT32"}, "value": {"tensor": {"dtype": "DT_INT32", "tensorShape": {}}}}}, {"name": "StatefulPartitionedCall/decoder/Tile_1/input", "op": "Const", "attr": {"dtype": {"type": "DT_FLOAT"}, "value": {"tensor": {"dtype": "DT_FLOAT", "tensorShape": {"dim": [{"size": "1"}, {"size": "1"}]}}}}}, {"name": "StatefulPartitionedCall/decoder/Tile_1/multiples/1", "op": "Const", "attr": {"dtype": {"type": "DT_INT32"}, "value": {"tensor": {"dtype": "DT_INT32", "tensorShape": {}}}}}, {"name": "StatefulPartitionedCall/decoder/Tile/input", "op": "Const", "attr": {"dtype": {"type": "DT_BOOL"}, "value": {"tensor": {"dtype": "DT_BOOL", "tensorShape": {"dim": [{"size": "1"}]}}}}}, {"name": "StatefulPartitionedCall/decoder/zeros_like/Const", "op": "Const", "attr": {"dtype": {"type": "DT_INT32"}, "value": {"tensor": {"dtype": "DT_INT32", "tensorShape": {}}}}}, {"name": "unknown_39", "op": "Const", "attr": {"dtype": {"type": "DT_FLOAT"}, "value": {"tensor": {"dtype": "DT_FLOAT", "tensorShape": {"dim": [{"size": "80"}, {"size": "256"}]}}}}}, {"name": "unknown_40", "op": "Const", "attr": {"value": {"tensor": {"dtype": "DT_FLOAT", "tensorShape": {"dim": [{"size": "256"}]}}}, "dtype": {"type": "DT_FLOAT"}}}, {"name": "unknown_41", "op": "Const", "attr": {"dtype": {"type": "DT_FLOAT"}, "value": {"tensor": {"dtype": "DT_FLOAT", "tensorShape": {"dim": [{"size": "256"}, {"size": "256"}]}}}}}, {"name": "unknown_42", "op": "Const", "attr": {"dtype": {"type": "DT_FLOAT"}, "value": {"tensor": {"dtype": "DT_FLOAT", "tensorShape": {"dim": [{"size": "256"}]}}}}}, {"name": "unknown_43", "op": "Const", "attr": {"value": {"tensor": {"dtype": "DT_FLOAT", "tensorShape": {"dim": [{"size": "768"}, {"size": "4096"}]}}}, "dtype": {"type": "DT_FLOAT"}}}, {"name": "unknown_44", "op": "Const", "attr": {"value": {"tensor": {"dtype": "DT_FLOAT", "tensorShape": {"dim": [{"size": "1024"}, {"size": "4096"}]}}}, "dtype": {"type": "DT_FLOAT"}}}, {"name": "unknown_45", "op": "Const", "attr": {"value": {"tensor": {"dtype": "DT_FLOAT", "tensorShape": {"dim": [{"size": "4096"}]}}}, "dtype": {"type": "DT_FLOAT"}}}, {"name": "unknown_46", "op": "Const", "attr": {"value": {"tensor": {"dtype": "DT_FLOAT", "tensorShape": {"dim": [{"size": "1024"}, {"size": "128"}]}}}, "dtype": {"type": "DT_FLOAT"}}}, {"name": "unknown_47", "op": "Const", "attr": {"value": {"tensor": {"dtype": "DT_FLOAT", "tensorShape": {"dim": [{"size": "31"}, {"size": "1"}, {"size": "32"}]}}}, "dtype": {"type": "DT_FLOAT"}}}, {"name": "unknown_48", "op": "Const", "attr": {"dtype": {"type": "DT_FLOAT"}, "value": {"tensor": {"dtype": "DT_FLOAT", "tensorShape": {"dim": [{"size": "32"}, {"size": "128"}]}}}}}, {"name": "StatefulPartitionedCall/LocationSensitiveAttention/memory_layer/Tensordot/Const", "op": "Const", "attr": {"dtype": {"type": "DT_INT32"}, "value": {"tensor": {"dtype": "DT_INT32", "tensorShape": {"dim": [{"size": "1"}]}}}}}, {"name": "StatefulPartitionedCall/LocationSensitiveAttention/memory_layer/Tensordot/axes", "op": "Const", "attr": {"dtype": {"type": "DT_INT32"}, "value": {"tensor": {"dtype": "DT_INT32", "tensorShape": {"dim": [{"size": "1"}]}}}}}, {"name": "StatefulPartitionedCall/LocationSensitiveAttention/memory_layer/Tensordot/GatherV2_1/axis", "op": "Const", "attr": {"value": {"tensor": {"dtype": "DT_INT32", "tensorShape": {}}}, "dtype": {"type": "DT_INT32"}}}, {"name": "StatefulPartitionedCall/LocationSensitiveAttention/memory_layer/Tensordot/Const_1", "op": "Const", "attr": {"value": {"tensor": {"dtype": "DT_INT32", "tensorShape": {"dim": [{"size": "1"}]}}}, "dtype": {"type": "DT_INT32"}}}, {"name": "StatefulPartitionedCall/LocationSensitiveAttention/memory_layer/Tensordot/ReadVariableOp", "op": "Const", "attr": {"value": {"tensor": {"dtype": "DT_FLOAT", "tensorShape": {"dim": [{"size": "512"}, {"size": "128"}]}}}, "dtype": {"type": "DT_FLOAT"}}}, {"name": "StatefulPartitionedCall/LocationSensitiveAttention/memory_layer/Tensordot/free", "op": "Const", "attr": {"value": {"tensor": {"dtype": "DT_INT32", "tensorShape": {"dim": [{"size": "2"}]}}}, "dtype": {"type": "DT_INT32"}}}, {"name": "StatefulPartitionedCall/LocationSensitiveAttention/memory_layer/Tensordot/GatherV2/axis", "op": "Const", "attr": {"value": {"tensor": {"dtype": "DT_INT32", "tensorShape": {}}}, "dtype": {"type": "DT_INT32"}}}, {"name": "StatefulPartitionedCall/LocationSensitiveAttention/memory_layer/Tensordot/Const_2", "op": "Const", "attr": {"value": {"tensor": {"dtype": "DT_INT32", "tensorShape": {"dim": [{"size": "1"}]}}}, "dtype": {"type": "DT_INT32"}}}, {"name": "StatefulPartitionedCall/LocationSensitiveAttention/memory_layer/Tensordot/concat_1/axis", "op": "Const", "attr": {"value": {"tensor": {"dtype": "DT_INT32", "tensorShape": {}}}, "dtype": {"type": "DT_INT32"}}}, {"name": "unknown_49", "op": "Const", "attr": {"value": {"tensor": {"dtype": "DT_FLOAT", "tensorShape": {"dim": [{"size": "128"}, {"size": "1"}]}}}, "dtype": {"type": "DT_FLOAT"}}}, {"name": "unknown_50", "op": "Const", "attr": {"dtype": {"type": "DT_FLOAT"}, "value": {"tensor": {"dtype": "DT_FLOAT", "tensorShape": {"dim": [{"size": "1"}]}}}}}, {"name": "StatefulPartitionedCall/LocationSensitiveAttention/SequenceMask/Const", "op": "Const", "attr": {"value": {"tensor": {"dtype": "DT_INT32", "tensorShape": {}}}, "dtype": {"type": "DT_INT32"}}}, {"name": "StatefulPartitionedCall/LocationSensitiveAttention/strided_slice/stack", "op": "Const", "attr": {"dtype": {"type": "DT_INT32"}, "value": {"tensor": {"dtype": "DT_INT32", "tensorShape": {"dim": [{"size": "1"}]}}}}}, {"name": "StatefulPartitionedCall/LocationSensitiveAttention/strided_slice/stack_1", "op": "Const", "attr": {"value": {"tensor": {"dtype": "DT_INT32", "tensorShape": {"dim": [{"size": "1"}]}}}, "dtype": {"type": "DT_INT32"}}}, {"name": "StatefulPartitionedCall/LocationSensitiveAttention/strided_slice/stack_2", "op": "Const", "attr": {"dtype": {"type": "DT_INT32"}, "value": {"tensor": {"dtype": "DT_INT32", "tensorShape": {"dim": [{"size": "1"}]}}}}}, {"name": "StatefulPartitionedCall/LocationSensitiveAttention/SequenceMask/Const_1", "op": "Const", "attr": {"dtype": {"type": "DT_INT32"}, "value": {"tensor": {"dtype": "DT_INT32", "tensorShape": {}}}}}, {"name": "StatefulPartitionedCall/LocationSensitiveAttention/SequenceMask/ExpandDims/dim", "op": "Const", "attr": {"value": {"tensor": {"dtype": "DT_INT32", "tensorShape": {}}}, "dtype": {"type": "DT_INT32"}}}, {"name": "StatefulPartitionedCall/LocationSensitiveAttention/ones", "op": "Const", "attr": {"value": {"tensor": {"dtype": "DT_INT32", "tensorShape": {"dim": [{"size": "1"}]}}}, "dtype": {"type": "DT_INT32"}}}, {"name": "StatefulPartitionedCall/LocationSensitiveAttention/concat/axis", "op": "Const", "attr": {"dtype": {"type": "DT_INT32"}, "value": {"tensor": {"dtype": "DT_INT32", "tensorShape": {}}}}}, {"name": "unknown_51", "op": "Const", "attr": {"dtype": {"type": "DT_FLOAT"}, "value": {"tensor": {"dtype": "DT_FLOAT", "tensorShape": {"dim": [{"size": "1536"}, {"size": "4096"}]}}}}}, {"name": "unknown_52", "op": "Const", "attr": {"value": {"tensor": {"dtype": "DT_FLOAT", "tensorShape": {"dim": [{"size": "1024"}, {"size": "4096"}]}}}, "dtype": {"type": "DT_FLOAT"}}}, {"name": "unknown_53", "op": "Const", "attr": {"dtype": {"type": "DT_FLOAT"}, "value": {"tensor": {"dtype": "DT_FLOAT", "tensorShape": {"dim": [{"size": "4096"}]}}}}}, {"name": "unknown_54", "op": "Const", "attr": {"dtype": {"type": "DT_FLOAT"}, "value": {"tensor": {"dtype": "DT_FLOAT", "tensorShape": {"dim": [{"size": "1536"}, {"size": "80"}]}}}}}, {"name": "unknown_55", "op": "Const", "attr": {"value": {"tensor": {"dtype": "DT_FLOAT", "tensorShape": {"dim": [{"size": "80"}]}}}, "dtype": {"type": "DT_FLOAT"}}}, {"name": "unknown_56", "op": "Const", "attr": {"dtype": {"type": "DT_FLOAT"}, "value": {"tensor": {"dtype": "DT_FLOAT", "tensorShape": {"dim": [{"size": "1104"}, {"size": "1"}]}}}}}, {"name": "unknown_57", "op": "Const", "attr": {"value": {"tensor": {"dtype": "DT_FLOAT", "tensorShape": {"dim": [{"size": "1"}]}}}, "dtype": {"type": "DT_FLOAT"}}}, {"name": "StatefulPartitionedCall/encoder/bilstm/forward_lstm/PartitionedCall/while/loop_counter", "op": "Const", "attr": {"value": {"tensor": {"dtype": "DT_INT32", "tensorShape": {}}}, "dtype": {"type": "DT_INT32"}}}, {"name": "StatefulPartitionedCall/encoder/bilstm/forward_lstm/PartitionedCall/while/maximum_iterations", "op": "Const", "attr": {"value": {"tensor": {"dtype": "DT_INT32", "tensorShape": {}}}, "dtype": {"type": "DT_INT32"}}}, {"name": "StatefulPartitionedCall/encoder/bilstm/forward_lstm/PartitionedCall/time", "op": "Const", "attr": {"value": {"tensor": {"dtype": "DT_INT32", "tensorShape": {}}}, "dtype": {"type": "DT_INT32"}}}, {"name": "StatefulPartitionedCall/encoder/bilstm/forward_lstm/PartitionedCall/TensorArrayV2_1/element_shape", "op": "Const", "attr": {"dtype": {"type": "DT_INT32"}, "value": {"tensor": {"dtype": "DT_INT32", "tensorShape": {"dim": [{"size": "2"}]}}}}}, {"name": "StatefulPartitionedCall/encoder/bilstm/forward_lstm/PartitionedCall/strided_slice/stack", "op": "Const", "attr": {"value": {"tensor": {"dtype": "DT_INT32", "tensorShape": {"dim": [{"size": "1"}]}}}, "dtype": {"type": "DT_INT32"}}}, {"name": "StatefulPartitionedCall/encoder/bilstm/forward_lstm/PartitionedCall/strided_slice/stack_1", "op": "Const", "attr": {"dtype": {"type": "DT_INT32"}, "value": {"tensor": {"dtype": "DT_INT32", "tensorShape": {"dim": [{"size": "1"}]}}}}}, {"name": "StatefulPartitionedCall/encoder/bilstm/forward_lstm/PartitionedCall/strided_slice/stack_2", "op": "Const", "attr": {"value": {"tensor": {"dtype": "DT_INT32", "tensorShape": {"dim": [{"size": "1"}]}}}, "dtype": {"type": "DT_INT32"}}}, {"name": "StatefulPartitionedCall/encoder/bilstm/forward_lstm/PartitionedCall/TensorArrayUnstack/TensorListFromTensor/element_shape", "op": "Const", "attr": {"value": {"tensor": {"dtype": "DT_INT32", "tensorShape": {"dim": [{"size": "2"}]}}}, "dtype": {"type": "DT_INT32"}}}, {"name": "StatefulPartitionedCall/encoder/bilstm/forward_lstm/PartitionedCall/ExpandDims/dim", "op": "Const", "attr": {"dtype": {"type": "DT_INT32"}, "value": {"tensor": {"dtype": "DT_INT32", "tensorShape": {}}}}}, {"name": "StatefulPartitionedCall/encoder/bilstm/forward_lstm/PartitionedCall/transpose_1/perm", "op": "Const", "attr": {"value": {"tensor": {"dtype": "DT_INT32", "tensorShape": {"dim": [{"size": "3"}]}}}, "dtype": {"type": "DT_INT32"}}}, {"name": "StatefulPartitionedCall/encoder/bilstm/forward_lstm/PartitionedCall/TensorArrayUnstack_1/TensorListFromTensor/element_shape", "op": "Const", "attr": {"dtype": {"type": "DT_INT32"}, "value": {"tensor": {"dtype": "DT_INT32", "tensorShape": {"dim": [{"size": "2"}]}}}}}, {"name": "StatefulPartitionedCall/encoder/bilstm/forward_lstm/zeros_1/packed/1", "op": "Const", "attr": {"value": {"tensor": {"dtype": "DT_INT32", "tensorShape": {}}}, "dtype": {"type": "DT_INT32"}}}, {"name": "StatefulPartitionedCall/encoder/bilstm/forward_lstm/zeros_1/Const", "op": "Const", "attr": {"dtype": {"type": "DT_FLOAT"}, "value": {"tensor": {"dtype": "DT_FLOAT", "tensorShape": {}}}}}, {"name": "StatefulPartitionedCall/encoder/bilstm/forward_lstm/PartitionedCall/split/split_dim", "op": "Const", "attr": {"value": {"tensor": {"dtype": "DT_INT32", "tensorShape": {}}}, "dtype": {"type": "DT_INT32"}}}, {"name": "StatefulPartitionedCall/encoder/bilstm/forward_lstm/PartitionedCall/transpose/perm", "op": "Const", "attr": {"value": {"tensor": {"dtype": "DT_INT32", "tensorShape": {"dim": [{"size": "3"}]}}}, "dtype": {"type": "DT_INT32"}}}, {"name": "StatefulPartitionedCall/encoder/bilstm/forward_lstm/PartitionedCall/strided_slice_1/stack", "op": "Const", "attr": {"value": {"tensor": {"dtype": "DT_INT32", "tensorShape": {"dim": [{"size": "1"}]}}}, "dtype": {"type": "DT_INT32"}}}, {"name": "StatefulPartitionedCall/encoder/bilstm/forward_lstm/PartitionedCall/strided_slice_1/stack_1", "op": "Const", "attr": {"dtype": {"type": "DT_INT32"}, "value": {"tensor": {"dtype": "DT_INT32", "tensorShape": {"dim": [{"size": "1"}]}}}}}, {"name": "StatefulPartitionedCall/encoder/bilstm/forward_lstm/PartitionedCall/strided_slice_1/stack_2", "op": "Const", "attr": {"dtype": {"type": "DT_INT32"}, "value": {"tensor": {"dtype": "DT_INT32", "tensorShape": {"dim": [{"size": "1"}]}}}}}, {"name": "StatefulPartitionedCall/encoder/bilstm/forward_lstm/Read/ReadVariableOp", "op": "Const", "attr": {"value": {"tensor": {"dtype": "DT_FLOAT", "tensorShape": {"dim": [{"size": "512"}, {"size": "1024"}]}}}, "dtype": {"type": "DT_FLOAT"}}}, {"name": "StatefulPartitionedCall/encoder/bilstm/forward_lstm/strided_slice/stack", "op": "Const", "attr": {"dtype": {"type": "DT_INT32"}, "value": {"tensor": {"dtype": "DT_INT32", "tensorShape": {"dim": [{"size": "1"}]}}}}}, {"name": "StatefulPartitionedCall/encoder/bilstm/forward_lstm/strided_slice/stack_1", "op": "Const", "attr": {"dtype": {"type": "DT_INT32"}, "value": {"tensor": {"dtype": "DT_INT32", "tensorShape": {"dim": [{"size": "1"}]}}}}}, {"name": "StatefulPartitionedCall/encoder/bilstm/forward_lstm/strided_slice/stack_2", "op": "Const", "attr": {"dtype": {"type": "DT_INT32"}, "value": {"tensor": {"dtype": "DT_INT32", "tensorShape": {"dim": [{"size": "1"}]}}}}}, {"name": "StatefulPartitionedCall/encoder/bilstm/forward_lstm/zeros/packed/1", "op": "Const", "attr": {"dtype": {"type": "DT_INT32"}, "value": {"tensor": {"dtype": "DT_INT32", "tensorShape": {}}}}}, {"name": "StatefulPartitionedCall/encoder/bilstm/forward_lstm/zeros/Const", "op": "Const", "attr": {"dtype": {"type": "DT_FLOAT"}, "value": {"tensor": {"dtype": "DT_FLOAT", "tensorShape": {}}}}}, {"name": "StatefulPartitionedCall/encoder/bilstm/forward_lstm/Read_1/ReadVariableOp", "op": "Const", "attr": {"dtype": {"type": "DT_FLOAT"}, "value": {"tensor": {"dtype": "DT_FLOAT", "tensorShape": {"dim": [{"size": "256"}, {"size": "1024"}]}}}}}, {"name": "StatefulPartitionedCall/encoder/bilstm/forward_lstm/Read_2/ReadVariableOp", "op": "Const", "attr": {"value": {"tensor": {"dtype": "DT_FLOAT", "tensorShape": {"dim": [{"size": "1024"}]}}}, "dtype": {"type": "DT_FLOAT"}}}, {"name": "StatefulPartitionedCall/encoder/bilstm/forward_lstm/PartitionedCall/TensorArrayV2Stack/TensorListStack/element_shape", "op": "Const", "attr": {"dtype": {"type": "DT_INT32"}, "value": {"tensor": {"dtype": "DT_INT32", "tensorShape": {"dim": [{"size": "2"}]}}}}}, {"name": "StatefulPartitionedCall/encoder/bilstm/forward_lstm/PartitionedCall/transpose_2/perm", "op": "Const", "attr": {"value": {"tensor": {"dtype": "DT_INT32", "tensorShape": {"dim": [{"size": "3"}]}}}, "dtype": {"type": "DT_INT32"}}}, {"name": "StatefulPartitionedCall/encoder/bilstm/backward_lstm/PartitionedCall/while/loop_counter", "op": "Const", "attr": {"dtype": {"type": "DT_INT32"}, "value": {"tensor": {"dtype": "DT_INT32", "tensorShape": {}}}}}, {"name": "StatefulPartitionedCall/encoder/bilstm/backward_lstm/PartitionedCall/while/maximum_iterations", "op": "Const", "attr": {"value": {"tensor": {"dtype": "DT_INT32", "tensorShape": {}}}, "dtype": {"type": "DT_INT32"}}}, {"name": "StatefulPartitionedCall/encoder/bilstm/backward_lstm/PartitionedCall/time", "op": "Const", "attr": {"dtype": {"type": "DT_INT32"}, "value": {"tensor": {"dtype": "DT_INT32", "tensorShape": {}}}}}, {"name": "StatefulPartitionedCall/encoder/bilstm/backward_lstm/PartitionedCall/TensorArrayV2_1/element_shape", "op": "Const", "attr": {"value": {"tensor": {"dtype": "DT_INT32", "tensorShape": {"dim": [{"size": "2"}]}}}, "dtype": {"type": "DT_INT32"}}}, {"name": "StatefulPartitionedCall/encoder/bilstm/backward_lstm/PartitionedCall/strided_slice/stack", "op": "Const", "attr": {"dtype": {"type": "DT_INT32"}, "value": {"tensor": {"dtype": "DT_INT32", "tensorShape": {"dim": [{"size": "1"}]}}}}}, {"name": "StatefulPartitionedCall/encoder/bilstm/backward_lstm/PartitionedCall/strided_slice/stack_1", "op": "Const", "attr": {"value": {"tensor": {"dtype": "DT_INT32", "tensorShape": {"dim": [{"size": "1"}]}}}, "dtype": {"type": "DT_INT32"}}}, {"name": "StatefulPartitionedCall/encoder/bilstm/backward_lstm/PartitionedCall/strided_slice/stack_2", "op": "Const", "attr": {"dtype": {"type": "DT_INT32"}, "value": {"tensor": {"dtype": "DT_INT32", "tensorShape": {"dim": [{"size": "1"}]}}}}}, {"name": "StatefulPartitionedCall/encoder/bilstm/backward_lstm/PartitionedCall/ReverseV2/axis", "op": "Const", "attr": {"value": {"tensor": {"dtype": "DT_INT32", "tensorShape": {"dim": [{"size": "1"}]}}}, "dtype": {"type": "DT_INT32"}}}, {"name": "StatefulPartitionedCall/encoder/bilstm/backward_lstm/PartitionedCall/TensorArrayUnstack/TensorListFromTensor/element_shape", "op": "Const", "attr": {"dtype": {"type": "DT_INT32"}, "value": {"tensor": {"dtype": "DT_INT32", "tensorShape": {"dim": [{"size": "2"}]}}}}}, {"name": "StatefulPartitionedCall/input_sequence_masks/Const", "op": "Const", "attr": {"value": {"tensor": {"dtype": "DT_INT32", "tensorShape": {}}}, "dtype": {"type": "DT_INT32"}}}, {"name": "StatefulPartitionedCall/Const", "op": "Const", "attr": {"dtype": {"type": "DT_INT32"}, "value": {"tensor": {"dtype": "DT_INT32", "tensorShape": {"dim": [{"size": "1"}]}}}}}, {"name": "StatefulPartitionedCall/input_sequence_masks/Const_1", "op": "Const", "attr": {"dtype": {"type": "DT_INT32"}, "value": {"tensor": {"dtype": "DT_INT32", "tensorShape": {}}}}}, {"name": "StatefulPartitionedCall/input_sequence_masks/ExpandDims/dim", "op": "Const", "attr": {"value": {"tensor": {"dtype": "DT_INT32", "tensorShape": {}}}, "dtype": {"type": "DT_INT32"}}}, {"name": "StatefulPartitionedCall/encoder/bilstm/backward_lstm/PartitionedCall/ExpandDims/dim", "op": "Const", "attr": {"dtype": {"type": "DT_INT32"}, "value": {"tensor": {"dtype": "DT_INT32", "tensorShape": {}}}}}, {"name": "StatefulPartitionedCall/encoder/bilstm/backward_lstm/PartitionedCall/transpose_1/perm", "op": "Const", "attr": {"value": {"tensor": {"dtype": "DT_INT32", "tensorShape": {"dim": [{"size": "3"}]}}}, "dtype": {"type": "DT_INT32"}}}, {"name": "StatefulPartitionedCall/encoder/bilstm/backward_lstm/PartitionedCall/ReverseV2_1/axis", "op": "Const", "attr": {"dtype": {"type": "DT_INT32"}, "value": {"tensor": {"dtype": "DT_INT32", "tensorShape": {"dim": [{"size": "1"}]}}}}}, {"name": "StatefulPartitionedCall/encoder/bilstm/backward_lstm/PartitionedCall/TensorArrayUnstack_1/TensorListFromTensor/element_shape", "op": "Const", "attr": {"value": {"tensor": {"dtype": "DT_INT32", "tensorShape": {"dim": [{"size": "2"}]}}}, "dtype": {"type": "DT_INT32"}}}, {"name": "StatefulPartitionedCall/encoder/bilstm/backward_lstm/zeros_1/packed/1", "op": "Const", "attr": {"value": {"tensor": {"dtype": "DT_INT32", "tensorShape": {}}}, "dtype": {"type": "DT_INT32"}}}, {"name": "StatefulPartitionedCall/encoder/bilstm/backward_lstm/zeros_1/Const", "op": "Const", "attr": {"dtype": {"type": "DT_FLOAT"}, "value": {"tensor": {"dtype": "DT_FLOAT", "tensorShape": {}}}}}, {"name": "StatefulPartitionedCall/encoder/bilstm/backward_lstm/PartitionedCall/split/split_dim", "op": "Const", "attr": {"dtype": {"type": "DT_INT32"}, "value": {"tensor": {"dtype": "DT_INT32", "tensorShape": {}}}}}, {"name": "StatefulPartitionedCall/encoder/bilstm/backward_lstm/PartitionedCall/transpose/perm", "op": "Const", "attr": {"dtype": {"type": "DT_INT32"}, "value": {"tensor": {"dtype": "DT_INT32", "tensorShape": {"dim": [{"size": "3"}]}}}}}, {"name": "StatefulPartitionedCall/encoder/bilstm/backward_lstm/PartitionedCall/strided_slice_1/stack", "op": "Const", "attr": {"value": {"tensor": {"dtype": "DT_INT32", "tensorShape": {"dim": [{"size": "1"}]}}}, "dtype": {"type": "DT_INT32"}}}, {"name": "StatefulPartitionedCall/encoder/bilstm/backward_lstm/PartitionedCall/strided_slice_1/stack_1", "op": "Const", "attr": {"dtype": {"type": "DT_INT32"}, "value": {"tensor": {"dtype": "DT_INT32", "tensorShape": {"dim": [{"size": "1"}]}}}}}, {"name": "StatefulPartitionedCall/encoder/bilstm/backward_lstm/PartitionedCall/strided_slice_1/stack_2", "op": "Const", "attr": {"dtype": {"type": "DT_INT32"}, "value": {"tensor": {"dtype": "DT_INT32", "tensorShape": {"dim": [{"size": "1"}]}}}}}, {"name": "StatefulPartitionedCall/encoder/bilstm/backward_lstm/Read/ReadVariableOp", "op": "Const", "attr": {"value": {"tensor": {"dtype": "DT_FLOAT", "tensorShape": {"dim": [{"size": "512"}, {"size": "1024"}]}}}, "dtype": {"type": "DT_FLOAT"}}}, {"name": "StatefulPartitionedCall/encoder/embeddings/LayerNorm/batchnorm/ReadVariableOp", "op": "Const", "attr": {"value": {"tensor": {"dtype": "DT_FLOAT", "tensorShape": {"dim": [{"size": "512"}]}}}, "dtype": {"type": "DT_FLOAT"}}}, {"name": "unknown", "op": "Const", "attr": {"value": {"tensor": {"dtype": "DT_FLOAT", "tensorShape": {"dim": [{"size": "149"}, {"size": "512"}]}}}, "dtype": {"type": "DT_FLOAT"}}}, {"name": "StatefulPartitionedCall/encoder/embeddings/Gather/axis", "op": "Const", "attr": {"dtype": {"type": "DT_INT32"}, "value": {"tensor": {"dtype": "DT_INT32", "tensorShape": {}}}}}, {"name": "StatefulPartitionedCall/encoder/embeddings/LayerNorm/moments/mean/reduction_indices", "op": "Const", "attr": {"value": {"tensor": {"dtype": "DT_INT32", "tensorShape": {"dim": [{"size": "1"}]}}}, "dtype": {"type": "DT_INT32"}}}, {"name": "StatefulPartitionedCall/encoder/embeddings/LayerNorm/moments/variance/reduction_indices", "op": "Const", "attr": {"value": {"tensor": {"dtype": "DT_INT32", "tensorShape": {"dim": [{"size": "1"}]}}}, "dtype": {"type": "DT_INT32"}}}, {"name": "StatefulPartitionedCall/encoder/embeddings/LayerNorm/batchnorm/add/y", "op": "Const", "attr": {"dtype": {"type": "DT_FLOAT"}, "value": {"tensor": {"dtype": "DT_FLOAT", "tensorShape": {}}}}}, {"name": "StatefulPartitionedCall/encoder/embeddings/LayerNorm/batchnorm/mul/ReadVariableOp", "op": "Const", "attr": {"dtype": {"type": "DT_FLOAT"}, "value": {"tensor": {"dtype": "DT_FLOAT", "tensorShape": {"dim": [{"size": "512"}]}}}}}, {"name": "StatefulPartitionedCall/encoder/conv_batch_norm/tf_tacotron_conv_batch_norm/conv_._0/conv1d/ExpandDims/dim", "op": "Const", "attr": {"dtype": {"type": "DT_INT32"}, "value": {"tensor": {"dtype": "DT_INT32", "tensorShape": {}}}}}, {"name": "StatefulPartitionedCall/encoder/conv_batch_norm/tf_tacotron_conv_batch_norm/conv_._0/conv1d/ExpandDims_1", "op": "Const", "attr": {"dtype": {"type": "DT_FLOAT"}, "value": {"tensor": {"dtype": "DT_FLOAT", "tensorShape": {"dim": [{"size": "1"}, {"size": "5"}, {"size": "512"}, {"size": "512"}]}}}}}, {"name": "StatefulPartitionedCall/encoder/conv_batch_norm/tf_tacotron_conv_batch_norm/conv_._0/BiasAdd/ReadVariableOp", "op": "Const", "attr": {"dtype": {"type": "DT_FLOAT"}, "value": {"tensor": {"dtype": "DT_FLOAT", "tensorShape": {"dim": [{"size": "512"}]}}}}}, {"name": "StatefulPartitionedCall/encoder/conv_batch_norm/tf_tacotron_conv_batch_norm/batch_norm_._0/batchnorm/mul", "op": "Const", "attr": {"dtype": {"type": "DT_FLOAT"}, "value": {"tensor": {"dtype": "DT_FLOAT", "tensorShape": {"dim": [{"size": "512"}]}}}}}, {"name": "StatefulPartitionedCall/encoder/conv_batch_norm/tf_tacotron_conv_batch_norm/batch_norm_._0/batchnorm/sub", "op": "Const", "attr": {"value": {"tensor": {"dtype": "DT_FLOAT", "tensorShape": {"dim": [{"size": "512"}]}}}, "dtype": {"type": "DT_FLOAT"}}}, {"name": "StatefulPartitionedCall/encoder/conv_batch_norm/tf_tacotron_conv_batch_norm_1/conv_._1/conv1d/ExpandDims/dim", "op": "Const", "attr": {"value": {"tensor": {"dtype": "DT_INT32", "tensorShape": {}}}, "dtype": {"type": "DT_INT32"}}}, {"name": "StatefulPartitionedCall/encoder/conv_batch_norm/tf_tacotron_conv_batch_norm_1/conv_._1/conv1d/ExpandDims_1", "op": "Const", "attr": {"dtype": {"type": "DT_FLOAT"}, "value": {"tensor": {"dtype": "DT_FLOAT", "tensorShape": {"dim": [{"size": "1"}, {"size": "5"}, {"size": "512"}, {"size": "512"}]}}}}}, {"name": "StatefulPartitionedCall/encoder/conv_batch_norm/tf_tacotron_conv_batch_norm_1/conv_._1/BiasAdd/ReadVariableOp", "op": "Const", "attr": {"value": {"tensor": {"dtype": "DT_FLOAT", "tensorShape": {"dim": [{"size": "512"}]}}}, "dtype": {"type": "DT_FLOAT"}}}, {"name": "StatefulPartitionedCall/encoder/conv_batch_norm/tf_tacotron_conv_batch_norm_1/batch_norm_._1/batchnorm/mul", "op": "Const", "attr": {"value": {"tensor": {"dtype": "DT_FLOAT", "tensorShape": {"dim": [{"size": "512"}]}}}, "dtype": {"type": "DT_FLOAT"}}}, {"name": "StatefulPartitionedCall/encoder/conv_batch_norm/tf_tacotron_conv_batch_norm_1/batch_norm_._1/batchnorm/sub", "op": "Const", "attr": {"value": {"tensor": {"dtype": "DT_FLOAT", "tensorShape": {"dim": [{"size": "512"}]}}}, "dtype": {"type": "DT_FLOAT"}}}, {"name": "StatefulPartitionedCall/encoder/conv_batch_norm/tf_tacotron_conv_batch_norm_2/conv_._2/conv1d/ExpandDims/dim", "op": "Const", "attr": {"dtype": {"type": "DT_INT32"}, "value": {"tensor": {"dtype": "DT_INT32", "tensorShape": {}}}}}, {"name": "StatefulPartitionedCall/encoder/conv_batch_norm/tf_tacotron_conv_batch_norm_2/conv_._2/conv1d/ExpandDims_1", "op": "Const", "attr": {"value": {"tensor": {"dtype": "DT_FLOAT", "tensorShape": {"dim": [{"size": "1"}, {"size": "5"}, {"size": "512"}, {"size": "512"}]}}}, "dtype": {"type": "DT_FLOAT"}}}, {"name": "StatefulPartitionedCall/encoder/conv_batch_norm/tf_tacotron_conv_batch_norm_2/conv_._2/BiasAdd/ReadVariableOp", "op": "Const", "attr": {"dtype": {"type": "DT_FLOAT"}, "value": {"tensor": {"dtype": "DT_FLOAT", "tensorShape": {"dim": [{"size": "512"}]}}}}}, {"name": "StatefulPartitionedCall/encoder/conv_batch_norm/tf_tacotron_conv_batch_norm_2/batch_norm_._2/batchnorm/mul", "op": "Const", "attr": {"dtype": {"type": "DT_FLOAT"}, "value": {"tensor": {"dtype": "DT_FLOAT", "tensorShape": {"dim": [{"size": "512"}]}}}}}, {"name": "StatefulPartitionedCall/encoder/conv_batch_norm/tf_tacotron_conv_batch_norm_2/batch_norm_._2/batchnorm/sub", "op": "Const", "attr": {"value": {"tensor": {"dtype": "DT_FLOAT", "tensorShape": {"dim": [{"size": "512"}]}}}, "dtype": {"type": "DT_FLOAT"}}}, {"name": "StatefulPartitionedCall/encoder/conv_batch_norm/tf_tacotron_conv_batch_norm_3/conv_._3/conv1d/ExpandDims/dim", "op": "Const", "attr": {"value": {"tensor": {"dtype": "DT_INT32", "tensorShape": {}}}, "dtype": {"type": "DT_INT32"}}}, {"name": "StatefulPartitionedCall/encoder/conv_batch_norm/tf_tacotron_conv_batch_norm_3/conv_._3/conv1d/ExpandDims_1", "op": "Const", "attr": {"dtype": {"type": "DT_FLOAT"}, "value": {"tensor": {"dtype": "DT_FLOAT", "tensorShape": {"dim": [{"size": "1"}, {"size": "5"}, {"size": "512"}, {"size": "512"}]}}}}}, {"name": "StatefulPartitionedCall/encoder/conv_batch_norm/tf_tacotron_conv_batch_norm_3/conv_._3/BiasAdd/ReadVariableOp", "op": "Const", "attr": {"value": {"tensor": {"dtype": "DT_FLOAT", "tensorShape": {"dim": [{"size": "512"}]}}}, "dtype": {"type": "DT_FLOAT"}}}, {"name": "StatefulPartitionedCall/encoder/conv_batch_norm/tf_tacotron_conv_batch_norm_3/batch_norm_._3/batchnorm/mul", "op": "Const", "attr": {"value": {"tensor": {"dtype": "DT_FLOAT", "tensorShape": {"dim": [{"size": "512"}]}}}, "dtype": {"type": "DT_FLOAT"}}}, {"name": "StatefulPartitionedCall/encoder/conv_batch_norm/tf_tacotron_conv_batch_norm_3/batch_norm_._3/batchnorm/sub", "op": "Const", "attr": {"dtype": {"type": "DT_FLOAT"}, "value": {"tensor": {"dtype": "DT_FLOAT", "tensorShape": {"dim": [{"size": "512"}]}}}}}, {"name": "StatefulPartitionedCall/encoder/conv_batch_norm/tf_tacotron_conv_batch_norm_4/conv_._4/conv1d/ExpandDims/dim", "op": "Const", "attr": {"value": {"tensor": {"dtype": "DT_INT32", "tensorShape": {}}}, "dtype": {"type": "DT_INT32"}}}, {"name": "StatefulPartitionedCall/encoder/conv_batch_norm/tf_tacotron_conv_batch_norm_4/conv_._4/conv1d/ExpandDims_1", "op": "Const", "attr": {"dtype": {"type": "DT_FLOAT"}, "value": {"tensor": {"dtype": "DT_FLOAT", "tensorShape": {"dim": [{"size": "1"}, {"size": "5"}, {"size": "512"}, {"size": "512"}]}}}}}, {"name": "StatefulPartitionedCall/encoder/conv_batch_norm/tf_tacotron_conv_batch_norm_4/conv_._4/BiasAdd/ReadVariableOp", "op": "Const", "attr": {"dtype": {"type": "DT_FLOAT"}, "value": {"tensor": {"dtype": "DT_FLOAT", "tensorShape": {"dim": [{"size": "512"}]}}}}}, {"name": "StatefulPartitionedCall/encoder/conv_batch_norm/tf_tacotron_conv_batch_norm_4/batch_norm_._4/batchnorm/mul", "op": "Const", "attr": {"value": {"tensor": {"dtype": "DT_FLOAT", "tensorShape": {"dim": [{"size": "512"}]}}}, "dtype": {"type": "DT_FLOAT"}}}, {"name": "StatefulPartitionedCall/encoder/conv_batch_norm/tf_tacotron_conv_batch_norm_4/batch_norm_._4/batchnorm/sub", "op": "Const", "attr": {"value": {"tensor": {"dtype": "DT_FLOAT", "tensorShape": {"dim": [{"size": "512"}]}}}, "dtype": {"type": "DT_FLOAT"}}}, {"name": "StatefulPartitionedCall/encoder/bilstm/backward_lstm/strided_slice/stack", "op": "Const", "attr": {"value": {"tensor": {"dtype": "DT_INT32", "tensorShape": {"dim": [{"size": "1"}]}}}, "dtype": {"type": "DT_INT32"}}}, {"name": "StatefulPartitionedCall/encoder/bilstm/backward_lstm/strided_slice/stack_1", "op": "Const", "attr": {"dtype": {"type": "DT_INT32"}, "value": {"tensor": {"dtype": "DT_INT32", "tensorShape": {"dim": [{"size": "1"}]}}}}}, {"name": "StatefulPartitionedCall/encoder/bilstm/backward_lstm/strided_slice/stack_2", "op": "Const", "attr": {"dtype": {"type": "DT_INT32"}, "value": {"tensor": {"dtype": "DT_INT32", "tensorShape": {"dim": [{"size": "1"}]}}}}}, {"name": "StatefulPartitionedCall/encoder/bilstm/backward_lstm/zeros/packed/1", "op": "Const", "attr": {"dtype": {"type": "DT_INT32"}, "value": {"tensor": {"dtype": "DT_INT32", "tensorShape": {}}}}}, {"name": "StatefulPartitionedCall/encoder/bilstm/backward_lstm/zeros/Const", "op": "Const", "attr": {"value": {"tensor": {"dtype": "DT_FLOAT", "tensorShape": {}}}, "dtype": {"type": "DT_FLOAT"}}}, {"name": "StatefulPartitionedCall/encoder/bilstm/backward_lstm/Read_1/ReadVariableOp", "op": "Const", "attr": {"value": {"tensor": {"dtype": "DT_FLOAT", "tensorShape": {"dim": [{"size": "256"}, {"size": "1024"}]}}}, "dtype": {"type": "DT_FLOAT"}}}, {"name": "StatefulPartitionedCall/encoder/bilstm/backward_lstm/Read_2/ReadVariableOp", "op": "Const", "attr": {"dtype": {"type": "DT_FLOAT"}, "value": {"tensor": {"dtype": "DT_FLOAT", "tensorShape": {"dim": [{"size": "1024"}]}}}}}, {"name": "StatefulPartitionedCall/encoder/bilstm/backward_lstm/PartitionedCall/TensorArrayV2Stack/TensorListStack/element_shape", "op": "Const", "attr": {"dtype": {"type": "DT_INT32"}, "value": {"tensor": {"dtype": "DT_INT32", "tensorShape": {"dim": [{"size": "2"}]}}}}}, {"name": "StatefulPartitionedCall/encoder/bilstm/backward_lstm/PartitionedCall/transpose_2/perm", "op": "Const", "attr": {"value": {"tensor": {"dtype": "DT_INT32", "tensorShape": {"dim": [{"size": "3"}]}}}, "dtype": {"type": "DT_INT32"}}}, {"name": "StatefulPartitionedCall/encoder/bilstm/ReverseV2/axis", "op": "Const", "attr": {"dtype": {"type": "DT_INT32"}, "value": {"tensor": {"dtype": "DT_INT32", "tensorShape": {"dim": [{"size": "1"}]}}}}}, {"name": "StatefulPartitionedCall/encoder/bilstm/concat/axis", "op": "Const", "attr": {"dtype": {"type": "DT_INT32"}, "value": {"tensor": {"dtype": "DT_INT32", "tensorShape": {}}}}}, {"name": "StatefulPartitionedCall/strided_slice/stack", "op": "Const", "attr": {"dtype": {"type": "DT_INT32"}, "value": {"tensor": {"dtype": "DT_INT32", "tensorShape": {"dim": [{"size": "1"}]}}}}}, {"name": "StatefulPartitionedCall/strided_slice/stack_1", "op": "Const", "attr": {"dtype": {"type": "DT_INT32"}, "value": {"tensor": {"dtype": "DT_INT32", "tensorShape": {"dim": [{"size": "1"}]}}}}}, {"name": "StatefulPartitionedCall/strided_slice/stack_2", "op": "Const", "attr": {"dtype": {"type": "DT_INT32"}, "value": {"tensor": {"dtype": "DT_INT32", "tensorShape": {"dim": [{"size": "1"}]}}}}}, {"name": "StatefulPartitionedCall/TensorArrayV2Stack/TensorListStack/element_shape", "op": "Const", "attr": {"value": {"tensor": {"dtype": "DT_INT32", "tensorShape": {"dim": [{"size": "2"}]}}}, "dtype": {"type": "DT_INT32"}}}, {"name": "StatefulPartitionedCall/transpose/perm", "op": "Const", "attr": {"dtype": {"type": "DT_INT32"}, "value": {"tensor": {"dtype": "DT_INT32", "tensorShape": {"dim": [{"size": "3"}]}}}}}, {"name": "input_ids", "op": "Placeholder", "attr": {"dtype": {"type": "DT_INT32"}, "shape": {"shape": {"dim": [{"size": "-1"}, {"size": "-1"}]}}}}, {"name": "input_lengths", "op": "Placeholder", "attr": {"dtype": {"type": "DT_INT32"}, "shape": {"shape": {"dim": [{"size": "-1"}]}}}}, {"name": "speaker_ids", "op": "Placeholder", "attr": {"shape": {"shape": {"dim": [{"size": "-1"}]}}, "dtype": {"type": "DT_INT32"}}}, {"name": "StatefulPartitionedCall/decoder/TensorArrayV2", "op": "TensorListReserve", "input": ["StatefulPartitionedCall/decoder/TensorArrayV2/element_shape", "StatefulPartitionedCall/decoder/TensorArrayV2/num_elements"], "attr": {"element_dtype": {"type": "DT_FLOAT"}, "shape_type": {"type": "DT_INT32"}}}, {"name": "StatefulPartitionedCall/decoder/TensorArrayV2_1", "op": "TensorListReserve", "input": ["StatefulPartitionedCall/decoder/TensorArrayV2_1/element_shape", "StatefulPartitionedCall/decoder/TensorArrayV2_1/num_elements"], "attr": {"shape_type": {"type": "DT_INT32"}, "element_dtype": {"type": "DT_FLOAT"}}}, {"name": "StatefulPartitionedCall/decoder/TensorArrayV2_2", "op": "TensorListReserve", "input": ["StatefulPartitionedCall/decoder/TensorArrayV2_2/element_shape", "StatefulPartitionedCall/decoder/TensorArrayV2_2/num_elements"], "attr": {"shape_type": {"type": "DT_INT32"}, "element_dtype": {"type": "DT_INT32"}}}, {"name": "StatefulPartitionedCall/TensorArrayV2", "op": "TensorListReserve", "input": ["StatefulPartitionedCall/TensorArrayV2/element_shape", "StatefulPartitionedCall/TensorArrayV2/num_elements"], "attr": {"element_dtype": {"type": "DT_FLOAT"}, "shape_type": {"type": "DT_INT32"}}}, {"name": "StatefulPartitionedCall/encoder/embeddings/Gather", "op": "GatherV2", "input": ["unknown", "input_ids", "StatefulPartitionedCall/encoder/embeddings/Gather/axis"], "attr": {"batch_dims": {"i": "0"}, "Tparams": {"type": "DT_FLOAT"}, "Taxis": {"type": "DT_INT32"}, "Tindices": {"type": "DT_INT32"}}}, {"name": "StatefulPartitionedCall/LocationSensitiveAttention/SequenceMask/ExpandDims", "op": "ExpandDims", "input": ["input_lengths", "StatefulPartitionedCall/LocationSensitiveAttention/SequenceMask/ExpandDims/dim"], "attr": {"Tdim": {"type": "DT_INT32"}, "T": {"type": "DT_INT32"}}}, {"name": "StatefulPartitionedCall/Max", "op": "Max", "input": ["input_lengths", "StatefulPartitionedCall/Const"], "attr": {"T": {"type": "DT_INT32"}, "Tidx": {"type": "DT_INT32"}, "keep_dims": {"b": false}}}, {"name": "StatefulPartitionedCall/input_sequence_masks/ExpandDims", "op": "ExpandDims", "input": ["input_lengths", "StatefulPartitionedCall/input_sequence_masks/ExpandDims/dim"], "attr": {"Tdim": {"type": "DT_INT32"}, "T": {"type": "DT_INT32"}}}, {"name": "StatefulPartitionedCall/encoder/embeddings/LayerNorm/moments/mean", "op": "Mean", "input": ["StatefulPartitionedCall/encoder/embeddings/Gather", "StatefulPartitionedCall/encoder/embeddings/LayerNorm/moments/mean/reduction_indices"], "attr": {"T": {"type": "DT_FLOAT"}, "keep_dims": {"b": true}, "Tidx": {"type": "DT_INT32"}}}, {"name": "StatefulPartitionedCall/input_sequence_masks/Range", "op": "Range", "input": ["StatefulPartitionedCall/input_sequence_masks/Const", "StatefulPartitionedCall/Max", "StatefulPartitionedCall/input_sequence_masks/Const_1"], "attr": {"Tidx": {"type": "DT_INT32"}}}, {"name": "StatefulPartitionedCall/encoder/embeddings/LayerNorm/moments/SquaredDifference", "op": "SquaredDifference", "input": ["StatefulPartitionedCall/encoder/embeddings/Gather", "StatefulPartitionedCall/encoder/embeddings/LayerNorm/moments/mean"], "attr": {"T": {"type": "DT_FLOAT"}}}, {"name": "StatefulPartitionedCall/input_sequence_masks/Less", "op": "Less", "input": ["StatefulPartitionedCall/input_sequence_masks/Range", "StatefulPartitionedCall/input_sequence_masks/ExpandDims"], "attr": {"T": {"type": "DT_INT32"}}}, {"name": "StatefulPartitionedCall/encoder/embeddings/LayerNorm/moments/variance", "op": "Mean", "input": ["StatefulPartitionedCall/encoder/embeddings/LayerNorm/moments/SquaredDifference", "StatefulPartitionedCall/encoder/embeddings/LayerNorm/moments/variance/reduction_indices"], "attr": {"T": {"type": "DT_FLOAT"}, "Tidx": {"type": "DT_INT32"}, "keep_dims": {"b": true}}}, {"name": "StatefulPartitionedCall/encoder/bilstm/forward_lstm/PartitionedCall/ExpandDims", "op": "ExpandDims", "input": ["StatefulPartitionedCall/input_sequence_masks/Less", "StatefulPartitionedCall/encoder/bilstm/forward_lstm/PartitionedCall/ExpandDims/dim"], "attr": {"Tdim": {"type": "DT_INT32"}, "T": {"type": "DT_BOOL"}}}, {"name": "StatefulPartitionedCall/encoder/bilstm/backward_lstm/PartitionedCall/ExpandDims", "op": "ExpandDims", "input": ["StatefulPartitionedCall/input_sequence_masks/Less", "StatefulPartitionedCall/encoder/bilstm/backward_lstm/PartitionedCall/ExpandDims/dim"], "attr": {"Tdim": {"type": "DT_INT32"}, "T": {"type": "DT_BOOL"}}}, {"name": "StatefulPartitionedCall/encoder/embeddings/LayerNorm/batchnorm/add", "op": "AddV2", "input": ["StatefulPartitionedCall/encoder/embeddings/LayerNorm/moments/variance", "StatefulPartitionedCall/encoder/embeddings/LayerNorm/batchnorm/add/y"], "attr": {"T": {"type": "DT_FLOAT"}}}, {"name": "StatefulPartitionedCall/encoder/bilstm/forward_lstm/PartitionedCall/transpose_1", "op": "Transpose", "input": ["StatefulPartitionedCall/encoder/bilstm/forward_lstm/PartitionedCall/ExpandDims", "StatefulPartitionedCall/encoder/bilstm/forward_lstm/PartitionedCall/transpose_1/perm"], "attr": {"Tperm": {"type": "DT_INT32"}, "T": {"type": "DT_BOOL"}}}, {"name": "StatefulPartitionedCall/encoder/bilstm/backward_lstm/PartitionedCall/transpose_1", "op": "Transpose", "input": ["StatefulPartitionedCall/encoder/bilstm/backward_lstm/PartitionedCall/ExpandDims", "StatefulPartitionedCall/encoder/bilstm/backward_lstm/PartitionedCall/transpose_1/perm"], "attr": {"Tperm": {"type": "DT_INT32"}, "T": {"type": "DT_BOOL"}}}, {"name": "StatefulPartitionedCall/encoder/embeddings/LayerNorm/batchnorm/Rsqrt", "op": "Rsqrt", "input": ["StatefulPartitionedCall/encoder/embeddings/LayerNorm/batchnorm/add"], "attr": {"T": {"type": "DT_FLOAT"}}}, {"name": "StatefulPartitionedCall/encoder/bilstm/forward_lstm/PartitionedCall/TensorArrayUnstack_1/TensorListFromTensor", "op": "TensorListFromTensor", "input": ["StatefulPartitionedCall/encoder/bilstm/forward_lstm/PartitionedCall/transpose_1", "StatefulPartitionedCall/encoder/bilstm/forward_lstm/PartitionedCall/TensorArrayUnstack_1/TensorListFromTensor/element_shape"], "attr": {"element_dtype": {"type": "DT_BOOL"}, "shape_type": {"type": "DT_INT32"}}}, {"name": "StatefulPartitionedCall/encoder/bilstm/backward_lstm/PartitionedCall/ReverseV2_1", "op": "ReverseV2", "input": ["StatefulPartitionedCall/encoder/bilstm/backward_lstm/PartitionedCall/transpose_1", "StatefulPartitionedCall/encoder/bilstm/backward_lstm/PartitionedCall/ReverseV2_1/axis"], "attr": {"T": {"type": "DT_BOOL"}, "Tidx": {"type": "DT_INT32"}}}, {"name": "StatefulPartitionedCall/encoder/embeddings/LayerNorm/batchnorm/mul", "op": "Mul", "input": ["StatefulPartitionedCall/encoder/embeddings/LayerNorm/batchnorm/Rsqrt", "StatefulPartitionedCall/encoder/embeddings/LayerNorm/batchnorm/mul/ReadVariableOp"], "attr": {"T": {"type": "DT_FLOAT"}}}, {"name": "StatefulPartitionedCall/encoder/bilstm/backward_lstm/PartitionedCall/TensorArrayUnstack_1/TensorListFromTensor", "op": "TensorListFromTensor", "input": ["StatefulPartitionedCall/encoder/bilstm/backward_lstm/PartitionedCall/ReverseV2_1", "StatefulPartitionedCall/encoder/bilstm/backward_lstm/PartitionedCall/TensorArrayUnstack_1/TensorListFromTensor/element_shape"], "attr": {"element_dtype": {"type": "DT_BOOL"}, "shape_type": {"type": "DT_INT32"}}}, {"name": "StatefulPartitionedCall/encoder/embeddings/LayerNorm/batchnorm/mul_2", "op": "Mul", "input": ["StatefulPartitionedCall/encoder/embeddings/LayerNorm/moments/mean", "StatefulPartitionedCall/encoder/embeddings/LayerNorm/batchnorm/mul"], "attr": {"T": {"type": "DT_FLOAT"}}}, {"name": "StatefulPartitionedCall/encoder/embeddings/LayerNorm/batchnorm/mul_1", "op": "Mul", "input": ["StatefulPartitionedCall/encoder/embeddings/Gather", "StatefulPartitionedCall/encoder/embeddings/LayerNorm/batchnorm/mul"], "attr": {"T": {"type": "DT_FLOAT"}}}, {"name": "StatefulPartitionedCall/encoder/embeddings/LayerNorm/batchnorm/sub", "op": "Sub", "input": ["StatefulPartitionedCall/encoder/embeddings/LayerNorm/batchnorm/ReadVariableOp", "StatefulPartitionedCall/encoder/embeddings/LayerNorm/batchnorm/mul_2"], "attr": {"T": {"type": "DT_FLOAT"}}}, {"name": "StatefulPartitionedCall/encoder/embeddings/LayerNorm/batchnorm/add_1", "op": "AddV2", "input": ["StatefulPartitionedCall/encoder/embeddings/LayerNorm/batchnorm/mul_1", "StatefulPartitionedCall/encoder/embeddings/LayerNorm/batchnorm/sub"], "attr": {"T": {"type": "DT_FLOAT"}}}, {"name": "StatefulPartitionedCall/encoder/conv_batch_norm/tf_tacotron_conv_batch_norm/conv_._0/conv1d/ExpandDims", "op": "ExpandDims", "input": ["StatefulPartitionedCall/encoder/embeddings/LayerNorm/batchnorm/add_1", "StatefulPartitionedCall/encoder/conv_batch_norm/tf_tacotron_conv_batch_norm/conv_._0/conv1d/ExpandDims/dim"], "attr": {"Tdim": {"type": "DT_INT32"}, "T": {"type": "DT_FLOAT"}}}, {"name": "StatefulPartitionedCall/encoder/conv_batch_norm/tf_tacotron_conv_batch_norm/conv_._0/conv1d", "op": "_FusedConv2D", "input": ["StatefulPartitionedCall/encoder/conv_batch_norm/tf_tacotron_conv_batch_norm/conv_._0/conv1d/ExpandDims", "StatefulPartitionedCall/encoder/conv_batch_norm/tf_tacotron_conv_batch_norm/conv_._0/conv1d/ExpandDims_1", "StatefulPartitionedCall/encoder/conv_batch_norm/tf_tacotron_conv_batch_norm/conv_._0/BiasAdd/ReadVariableOp"], "device": "/device:CPU:0", "attr": {"use_cudnn_on_gpu": {"b": true}, "data_format": {"s": "TkhXQw=="}, "explicit_paddings": {"list": {}}, "strides": {"list": {"i": ["1", "1", "1", "1"]}}, "num_args": {"i": "1"}, "padding": {"s": "U0FNRQ=="}, "T": {"type": "DT_FLOAT"}, "fused_ops": {"list": {"s": ["Qmlhc0FkZA=="]}}, "epsilon": {"f": 0.0}, "dilations": {"list": {"i": ["1", "1", "1", "1"]}}}}, {"name": "StatefulPartitionedCall/encoder/conv_batch_norm/tf_tacotron_conv_batch_norm/conv_._0/BiasAdd", "op": "Squeeze", "input": ["StatefulPartitionedCall/encoder/conv_batch_norm/tf_tacotron_conv_batch_norm/conv_._0/conv1d"], "attr": {"T": {"type": "DT_FLOAT"}, "squeeze_dims": {"list": {"i": ["-3"]}}}}, {"name": "StatefulPartitionedCall/encoder/conv_batch_norm/tf_tacotron_conv_batch_norm/batch_norm_._0/batchnorm/mul_1", "op": "Mul", "input": ["StatefulPartitionedCall/encoder/conv_batch_norm/tf_tacotron_conv_batch_norm/conv_._0/BiasAdd", "StatefulPartitionedCall/encoder/conv_batch_norm/tf_tacotron_conv_batch_norm/batch_norm_._0/batchnorm/mul"], "attr": {"T": {"type": "DT_FLOAT"}}}, {"name": "StatefulPartitionedCall/encoder/conv_batch_norm/tf_tacotron_conv_batch_norm/batch_norm_._0/batchnorm/add_1", "op": "AddV2", "input": ["StatefulPartitionedCall/encoder/conv_batch_norm/tf_tacotron_conv_batch_norm/batch_norm_._0/batchnorm/mul_1", "StatefulPartitionedCall/encoder/conv_batch_norm/tf_tacotron_conv_batch_norm/batch_norm_._0/batchnorm/sub"], "attr": {"T": {"type": "DT_FLOAT"}}}, {"name": "StatefulPartitionedCall/encoder/conv_batch_norm/tf_tacotron_conv_batch_norm/Relu", "op": "Relu", "input": ["StatefulPartitionedCall/encoder/conv_batch_norm/tf_tacotron_conv_batch_norm/batch_norm_._0/batchnorm/add_1"], "attr": {"T": {"type": "DT_FLOAT"}}}, {"name": "StatefulPartitionedCall/encoder/conv_batch_norm/tf_tacotron_conv_batch_norm_1/conv_._1/conv1d/ExpandDims", "op": "ExpandDims", "input": ["StatefulPartitionedCall/encoder/conv_batch_norm/tf_tacotron_conv_batch_norm/Relu", "StatefulPartitionedCall/encoder/conv_batch_norm/tf_tacotron_conv_batch_norm_1/conv_._1/conv1d/ExpandDims/dim"], "attr": {"T": {"type": "DT_FLOAT"}, "Tdim": {"type": "DT_INT32"}}}, {"name": "StatefulPartitionedCall/encoder/conv_batch_norm/tf_tacotron_conv_batch_norm_1/conv_._1/conv1d", "op": "_FusedConv2D", "input": ["StatefulPartitionedCall/encoder/conv_batch_norm/tf_tacotron_conv_batch_norm_1/conv_._1/conv1d/ExpandDims", "StatefulPartitionedCall/encoder/conv_batch_norm/tf_tacotron_conv_batch_norm_1/conv_._1/conv1d/ExpandDims_1", "StatefulPartitionedCall/encoder/conv_batch_norm/tf_tacotron_conv_batch_norm_1/conv_._1/BiasAdd/ReadVariableOp"], "device": "/device:CPU:0", "attr": {"fused_ops": {"list": {"s": ["Qmlhc0FkZA=="]}}, "strides": {"list": {"i": ["1", "1", "1", "1"]}}, "num_args": {"i": "1"}, "T": {"type": "DT_FLOAT"}, "data_format": {"s": "TkhXQw=="}, "dilations": {"list": {"i": ["1", "1", "1", "1"]}}, "use_cudnn_on_gpu": {"b": true}, "padding": {"s": "U0FNRQ=="}, "epsilon": {"f": 0.0}, "explicit_paddings": {"list": {}}}}, {"name": "StatefulPartitionedCall/encoder/conv_batch_norm/tf_tacotron_conv_batch_norm_1/conv_._1/BiasAdd", "op": "Squeeze", "input": ["StatefulPartitionedCall/encoder/conv_batch_norm/tf_tacotron_conv_batch_norm_1/conv_._1/conv1d"], "attr": {"squeeze_dims": {"list": {"i": ["-3"]}}, "T": {"type": "DT_FLOAT"}}}, {"name": "StatefulPartitionedCall/encoder/conv_batch_norm/tf_tacotron_conv_batch_norm_1/batch_norm_._1/batchnorm/mul_1", "op": "Mul", "input": ["StatefulPartitionedCall/encoder/conv_batch_norm/tf_tacotron_conv_batch_norm_1/conv_._1/BiasAdd", "StatefulPartitionedCall/encoder/conv_batch_norm/tf_tacotron_conv_batch_norm_1/batch_norm_._1/batchnorm/mul"], "attr": {"T": {"type": "DT_FLOAT"}}}, {"name": "StatefulPartitionedCall/encoder/conv_batch_norm/tf_tacotron_conv_batch_norm_1/batch_norm_._1/batchnorm/add_1", "op": "AddV2", "input": ["StatefulPartitionedCall/encoder/conv_batch_norm/tf_tacotron_conv_batch_norm_1/batch_norm_._1/batchnorm/mul_1", "StatefulPartitionedCall/encoder/conv_batch_norm/tf_tacotron_conv_batch_norm_1/batch_norm_._1/batchnorm/sub"], "attr": {"T": {"type": "DT_FLOAT"}}}, {"name": "StatefulPartitionedCall/encoder/conv_batch_norm/tf_tacotron_conv_batch_norm_1/Relu", "op": "Relu", "input": ["StatefulPartitionedCall/encoder/conv_batch_norm/tf_tacotron_conv_batch_norm_1/batch_norm_._1/batchnorm/add_1"], "attr": {"T": {"type": "DT_FLOAT"}}}, {"name": "StatefulPartitionedCall/encoder/conv_batch_norm/tf_tacotron_conv_batch_norm_2/conv_._2/conv1d/ExpandDims", "op": "ExpandDims", "input": ["StatefulPartitionedCall/encoder/conv_batch_norm/tf_tacotron_conv_batch_norm_1/Relu", "StatefulPartitionedCall/encoder/conv_batch_norm/tf_tacotron_conv_batch_norm_2/conv_._2/conv1d/ExpandDims/dim"], "attr": {"Tdim": {"type": "DT_INT32"}, "T": {"type": "DT_FLOAT"}}}, {"name": "StatefulPartitionedCall/encoder/conv_batch_norm/tf_tacotron_conv_batch_norm_2/conv_._2/conv1d", "op": "_FusedConv2D", "input": ["StatefulPartitionedCall/encoder/conv_batch_norm/tf_tacotron_conv_batch_norm_2/conv_._2/conv1d/ExpandDims", "StatefulPartitionedCall/encoder/conv_batch_norm/tf_tacotron_conv_batch_norm_2/conv_._2/conv1d/ExpandDims_1", "StatefulPartitionedCall/encoder/conv_batch_norm/tf_tacotron_conv_batch_norm_2/conv_._2/BiasAdd/ReadVariableOp"], "device": "/device:CPU:0", "attr": {"data_format": {"s": "TkhXQw=="}, "padding": {"s": "U0FNRQ=="}, "T": {"type": "DT_FLOAT"}, "fused_ops": {"list": {"s": ["Qmlhc0FkZA=="]}}, "epsilon": {"f": 0.0}, "strides": {"list": {"i": ["1", "1", "1", "1"]}}, "num_args": {"i": "1"}, "explicit_paddings": {"list": {}}, "dilations": {"list": {"i": ["1", "1", "1", "1"]}}, "use_cudnn_on_gpu": {"b": true}}}, {"name": "StatefulPartitionedCall/encoder/conv_batch_norm/tf_tacotron_conv_batch_norm_2/conv_._2/BiasAdd", "op": "Squeeze", "input": ["StatefulPartitionedCall/encoder/conv_batch_norm/tf_tacotron_conv_batch_norm_2/conv_._2/conv1d"], "attr": {"T": {"type": "DT_FLOAT"}, "squeeze_dims": {"list": {"i": ["-3"]}}}}, {"name": "StatefulPartitionedCall/encoder/conv_batch_norm/tf_tacotron_conv_batch_norm_2/batch_norm_._2/batchnorm/mul_1", "op": "Mul", "input": ["StatefulPartitionedCall/encoder/conv_batch_norm/tf_tacotron_conv_batch_norm_2/conv_._2/BiasAdd", "StatefulPartitionedCall/encoder/conv_batch_norm/tf_tacotron_conv_batch_norm_2/batch_norm_._2/batchnorm/mul"], "attr": {"T": {"type": "DT_FLOAT"}}}, {"name": "StatefulPartitionedCall/encoder/conv_batch_norm/tf_tacotron_conv_batch_norm_2/batch_norm_._2/batchnorm/add_1", "op": "AddV2", "input": ["StatefulPartitionedCall/encoder/conv_batch_norm/tf_tacotron_conv_batch_norm_2/batch_norm_._2/batchnorm/mul_1", "StatefulPartitionedCall/encoder/conv_batch_norm/tf_tacotron_conv_batch_norm_2/batch_norm_._2/batchnorm/sub"], "attr": {"T": {"type": "DT_FLOAT"}}}, {"name": "StatefulPartitionedCall/encoder/conv_batch_norm/tf_tacotron_conv_batch_norm_2/Relu", "op": "Relu", "input": ["StatefulPartitionedCall/encoder/conv_batch_norm/tf_tacotron_conv_batch_norm_2/batch_norm_._2/batchnorm/add_1"], "attr": {"T": {"type": "DT_FLOAT"}}}, {"name": "StatefulPartitionedCall/encoder/conv_batch_norm/tf_tacotron_conv_batch_norm_3/conv_._3/conv1d/ExpandDims", "op": "ExpandDims", "input": ["StatefulPartitionedCall/encoder/conv_batch_norm/tf_tacotron_conv_batch_norm_2/Relu", "StatefulPartitionedCall/encoder/conv_batch_norm/tf_tacotron_conv_batch_norm_3/conv_._3/conv1d/ExpandDims/dim"], "attr": {"T": {"type": "DT_FLOAT"}, "Tdim": {"type": "DT_INT32"}}}, {"name": "StatefulPartitionedCall/encoder/conv_batch_norm/tf_tacotron_conv_batch_norm_3/conv_._3/conv1d", "op": "_FusedConv2D", "input": ["StatefulPartitionedCall/encoder/conv_batch_norm/tf_tacotron_conv_batch_norm_3/conv_._3/conv1d/ExpandDims", "StatefulPartitionedCall/encoder/conv_batch_norm/tf_tacotron_conv_batch_norm_3/conv_._3/conv1d/ExpandDims_1", "StatefulPartitionedCall/encoder/conv_batch_norm/tf_tacotron_conv_batch_norm_3/conv_._3/BiasAdd/ReadVariableOp"], "device": "/device:CPU:0", "attr": {"strides": {"list": {"i": ["1", "1", "1", "1"]}}, "data_format": {"s": "TkhXQw=="}, "T": {"type": "DT_FLOAT"}, "explicit_paddings": {"list": {}}, "epsilon": {"f": 0.0}, "padding": {"s": "U0FNRQ=="}, "num_args": {"i": "1"}, "use_cudnn_on_gpu": {"b": true}, "dilations": {"list": {"i": ["1", "1", "1", "1"]}}, "fused_ops": {"list": {"s": ["Qmlhc0FkZA=="]}}}}, {"name": "StatefulPartitionedCall/encoder/conv_batch_norm/tf_tacotron_conv_batch_norm_3/conv_._3/BiasAdd", "op": "Squeeze", "input": ["StatefulPartitionedCall/encoder/conv_batch_norm/tf_tacotron_conv_batch_norm_3/conv_._3/conv1d"], "attr": {"squeeze_dims": {"list": {"i": ["-3"]}}, "T": {"type": "DT_FLOAT"}}}, {"name": "StatefulPartitionedCall/encoder/conv_batch_norm/tf_tacotron_conv_batch_norm_3/batch_norm_._3/batchnorm/mul_1", "op": "Mul", "input": ["StatefulPartitionedCall/encoder/conv_batch_norm/tf_tacotron_conv_batch_norm_3/conv_._3/BiasAdd", "StatefulPartitionedCall/encoder/conv_batch_norm/tf_tacotron_conv_batch_norm_3/batch_norm_._3/batchnorm/mul"], "attr": {"T": {"type": "DT_FLOAT"}}}, {"name": "StatefulPartitionedCall/encoder/conv_batch_norm/tf_tacotron_conv_batch_norm_3/batch_norm_._3/batchnorm/add_1", "op": "AddV2", "input": ["StatefulPartitionedCall/encoder/conv_batch_norm/tf_tacotron_conv_batch_norm_3/batch_norm_._3/batchnorm/mul_1", "StatefulPartitionedCall/encoder/conv_batch_norm/tf_tacotron_conv_batch_norm_3/batch_norm_._3/batchnorm/sub"], "attr": {"T": {"type": "DT_FLOAT"}}}, {"name": "StatefulPartitionedCall/encoder/conv_batch_norm/tf_tacotron_conv_batch_norm_3/Relu", "op": "Relu", "input": ["StatefulPartitionedCall/encoder/conv_batch_norm/tf_tacotron_conv_batch_norm_3/batch_norm_._3/batchnorm/add_1"], "attr": {"T": {"type": "DT_FLOAT"}}}, {"name": "StatefulPartitionedCall/encoder/conv_batch_norm/tf_tacotron_conv_batch_norm_4/conv_._4/conv1d/ExpandDims", "op": "ExpandDims", "input": ["StatefulPartitionedCall/encoder/conv_batch_norm/tf_tacotron_conv_batch_norm_3/Relu", "StatefulPartitionedCall/encoder/conv_batch_norm/tf_tacotron_conv_batch_norm_4/conv_._4/conv1d/ExpandDims/dim"], "attr": {"T": {"type": "DT_FLOAT"}, "Tdim": {"type": "DT_INT32"}}}, {"name": "StatefulPartitionedCall/encoder/conv_batch_norm/tf_tacotron_conv_batch_norm_4/conv_._4/conv1d", "op": "_FusedConv2D", "input": ["StatefulPartitionedCall/encoder/conv_batch_norm/tf_tacotron_conv_batch_norm_4/conv_._4/conv1d/ExpandDims", "StatefulPartitionedCall/encoder/conv_batch_norm/tf_tacotron_conv_batch_norm_4/conv_._4/conv1d/ExpandDims_1", "StatefulPartitionedCall/encoder/conv_batch_norm/tf_tacotron_conv_batch_norm_4/conv_._4/BiasAdd/ReadVariableOp"], "device": "/device:CPU:0", "attr": {"use_cudnn_on_gpu": {"b": true}, "fused_ops": {"list": {"s": ["Qmlhc0FkZA=="]}}, "epsilon": {"f": 0.0}, "data_format": {"s": "TkhXQw=="}, "dilations": {"list": {"i": ["1", "1", "1", "1"]}}, "explicit_paddings": {"list": {}}, "padding": {"s": "U0FNRQ=="}, "T": {"type": "DT_FLOAT"}, "num_args": {"i": "1"}, "strides": {"list": {"i": ["1", "1", "1", "1"]}}}}, {"name": "StatefulPartitionedCall/encoder/conv_batch_norm/tf_tacotron_conv_batch_norm_4/conv_._4/BiasAdd", "op": "Squeeze", "input": ["StatefulPartitionedCall/encoder/conv_batch_norm/tf_tacotron_conv_batch_norm_4/conv_._4/conv1d"], "attr": {"squeeze_dims": {"list": {"i": ["-3"]}}, "T": {"type": "DT_FLOAT"}}}, {"name": "StatefulPartitionedCall/encoder/conv_batch_norm/tf_tacotron_conv_batch_norm_4/batch_norm_._4/batchnorm/mul_1", "op": "Mul", "input": ["StatefulPartitionedCall/encoder/conv_batch_norm/tf_tacotron_conv_batch_norm_4/conv_._4/BiasAdd", "StatefulPartitionedCall/encoder/conv_batch_norm/tf_tacotron_conv_batch_norm_4/batch_norm_._4/batchnorm/mul"], "attr": {"T": {"type": "DT_FLOAT"}}}, {"name": "StatefulPartitionedCall/encoder/conv_batch_norm/tf_tacotron_conv_batch_norm_4/batch_norm_._4/batchnorm/add_1", "op": "AddV2", "input": ["StatefulPartitionedCall/encoder/conv_batch_norm/tf_tacotron_conv_batch_norm_4/batch_norm_._4/batchnorm/mul_1", "StatefulPartitionedCall/encoder/conv_batch_norm/tf_tacotron_conv_batch_norm_4/batch_norm_._4/batchnorm/sub"], "attr": {"T": {"type": "DT_FLOAT"}}}, {"name": "StatefulPartitionedCall/encoder/conv_batch_norm/tf_tacotron_conv_batch_norm_4/Relu", "op": "Relu", "input": ["StatefulPartitionedCall/encoder/conv_batch_norm/tf_tacotron_conv_batch_norm_4/batch_norm_._4/batchnorm/add_1"], "attr": {"T": {"type": "DT_FLOAT"}}}, {"name": "StatefulPartitionedCall/encoder/bilstm/forward_lstm/PartitionedCall/transpose", "op": "Transpose", "input": ["StatefulPartitionedCall/encoder/conv_batch_norm/tf_tacotron_conv_batch_norm_4/Relu", "StatefulPartitionedCall/encoder/bilstm/forward_lstm/PartitionedCall/transpose/perm"], "attr": {"Tperm": {"type": "DT_INT32"}, "T": {"type": "DT_FLOAT"}}}, {"name": "StatefulPartitionedCall/encoder/bilstm/forward_lstm/Shape", "op": "Shape", "input": ["StatefulPartitionedCall/encoder/conv_batch_norm/tf_tacotron_conv_batch_norm_4/Relu"], "attr": {"out_type": {"type": "DT_INT32"}, "T": {"type": "DT_FLOAT"}}}, {"name": "StatefulPartitionedCall/encoder/bilstm/backward_lstm/PartitionedCall/transpose", "op": "Transpose", "input": ["StatefulPartitionedCall/encoder/conv_batch_norm/tf_tacotron_conv_batch_norm_4/Relu", "StatefulPartitionedCall/encoder/bilstm/backward_lstm/PartitionedCall/transpose/perm"], "attr": {"Tperm": {"type": "DT_INT32"}, "T": {"type": "DT_FLOAT"}}}, {"name": "StatefulPartitionedCall/encoder/bilstm/backward_lstm/Shape", "op": "Shape", "input": ["StatefulPartitionedCall/encoder/conv_batch_norm/tf_tacotron_conv_batch_norm_4/Relu"], "attr": {"out_type": {"type": "DT_INT32"}, "T": {"type": "DT_FLOAT"}}}, {"name": "StatefulPartitionedCall/encoder/bilstm/forward_lstm/PartitionedCall/Shape", "op": "Shape", "input": ["StatefulPartitionedCall/encoder/bilstm/forward_lstm/PartitionedCall/transpose"], "attr": {"T": {"type": "DT_FLOAT"}, "out_type": {"type": "DT_INT32"}}}, {"name": "StatefulPartitionedCall/encoder/bilstm/forward_lstm/PartitionedCall/TensorArrayUnstack/TensorListFromTensor", "op": "TensorListFromTensor", "input": ["StatefulPartitionedCall/encoder/bilstm/forward_lstm/PartitionedCall/transpose", "StatefulPartitionedCall/encoder/bilstm/forward_lstm/PartitionedCall/TensorArrayUnstack/TensorListFromTensor/element_shape"], "attr": {"element_dtype": {"type": "DT_FLOAT"}, "shape_type": {"type": "DT_INT32"}}}, {"name": "StatefulPartitionedCall/encoder/bilstm/forward_lstm/PartitionedCall/strided_slice_1", "op": "StridedSlice", "input": ["StatefulPartitionedCall/encoder/bilstm/forward_lstm/PartitionedCall/transpose", "StatefulPartitionedCall/encoder/bilstm/forward_lstm/PartitionedCall/strided_slice_1/stack", "StatefulPartitionedCall/encoder/bilstm/forward_lstm/PartitionedCall/strided_slice_1/stack_1", "StatefulPartitionedCall/encoder/bilstm/forward_lstm/PartitionedCall/strided_slice_1/stack_2"], "attr": {"end_mask": {"i": "0"}, "begin_mask": {"i": "0"}, "new_axis_mask": {"i": "0"}, "T": {"type": "DT_FLOAT"}, "ellipsis_mask": {"i": "0"}, "Index": {"type": "DT_INT32"}, "shrink_axis_mask": {"i": "1"}}}, {"name": "StatefulPartitionedCall/encoder/bilstm/forward_lstm/strided_slice", "op": "StridedSlice", "input": ["StatefulPartitionedCall/encoder/bilstm/forward_lstm/Shape", "StatefulPartitionedCall/encoder/bilstm/forward_lstm/strided_slice/stack", "StatefulPartitionedCall/encoder/bilstm/forward_lstm/strided_slice/stack_1", "StatefulPartitionedCall/encoder/bilstm/forward_lstm/strided_slice/stack_2"], "attr": {"new_axis_mask": {"i": "0"}, "begin_mask": {"i": "0"}, "T": {"type": "DT_INT32"}, "ellipsis_mask": {"i": "0"}, "end_mask": {"i": "0"}, "shrink_axis_mask": {"i": "1"}, "Index": {"type": "DT_INT32"}}}, {"name": "StatefulPartitionedCall/encoder/bilstm/backward_lstm/PartitionedCall/Shape", "op": "Shape", "input": ["StatefulPartitionedCall/encoder/bilstm/backward_lstm/PartitionedCall/transpose"], "attr": {"out_type": {"type": "DT_INT32"}, "T": {"type": "DT_FLOAT"}}}, {"name": "StatefulPartitionedCall/encoder/bilstm/backward_lstm/PartitionedCall/ReverseV2", "op": "ReverseV2", "input": ["StatefulPartitionedCall/encoder/bilstm/backward_lstm/PartitionedCall/transpose", "StatefulPartitionedCall/encoder/bilstm/backward_lstm/PartitionedCall/ReverseV2/axis"], "attr": {"T": {"type": "DT_FLOAT"}, "Tidx": {"type": "DT_INT32"}}}, {"name": "StatefulPartitionedCall/encoder/bilstm/backward_lstm/PartitionedCall/strided_slice_1", "op": "StridedSlice", "input": ["StatefulPartitionedCall/encoder/bilstm/backward_lstm/PartitionedCall/transpose", "StatefulPartitionedCall/encoder/bilstm/backward_lstm/PartitionedCall/strided_slice_1/stack", "StatefulPartitionedCall/encoder/bilstm/backward_lstm/PartitionedCall/strided_slice_1/stack_1", "StatefulPartitionedCall/encoder/bilstm/backward_lstm/PartitionedCall/strided_slice_1/stack_2"], "attr": {"end_mask": {"i": "0"}, "Index": {"type": "DT_INT32"}, "begin_mask": {"i": "0"}, "ellipsis_mask": {"i": "0"}, "shrink_axis_mask": {"i": "1"}, "T": {"type": "DT_FLOAT"}, "new_axis_mask": {"i": "0"}}}, {"name": "StatefulPartitionedCall/encoder/bilstm/backward_lstm/strided_slice", "op": "StridedSlice", "input": ["StatefulPartitionedCall/encoder/bilstm/backward_lstm/Shape", "StatefulPartitionedCall/encoder/bilstm/backward_lstm/strided_slice/stack", "StatefulPartitionedCall/encoder/bilstm/backward_lstm/strided_slice/stack_1", "StatefulPartitionedCall/encoder/bilstm/backward_lstm/strided_slice/stack_2"], "attr": {"new_axis_mask": {"i": "0"}, "Index": {"type": "DT_INT32"}, "begin_mask": {"i": "0"}, "T": {"type": "DT_INT32"}, "end_mask": {"i": "0"}, "shrink_axis_mask": {"i": "1"}, "ellipsis_mask": {"i": "0"}}}, {"name": "StatefulPartitionedCall/encoder/bilstm/forward_lstm/PartitionedCall/strided_slice", "op": "StridedSlice", "input": ["StatefulPartitionedCall/encoder/bilstm/forward_lstm/PartitionedCall/Shape", "StatefulPartitionedCall/encoder/bilstm/forward_lstm/PartitionedCall/strided_slice/stack", "StatefulPartitionedCall/encoder/bilstm/forward_lstm/PartitionedCall/strided_slice/stack_1", "StatefulPartitionedCall/encoder/bilstm/forward_lstm/PartitionedCall/strided_slice/stack_2"], "attr": {"ellipsis_mask": {"i": "0"}, "new_axis_mask": {"i": "0"}, "end_mask": {"i": "0"}, "shrink_axis_mask": {"i": "1"}, "begin_mask": {"i": "0"}, "Index": {"type": "DT_INT32"}, "T": {"type": "DT_INT32"}}}, {"name": "StatefulPartitionedCall/encoder/bilstm/forward_lstm/PartitionedCall/MatMul", "op": "MatMul", "input": ["StatefulPartitionedCall/encoder/bilstm/forward_lstm/PartitionedCall/strided_slice_1", "StatefulPartitionedCall/encoder/bilstm/forward_lstm/Read/ReadVariableOp"], "device": "/device:CPU:0", "attr": {"T": {"type": "DT_FLOAT"}, "transpose_b": {"b": false}, "transpose_a": {"b": false}}}, {"name": "StatefulPartitionedCall/encoder/bilstm/forward_lstm/zeros_1/packed", "op": "Pack", "input": ["StatefulPartitionedCall/encoder/bilstm/forward_lstm/strided_slice", "StatefulPartitionedCall/encoder/bilstm/forward_lstm/zeros_1/packed/1"], "attr": {"N": {"i": "2"}, "axis": {"i": "0"}, "T": {"type": "DT_INT32"}}}, {"name": "StatefulPartitionedCall/encoder/bilstm/forward_lstm/zeros/packed", "op": "Pack", "input": ["StatefulPartitionedCall/encoder/bilstm/forward_lstm/strided_slice", "StatefulPartitionedCall/encoder/bilstm/forward_lstm/zeros/packed/1"], "attr": {"axis": {"i": "0"}, "N": {"i": "2"}, "T": {"type": "DT_INT32"}}}, {"name": "StatefulPartitionedCall/encoder/bilstm/backward_lstm/PartitionedCall/strided_slice", "op": "StridedSlice", "input": ["StatefulPartitionedCall/encoder/bilstm/backward_lstm/PartitionedCall/Shape", "StatefulPartitionedCall/encoder/bilstm/backward_lstm/PartitionedCall/strided_slice/stack", "StatefulPartitionedCall/encoder/bilstm/backward_lstm/PartitionedCall/strided_slice/stack_1", "StatefulPartitionedCall/encoder/bilstm/backward_lstm/PartitionedCall/strided_slice/stack_2"], "attr": {"T": {"type": "DT_INT32"}, "begin_mask": {"i": "0"}, "Index": {"type": "DT_INT32"}, "new_axis_mask": {"i": "0"}, "shrink_axis_mask": {"i": "1"}, "end_mask": {"i": "0"}, "ellipsis_mask": {"i": "0"}}}, {"name": "StatefulPartitionedCall/encoder/bilstm/backward_lstm/PartitionedCall/TensorArrayUnstack/TensorListFromTensor", "op": "TensorListFromTensor", "input": ["StatefulPartitionedCall/encoder/bilstm/backward_lstm/PartitionedCall/ReverseV2", "StatefulPartitionedCall/encoder/bilstm/backward_lstm/PartitionedCall/TensorArrayUnstack/TensorListFromTensor/element_shape"], "attr": {"shape_type": {"type": "DT_INT32"}, "element_dtype": {"type": "DT_FLOAT"}}}, {"name": "StatefulPartitionedCall/encoder/bilstm/backward_lstm/PartitionedCall/MatMul", "op": "MatMul", "input": ["StatefulPartitionedCall/encoder/bilstm/backward_lstm/PartitionedCall/strided_slice_1", "StatefulPartitionedCall/encoder/bilstm/backward_lstm/Read/ReadVariableOp"], "device": "/device:CPU:0", "attr": {"transpose_a": {"b": false}, "transpose_b": {"b": false}, "T": {"type": "DT_FLOAT"}}}, {"name": "StatefulPartitionedCall/encoder/bilstm/backward_lstm/zeros_1/packed", "op": "Pack", "input": ["StatefulPartitionedCall/encoder/bilstm/backward_lstm/strided_slice", "StatefulPartitionedCall/encoder/bilstm/backward_lstm/zeros_1/packed/1"], "attr": {"axis": {"i": "0"}, "T": {"type": "DT_INT32"}, "N": {"i": "2"}}}, {"name": "StatefulPartitionedCall/encoder/bilstm/backward_lstm/zeros/packed", "op": "Pack", "input": ["StatefulPartitionedCall/encoder/bilstm/backward_lstm/strided_slice", "StatefulPartitionedCall/encoder/bilstm/backward_lstm/zeros/packed/1"], "attr": {"T": {"type": "DT_INT32"}, "axis": {"i": "0"}, "N": {"i": "2"}}}, {"name": "StatefulPartitionedCall/encoder/bilstm/forward_lstm/PartitionedCall/TensorArrayV2_1", "op": "TensorListReserve", "input": ["StatefulPartitionedCall/encoder/bilstm/forward_lstm/PartitionedCall/TensorArrayV2_1/element_shape", "StatefulPartitionedCall/encoder/bilstm/forward_lstm/PartitionedCall/strided_slice"], "attr": {"element_dtype": {"type": "DT_FLOAT"}, "shape_type": {"type": "DT_INT32"}}}, {"name": "StatefulPartitionedCall/encoder/bilstm/forward_lstm/zeros_1", "op": "Fill", "input": ["StatefulPartitionedCall/encoder/bilstm/forward_lstm/zeros_1/packed", "StatefulPartitionedCall/encoder/bilstm/forward_lstm/zeros_1/Const"], "attr": {"T": {"type": "DT_FLOAT"}, "index_type": {"type": "DT_INT32"}}}, {"name": "StatefulPartitionedCall/encoder/bilstm/forward_lstm/zeros", "op": "Fill", "input": ["StatefulPartitionedCall/encoder/bilstm/forward_lstm/zeros/packed", "StatefulPartitionedCall/encoder/bilstm/forward_lstm/zeros/Const"], "attr": {"T": {"type": "DT_FLOAT"}, "index_type": {"type": "DT_INT32"}}}, {"name": "StatefulPartitionedCall/encoder/bilstm/backward_lstm/PartitionedCall/TensorArrayV2_1", "op": "TensorListReserve", "input": ["StatefulPartitionedCall/encoder/bilstm/backward_lstm/PartitionedCall/TensorArrayV2_1/element_shape", "StatefulPartitionedCall/encoder/bilstm/backward_lstm/PartitionedCall/strided_slice"], "attr": {"shape_type": {"type": "DT_INT32"}, "element_dtype": {"type": "DT_FLOAT"}}}, {"name": "StatefulPartitionedCall/encoder/bilstm/backward_lstm/zeros_1", "op": "Fill", "input": ["StatefulPartitionedCall/encoder/bilstm/backward_lstm/zeros_1/packed", "StatefulPartitionedCall/encoder/bilstm/backward_lstm/zeros_1/Const"], "attr": {"T": {"type": "DT_FLOAT"}, "index_type": {"type": "DT_INT32"}}}, {"name": "StatefulPartitionedCall/encoder/bilstm/backward_lstm/zeros", "op": "Fill", "input": ["StatefulPartitionedCall/encoder/bilstm/backward_lstm/zeros/packed", "StatefulPartitionedCall/encoder/bilstm/backward_lstm/zeros/Const"], "attr": {"T": {"type": "DT_FLOAT"}, "index_type": {"type": "DT_INT32"}}}, {"name": "StatefulPartitionedCall/encoder/bilstm/forward_lstm/PartitionedCall/MatMul_1", "op": "MatMul", "input": ["StatefulPartitionedCall/encoder/bilstm/forward_lstm/zeros", "StatefulPartitionedCall/encoder/bilstm/forward_lstm/Read_1/ReadVariableOp"], "device": "/device:CPU:0", "attr": {"T": {"type": "DT_FLOAT"}, "transpose_a": {"b": false}, "transpose_b": {"b": false}}}, {"name": "StatefulPartitionedCall/encoder/bilstm/backward_lstm/PartitionedCall/MatMul_1", "op": "MatMul", "input": ["StatefulPartitionedCall/encoder/bilstm/backward_lstm/zeros", "StatefulPartitionedCall/encoder/bilstm/backward_lstm/Read_1/ReadVariableOp"], "device": "/device:CPU:0", "attr": {"transpose_b": {"b": false}, "T": {"type": "DT_FLOAT"}, "transpose_a": {"b": false}}}, {"name": "StatefulPartitionedCall/encoder/bilstm/forward_lstm/PartitionedCall/add", "op": "AddV2", "input": ["StatefulPartitionedCall/encoder/bilstm/forward_lstm/PartitionedCall/MatMul", "StatefulPartitionedCall/encoder/bilstm/forward_lstm/PartitionedCall/MatMul_1"], "attr": {"T": {"type": "DT_FLOAT"}}}, {"name": "StatefulPartitionedCall/encoder/bilstm/backward_lstm/PartitionedCall/add", "op": "AddV2", "input": ["StatefulPartitionedCall/encoder/bilstm/backward_lstm/PartitionedCall/MatMul", "StatefulPartitionedCall/encoder/bilstm/backward_lstm/PartitionedCall/MatMul_1"], "attr": {"T": {"type": "DT_FLOAT"}}}, {"name": "StatefulPartitionedCall/encoder/bilstm/forward_lstm/PartitionedCall/BiasAdd", "op": "BiasAdd", "input": ["StatefulPartitionedCall/encoder/bilstm/forward_lstm/PartitionedCall/add", "StatefulPartitionedCall/encoder/bilstm/forward_lstm/Read_2/ReadVariableOp"], "attr": {"T": {"type": "DT_FLOAT"}, "data_format": {"s": "TkhXQw=="}}}, {"name": "StatefulPartitionedCall/encoder/bilstm/backward_lstm/PartitionedCall/BiasAdd", "op": "BiasAdd", "input": ["StatefulPartitionedCall/encoder/bilstm/backward_lstm/PartitionedCall/add", "StatefulPartitionedCall/encoder/bilstm/backward_lstm/Read_2/ReadVariableOp"], "attr": {"data_format": {"s": "TkhXQw=="}, "T": {"type": "DT_FLOAT"}}}, {"name": "StatefulPartitionedCall/encoder/bilstm/forward_lstm/PartitionedCall/split", "op": "Split", "input": ["StatefulPartitionedCall/encoder/bilstm/forward_lstm/PartitionedCall/split/split_dim", "StatefulPartitionedCall/encoder/bilstm/forward_lstm/PartitionedCall/BiasAdd"], "attr": {"T": {"type": "DT_FLOAT"}, "num_split": {"i": "4"}}}, {"name": "StatefulPartitionedCall/encoder/bilstm/backward_lstm/PartitionedCall/split", "op": "Split", "input": ["StatefulPartitionedCall/encoder/bilstm/backward_lstm/PartitionedCall/split/split_dim", "StatefulPartitionedCall/encoder/bilstm/backward_lstm/PartitionedCall/BiasAdd"], "attr": {"num_split": {"i": "4"}, "T": {"type": "DT_FLOAT"}}}, {"name": "StatefulPartitionedCall/encoder/bilstm/forward_lstm/PartitionedCall/Sigmoid", "op": "Sigmoid", "input": ["StatefulPartitionedCall/encoder/bilstm/forward_lstm/PartitionedCall/split"], "attr": {"T": {"type": "DT_FLOAT"}}}, {"name": "StatefulPartitionedCall/encoder/bilstm/forward_lstm/PartitionedCall/Sigmoid_1", "op": "Sigmoid", "input": ["StatefulPartitionedCall/encoder/bilstm/forward_lstm/PartitionedCall/split:1"], "attr": {"T": {"type": "DT_FLOAT"}}}, {"name": "StatefulPartitionedCall/encoder/bilstm/forward_lstm/PartitionedCall/Tanh", "op": "Tanh", "input": ["StatefulPartitionedCall/encoder/bilstm/forward_lstm/PartitionedCall/split:2"], "attr": {"T": {"type": "DT_FLOAT"}}}, {"name": "StatefulPartitionedCall/encoder/bilstm/forward_lstm/PartitionedCall/Sigmoid_2", "op": "Sigmoid", "input": ["StatefulPartitionedCall/encoder/bilstm/forward_lstm/PartitionedCall/split:3"], "attr": {"T": {"type": "DT_FLOAT"}}}, {"name": "StatefulPartitionedCall/encoder/bilstm/backward_lstm/PartitionedCall/Sigmoid", "op": "Sigmoid", "input": ["StatefulPartitionedCall/encoder/bilstm/backward_lstm/PartitionedCall/split"], "attr": {"T": {"type": "DT_FLOAT"}}}, {"name": "StatefulPartitionedCall/encoder/bilstm/backward_lstm/PartitionedCall/Sigmoid_1", "op": "Sigmoid", "input": ["StatefulPartitionedCall/encoder/bilstm/backward_lstm/PartitionedCall/split:1"], "attr": {"T": {"type": "DT_FLOAT"}}}, {"name": "StatefulPartitionedCall/encoder/bilstm/backward_lstm/PartitionedCall/Tanh", "op": "Tanh", "input": ["StatefulPartitionedCall/encoder/bilstm/backward_lstm/PartitionedCall/split:2"], "attr": {"T": {"type": "DT_FLOAT"}}}, {"name": "StatefulPartitionedCall/encoder/bilstm/backward_lstm/PartitionedCall/Sigmoid_2", "op": "Sigmoid", "input": ["StatefulPartitionedCall/encoder/bilstm/backward_lstm/PartitionedCall/split:3"], "attr": {"T": {"type": "DT_FLOAT"}}}, {"name": "StatefulPartitionedCall/encoder/bilstm/forward_lstm/PartitionedCall/mul", "op": "Mul", "input": ["StatefulPartitionedCall/encoder/bilstm/forward_lstm/PartitionedCall/Sigmoid_1", "StatefulPartitionedCall/encoder/bilstm/forward_lstm/zeros_1"], "attr": {"T": {"type": "DT_FLOAT"}}}, {"name": "StatefulPartitionedCall/encoder/bilstm/forward_lstm/PartitionedCall/mul_1", "op": "Mul", "input": ["StatefulPartitionedCall/encoder/bilstm/forward_lstm/PartitionedCall/Sigmoid", "StatefulPartitionedCall/encoder/bilstm/forward_lstm/PartitionedCall/Tanh"], "attr": {"T": {"type": "DT_FLOAT"}}}, {"name": "StatefulPartitionedCall/encoder/bilstm/backward_lstm/PartitionedCall/mul", "op": "Mul", "input": ["StatefulPartitionedCall/encoder/bilstm/backward_lstm/PartitionedCall/Sigmoid_1", "StatefulPartitionedCall/encoder/bilstm/backward_lstm/zeros_1"], "attr": {"T": {"type": "DT_FLOAT"}}}, {"name": "StatefulPartitionedCall/encoder/bilstm/backward_lstm/PartitionedCall/mul_1", "op": "Mul", "input": ["StatefulPartitionedCall/encoder/bilstm/backward_lstm/PartitionedCall/Sigmoid", "StatefulPartitionedCall/encoder/bilstm/backward_lstm/PartitionedCall/Tanh"], "attr": {"T": {"type": "DT_FLOAT"}}}, {"name": "StatefulPartitionedCall/encoder/bilstm/forward_lstm/PartitionedCall/add_1", "op": "AddV2", "input": ["StatefulPartitionedCall/encoder/bilstm/forward_lstm/PartitionedCall/mul", "StatefulPartitionedCall/encoder/bilstm/forward_lstm/PartitionedCall/mul_1"], "attr": {"T": {"type": "DT_FLOAT"}}}, {"name": "StatefulPartitionedCall/encoder/bilstm/backward_lstm/PartitionedCall/add_1", "op": "AddV2", "input": ["StatefulPartitionedCall/encoder/bilstm/backward_lstm/PartitionedCall/mul", "StatefulPartitionedCall/encoder/bilstm/backward_lstm/PartitionedCall/mul_1"], "attr": {"T": {"type": "DT_FLOAT"}}}, {"name": "StatefulPartitionedCall/encoder/bilstm/forward_lstm/PartitionedCall/Tanh_1", "op": "Tanh", "input": ["StatefulPartitionedCall/encoder/bilstm/forward_lstm/PartitionedCall/add_1"], "attr": {"T": {"type": "DT_FLOAT"}}}, {"name": "StatefulPartitionedCall/encoder/bilstm/backward_lstm/PartitionedCall/Tanh_1", "op": "Tanh", "input": ["StatefulPartitionedCall/encoder/bilstm/backward_lstm/PartitionedCall/add_1"], "attr": {"T": {"type": "DT_FLOAT"}}}, {"name": "StatefulPartitionedCall/encoder/bilstm/forward_lstm/PartitionedCall/mul_2", "op": "Mul", "input": ["StatefulPartitionedCall/encoder/bilstm/forward_lstm/PartitionedCall/Sigmoid_2", "StatefulPartitionedCall/encoder/bilstm/forward_lstm/PartitionedCall/Tanh_1"], "attr": {"T": {"type": "DT_FLOAT"}}}, {"name": "StatefulPartitionedCall/encoder/bilstm/backward_lstm/PartitionedCall/mul_2", "op": "Mul", "input": ["StatefulPartitionedCall/encoder/bilstm/backward_lstm/PartitionedCall/Sigmoid_2", "StatefulPartitionedCall/encoder/bilstm/backward_lstm/PartitionedCall/Tanh_1"], "attr": {"T": {"type": "DT_FLOAT"}}}, {"name": "StatefulPartitionedCall/encoder/bilstm/forward_lstm/PartitionedCall/zeros_like", "op": "ZerosLike", "input": ["StatefulPartitionedCall/encoder/bilstm/forward_lstm/PartitionedCall/mul_2"], "attr": {"T": {"type": "DT_FLOAT"}}}, {"name": "StatefulPartitionedCall/encoder/bilstm/backward_lstm/PartitionedCall/zeros_like", "op": "ZerosLike", "input": ["StatefulPartitionedCall/encoder/bilstm/backward_lstm/PartitionedCall/mul_2"], "attr": {"T": {"type": "DT_FLOAT"}}}, {"name": "StatefulPartitionedCall/encoder/bilstm/forward_lstm/PartitionedCall/while", "op": "StatelessWhile", "input": ["StatefulPartitionedCall/encoder/bilstm/forward_lstm/PartitionedCall/while/loop_counter", "StatefulPartitionedCall/encoder/bilstm/forward_lstm/PartitionedCall/while/maximum_iterations", "StatefulPartitionedCall/encoder/bilstm/forward_lstm/PartitionedCall/time", "StatefulPartitionedCall/encoder/bilstm/forward_lstm/PartitionedCall/TensorArrayV2_1", "StatefulPartitionedCall/encoder/bilstm/forward_lstm/PartitionedCall/zeros_like", "StatefulPartitionedCall/encoder/bilstm/forward_lstm/zeros", "StatefulPartitionedCall/encoder/bilstm/forward_lstm/zeros_1", "StatefulPartitionedCall/encoder/bilstm/forward_lstm/PartitionedCall/strided_slice", "StatefulPartitionedCall/encoder/bilstm/forward_lstm/PartitionedCall/TensorArrayUnstack/TensorListFromTensor", "StatefulPartitionedCall/encoder/bilstm/forward_lstm/PartitionedCall/TensorArrayUnstack_1/TensorListFromTensor", "StatefulPartitionedCall/encoder/bilstm/forward_lstm/Read/ReadVariableOp", "StatefulPartitionedCall/encoder/bilstm/forward_lstm/Read_1/ReadVariableOp", "StatefulPartitionedCall/encoder/bilstm/forward_lstm/Read_2/ReadVariableOp", "StatefulPartitionedCall/encoder/bilstm/forward_lstm/PartitionedCall/zeros_like"], "attr": {"output_shapes": {"list": {"shape": [{}, {}, {}, {}, {"dim": [{"size": "-1"}, {"size": "256"}]}, {"dim": [{"size": "-1"}, {"size": "256"}]}, {"dim": [{"size": "-1"}, {"size": "256"}]}, {}, {}, {}, {"dim": [{"size": "512"}, {"size": "1024"}]}, {"dim": [{"size": "256"}, {"size": "1024"}]}, {"dim": [{"size": "1024"}]}, {"dim": [{"size": "-1"}, {"size": "256"}]}]}}, "parallel_iterations": {"i": "32"}, "body": {"func": {"name": "__inference_while_body_9880_11473"}}, "T": {"list": {"type": ["DT_INT32", "DT_INT32", "DT_INT32", "DT_VARIANT", "DT_FLOAT", "DT_FLOAT", "DT_FLOAT", "DT_INT32", "DT_VARIANT", "DT_VARIANT", "DT_FLOAT", "DT_FLOAT", "DT_FLOAT", "DT_FLOAT"]}}, "cond": {"func": {"name": "__inference_while_cond_9879_16421"}}, "_num_original_outputs": {"i": "14"}, "_stateful_parallelism": {"b": false}, "_read_only_resource_inputs": {"list": {}}, "_lower_using_switch_merge": {"b": false}}}, {"name": "StatefulPartitionedCall/encoder/bilstm/backward_lstm/PartitionedCall/while", "op": "StatelessWhile", "input": ["StatefulPartitionedCall/encoder/bilstm/backward_lstm/PartitionedCall/while/loop_counter", "StatefulPartitionedCall/encoder/bilstm/backward_lstm/PartitionedCall/while/maximum_iterations", "StatefulPartitionedCall/encoder/bilstm/backward_lstm/PartitionedCall/time", "StatefulPartitionedCall/encoder/bilstm/backward_lstm/PartitionedCall/TensorArrayV2_1", "StatefulPartitionedCall/encoder/bilstm/backward_lstm/PartitionedCall/zeros_like", "StatefulPartitionedCall/encoder/bilstm/backward_lstm/zeros", "StatefulPartitionedCall/encoder/bilstm/backward_lstm/zeros_1", "StatefulPartitionedCall/encoder/bilstm/backward_lstm/PartitionedCall/strided_slice", "StatefulPartitionedCall/encoder/bilstm/backward_lstm/PartitionedCall/TensorArrayUnstack/TensorListFromTensor", "StatefulPartitionedCall/encoder/bilstm/backward_lstm/PartitionedCall/TensorArrayUnstack_1/TensorListFromTensor", "StatefulPartitionedCall/encoder/bilstm/backward_lstm/Read/ReadVariableOp", "StatefulPartitionedCall/encoder/bilstm/backward_lstm/Read_1/ReadVariableOp", "StatefulPartitionedCall/encoder/bilstm/backward_lstm/Read_2/ReadVariableOp", "StatefulPartitionedCall/encoder/bilstm/backward_lstm/PartitionedCall/zeros_like"], "attr": {"_stateful_parallelism": {"b": false}, "_num_original_outputs": {"i": "14"}, "cond": {"func": {"name": "__inference_while_cond_11579_9010"}}, "output_shapes": {"list": {"shape": [{}, {}, {}, {}, {"dim": [{"size": "-1"}, {"size": "256"}]}, {"dim": [{"size": "-1"}, {"size": "256"}]}, {"dim": [{"size": "-1"}, {"size": "256"}]}, {}, {}, {}, {"dim": [{"size": "512"}, {"size": "1024"}]}, {"dim": [{"size": "256"}, {"size": "1024"}]}, {"dim": [{"size": "1024"}]}, {"dim": [{"size": "-1"}, {"size": "256"}]}]}}, "_read_only_resource_inputs": {"list": {}}, "T": {"list": {"type": ["DT_INT32", "DT_INT32", "DT_INT32", "DT_VARIANT", "DT_FLOAT", "DT_FLOAT", "DT_FLOAT", "DT_INT32", "DT_VARIANT", "DT_VARIANT", "DT_FLOAT", "DT_FLOAT", "DT_FLOAT", "DT_FLOAT"]}}, "parallel_iterations": {"i": "32"}, "body": {"func": {"name": "__inference_while_body_11580_13918"}}, "_lower_using_switch_merge": {"b": false}}}, {"name": "StatefulPartitionedCall/encoder/bilstm/forward_lstm/PartitionedCall/TensorArrayV2Stack/TensorListStack", "op": "TensorListStack", "input": ["StatefulPartitionedCall/encoder/bilstm/forward_lstm/PartitionedCall/while:3", "StatefulPartitionedCall/encoder/bilstm/forward_lstm/PartitionedCall/TensorArrayV2Stack/TensorListStack/element_shape"], "attr": {"num_elements": {"i": "-1"}, "element_dtype": {"type": "DT_FLOAT"}}}, {"name": "StatefulPartitionedCall/encoder/bilstm/backward_lstm/PartitionedCall/TensorArrayV2Stack/TensorListStack", "op": "TensorListStack", "input": ["StatefulPartitionedCall/encoder/bilstm/backward_lstm/PartitionedCall/while:3", "StatefulPartitionedCall/encoder/bilstm/backward_lstm/PartitionedCall/TensorArrayV2Stack/TensorListStack/element_shape"], "attr": {"element_dtype": {"type": "DT_FLOAT"}, "num_elements": {"i": "-1"}}}, {"name": "StatefulPartitionedCall/encoder/bilstm/forward_lstm/PartitionedCall/transpose_2", "op": "Transpose", "input": ["StatefulPartitionedCall/encoder/bilstm/forward_lstm/PartitionedCall/TensorArrayV2Stack/TensorListStack", "StatefulPartitionedCall/encoder/bilstm/forward_lstm/PartitionedCall/transpose_2/perm"], "attr": {"Tperm": {"type": "DT_INT32"}, "T": {"type": "DT_FLOAT"}}}, {"name": "StatefulPartitionedCall/encoder/bilstm/backward_lstm/PartitionedCall/transpose_2", "op": "Transpose", "input": ["StatefulPartitionedCall/encoder/bilstm/backward_lstm/PartitionedCall/TensorArrayV2Stack/TensorListStack", "StatefulPartitionedCall/encoder/bilstm/backward_lstm/PartitionedCall/transpose_2/perm"], "attr": {"T": {"type": "DT_FLOAT"}, "Tperm": {"type": "DT_INT32"}}}, {"name": "StatefulPartitionedCall/encoder/bilstm/ReverseV2", "op": "ReverseV2", "input": ["StatefulPartitionedCall/encoder/bilstm/backward_lstm/PartitionedCall/transpose_2", "StatefulPartitionedCall/encoder/bilstm/ReverseV2/axis"], "attr": {"Tidx": {"type": "DT_INT32"}, "T": {"type": "DT_FLOAT"}}}, {"name": "StatefulPartitionedCall/encoder/bilstm/concat", "op": "ConcatV2", "input": ["StatefulPartitionedCall/encoder/bilstm/forward_lstm/PartitionedCall/transpose_2", "StatefulPartitionedCall/encoder/bilstm/ReverseV2", "StatefulPartitionedCall/encoder/bilstm/concat/axis"], "attr": {"Tidx": {"type": "DT_INT32"}, "T": {"type": "DT_FLOAT"}, "N": {"i": "2"}}}, {"name": "StatefulPartitionedCall/Shape_1", "op": "Shape", "input": ["StatefulPartitionedCall/encoder/bilstm/concat"], "attr": {"T": {"type": "DT_FLOAT"}, "out_type": {"type": "DT_INT32"}}}, {"name": "StatefulPartitionedCall/LocationSensitiveAttention/Shape", "op": "Shape", "input": ["StatefulPartitionedCall/encoder/bilstm/concat"], "attr": {"T": {"type": "DT_FLOAT"}, "out_type": {"type": "DT_INT32"}}}, {"name": "StatefulPartitionedCall/Shape", "op": "Shape", "input": ["StatefulPartitionedCall/encoder/bilstm/concat"], "attr": {"T": {"type": "DT_FLOAT"}, "out_type": {"type": "DT_INT32"}}}, {"name": "StatefulPartitionedCall/strided_slice_1", "op": "StridedSlice", "input": ["StatefulPartitionedCall/Shape_1", "StatefulPartitionedCall/strided_slice_1/stack", "StatefulPartitionedCall/strided_slice_1/stack_1", "StatefulPartitionedCall/strided_slice_1/stack_2"], "attr": {"begin_mask": {"i": "0"}, "shrink_axis_mask": {"i": "1"}, "new_axis_mask": {"i": "0"}, "ellipsis_mask": {"i": "0"}, "Index": {"type": "DT_INT32"}, "T": {"type": "DT_INT32"}, "end_mask": {"i": "0"}}}, {"name": "StatefulPartitionedCall/LocationSensitiveAttention/strided_slice", "op": "StridedSlice", "input": ["StatefulPartitionedCall/LocationSensitiveAttention/Shape", "StatefulPartitionedCall/LocationSensitiveAttention/strided_slice/stack", "StatefulPartitionedCall/LocationSensitiveAttention/strided_slice/stack_1", "StatefulPartitionedCall/LocationSensitiveAttention/strided_slice/stack_2"], "attr": {"begin_mask": {"i": "0"}, "Index": {"type": "DT_INT32"}, "ellipsis_mask": {"i": "0"}, "T": {"type": "DT_INT32"}, "shrink_axis_mask": {"i": "1"}, "new_axis_mask": {"i": "0"}, "end_mask": {"i": "0"}}}, {"name": "StatefulPartitionedCall/strided_slice", "op": "StridedSlice", "input": ["StatefulPartitionedCall/Shape", "StatefulPartitionedCall/strided_slice/stack", "StatefulPartitionedCall/strided_slice/stack_1", "StatefulPartitionedCall/strided_slice/stack_2"], "attr": {"new_axis_mask": {"i": "0"}, "T": {"type": "DT_INT32"}, "end_mask": {"i": "0"}, "ellipsis_mask": {"i": "0"}, "Index": {"type": "DT_INT32"}, "shrink_axis_mask": {"i": "1"}, "begin_mask": {"i": "0"}}}, {"name": "StatefulPartitionedCall/LocationSensitiveAttention/SequenceMask/Range", "op": "Range", "input": ["StatefulPartitionedCall/LocationSensitiveAttention/SequenceMask/Const", "StatefulPartitionedCall/LocationSensitiveAttention/strided_slice", "StatefulPartitionedCall/LocationSensitiveAttention/SequenceMask/Const_1"], "attr": {"Tidx": {"type": "DT_INT32"}}}, {"name": "StatefulPartitionedCall/Reshape/shape", "op": "Pack", "input": ["StatefulPartitionedCall/strided_slice", "StatefulPartitionedCall/Reshape/shape/1", "StatefulPartitionedCall/Reshape/shape/2"], "attr": {"T": {"type": "DT_INT32"}, "N": {"i": "3"}, "axis": {"i": "0"}}}, {"name": "StatefulPartitionedCall/Reshape_1/shape", "op": "Pack", "input": ["StatefulPartitionedCall/strided_slice", "StatefulPartitionedCall/Reshape_1/shape/1"], "attr": {"axis": {"i": "0"}, "T": {"type": "DT_INT32"}, "N": {"i": "2"}}}, {"name": "StatefulPartitionedCall/zeros/packed", "op": "Pack", "input": ["StatefulPartitionedCall/strided_slice", "StatefulPartitionedCall/zeros/packed/1"], "attr": {"axis": {"i": "0"}, "N": {"i": "2"}, "T": {"type": "DT_INT32"}}}, {"name": "StatefulPartitionedCall/zeros_1/packed", "op": "Pack", "input": ["StatefulPartitionedCall/strided_slice", "StatefulPartitionedCall/zeros_1/packed/1"], "attr": {"axis": {"i": "0"}, "T": {"type": "DT_INT32"}, "N": {"i": "2"}}}, {"name": "StatefulPartitionedCall/zeros_2/packed", "op": "Pack", "input": ["StatefulPartitionedCall/strided_slice", "StatefulPartitionedCall/zeros_2/packed/1"], "attr": {"axis": {"i": "0"}, "N": {"i": "2"}, "T": {"type": "DT_INT32"}}}, {"name": "StatefulPartitionedCall/zeros_3/packed", "op": "Pack", "input": ["StatefulPartitionedCall/strided_slice", "StatefulPartitionedCall/zeros_3/packed/1"], "attr": {"axis": {"i": "0"}, "T": {"type": "DT_INT32"}, "N": {"i": "2"}}}, {"name": "StatefulPartitionedCall/zeros_4/packed", "op": "Pack", "input": ["StatefulPartitionedCall/strided_slice", "StatefulPartitionedCall/zeros_4/packed/1"], "attr": {"N": {"i": "2"}, "T": {"type": "DT_INT32"}, "axis": {"i": "0"}}}, {"name": "StatefulPartitionedCall/zeros_5/packed", "op": "Pack", "input": ["StatefulPartitionedCall/strided_slice", "StatefulPartitionedCall/strided_slice_1"], "attr": {"T": {"type": "DT_INT32"}, "N": {"i": "2"}, "axis": {"i": "0"}}}, {"name": "StatefulPartitionedCall/decoder/Tile_1/multiples", "op": "Pack", "input": ["StatefulPartitionedCall/strided_slice", "StatefulPartitionedCall/decoder/Tile_1/multiples/1"], "attr": {"N": {"i": "2"}, "axis": {"i": "0"}, "T": {"type": "DT_INT32"}}}, {"name": "ConstantFolding/StatefulPartitionedCall/zeros_7/packed_const_axis", "op": "Const", "input": ["^StatefulPartitionedCall/strided_slice"], "attr": {"dtype": {"type": "DT_INT32"}, "value": {"tensor": {"dtype": "DT_INT32", "tensorShape": {}}}}}, {"name": "ConstantFolding/StatefulPartitionedCall/decoder/Tile/multiples_const_axis", "op": "Const", "input": ["^StatefulPartitionedCall/strided_slice"], "attr": {"dtype": {"type": "DT_INT32"}, "value": {"tensor": {"dtype": "DT_INT32", "tensorShape": {}}}}}, {"name": "StatefulPartitionedCall/LocationSensitiveAttention/SequenceMask/Less", "op": "Less", "input": ["StatefulPartitionedCall/LocationSensitiveAttention/SequenceMask/Range", "StatefulPartitionedCall/LocationSensitiveAttention/SequenceMask/ExpandDims"], "attr": {"T": {"type": "DT_INT32"}}}, {"name": "StatefulPartitionedCall/zeros", "op": "Fill", "input": ["StatefulPartitionedCall/zeros/packed", "StatefulPartitionedCall/zeros/Const"], "attr": {"T": {"type": "DT_FLOAT"}, "index_type": {"type": "DT_INT32"}}}, {"name": "StatefulPartitionedCall/zeros_1", "op": "Fill", "input": ["StatefulPartitionedCall/zeros_1/packed", "StatefulPartitionedCall/zeros_1/Const"], "attr": {"T": {"type": "DT_FLOAT"}, "index_type": {"type": "DT_INT32"}}}, {"name": "StatefulPartitionedCall/zeros_2", "op": "Fill", "input": ["StatefulPartitionedCall/zeros_2/packed", "StatefulPartitionedCall/zeros_2/Const"], "attr": {"index_type": {"type": "DT_INT32"}, "T": {"type": "DT_FLOAT"}}}, {"name": "StatefulPartitionedCall/zeros_3", "op": "Fill", "input": ["StatefulPartitionedCall/zeros_3/packed", "StatefulPartitionedCall/zeros_3/Const"], "attr": {"T": {"type": "DT_FLOAT"}, "index_type": {"type": "DT_INT32"}}}, {"name": "StatefulPartitionedCall/zeros_4", "op": "Fill", "input": ["StatefulPartitionedCall/zeros_4/packed", "StatefulPartitionedCall/zeros_4/Const"], "attr": {"index_type": {"type": "DT_INT32"}, "T": {"type": "DT_FLOAT"}}}, {"name": "StatefulPartitionedCall/zeros_5", "op": "Fill", "input": ["StatefulPartitionedCall/zeros_5/packed", "StatefulPartitionedCall/zeros_5/Const"], "attr": {"T": {"type": "DT_FLOAT"}, "index_type": {"type": "DT_INT32"}}}, {"name": "StatefulPartitionedCall/decoder/Tile_1", "op": "Tile", "input": ["StatefulPartitionedCall/decoder/Tile_1/input", "StatefulPartitionedCall/decoder/Tile_1/multiples"], "attr": {"Tmultiples": {"type": "DT_INT32"}, "T": {"type": "DT_FLOAT"}}}, {"name": "StatefulPartitionedCall/zeros_7/packed", "op": "ExpandDims", "input": ["StatefulPartitionedCall/strided_slice", "ConstantFolding/StatefulPartitionedCall/zeros_7/packed_const_axis"], "attr": {"Tdim": {"type": "DT_INT32"}, "T": {"type": "DT_INT32"}}}, {"name": "StatefulPartitionedCall/decoder/Tile/multiples", "op": "ExpandDims", "input": ["StatefulPartitionedCall/strided_slice", "ConstantFolding/StatefulPartitionedCall/decoder/Tile/multiples_const_axis"], "attr": {"Tdim": {"type": "DT_INT32"}, "T": {"type": "DT_INT32"}}}, {"name": "StatefulPartitionedCall/LocationSensitiveAttention/SequenceMask/Cast_1", "op": "Cast", "input": ["StatefulPartitionedCall/LocationSensitiveAttention/SequenceMask/Less"], "attr": {"SrcT": {"type": "DT_BOOL"}, "DstT": {"type": "DT_FLOAT"}, "Truncate": {"b": false}}}, {"name": "StatefulPartitionedCall/zeros_7", "op": "Fill", "input": ["StatefulPartitionedCall/zeros_7/packed", "StatefulPartitionedCall/zeros_7/Const"], "attr": {"index_type": {"type": "DT_INT32"}, "T": {"type": "DT_INT32"}}}, {"name": "StatefulPartitionedCall/decoder/Tile", "op": "Tile", "input": ["StatefulPartitionedCall/decoder/Tile/input", "StatefulPartitionedCall/decoder/Tile/multiples"], "attr": {"T": {"type": "DT_BOOL"}, "Tmultiples": {"type": "DT_INT32"}}}, {"name": "StatefulPartitionedCall/LocationSensitiveAttention/Shape_1", "op": "Shape", "input": ["StatefulPartitionedCall/LocationSensitiveAttention/SequenceMask/Cast_1"], "attr": {"T": {"type": "DT_FLOAT"}, "out_type": {"type": "DT_INT32"}}}, {"name": "StatefulPartitionedCall/decoder/zeros_like/Shape", "op": "Shape", "input": ["StatefulPartitionedCall/decoder/Tile"], "attr": {"T": {"type": "DT_BOOL"}, "out_type": {"type": "DT_INT32"}}}, {"name": "StatefulPartitionedCall/LocationSensitiveAttention/concat", "op": "ConcatV2", "input": ["StatefulPartitionedCall/LocationSensitiveAttention/Shape_1", "StatefulPartitionedCall/LocationSensitiveAttention/ones", "StatefulPartitionedCall/LocationSensitiveAttention/concat/axis"], "attr": {"Tidx": {"type": "DT_INT32"}, "N": {"i": "2"}, "T": {"type": "DT_INT32"}}}, {"name": "StatefulPartitionedCall/decoder/zeros_like", "op": "Fill", "input": ["StatefulPartitionedCall/decoder/zeros_like/Shape", "StatefulPartitionedCall/decoder/zeros_like/Const"], "attr": {"index_type": {"type": "DT_INT32"}, "T": {"type": "DT_INT32"}}}, {"name": "StatefulPartitionedCall/LocationSensitiveAttention/Reshape", "op": "Reshape", "input": ["StatefulPartitionedCall/LocationSensitiveAttention/SequenceMask/Cast_1", "StatefulPartitionedCall/LocationSensitiveAttention/concat"], "attr": {"Tshape": {"type": "DT_INT32"}, "T": {"type": "DT_FLOAT"}}}, {"name": "StatefulPartitionedCall/LocationSensitiveAttention/mul", "op": "Mul", "input": ["StatefulPartitionedCall/encoder/bilstm/concat", "StatefulPartitionedCall/LocationSensitiveAttention/Reshape"], "attr": {"T": {"type": "DT_FLOAT"}}}, {"name": "StatefulPartitionedCall/LocationSensitiveAttention/memory_layer/Tensordot/Shape", "op": "Shape", "input": ["StatefulPartitionedCall/LocationSensitiveAttention/mul"], "attr": {"T": {"type": "DT_FLOAT"}, "out_type": {"type": "DT_INT32"}}}, {"name": "StatefulPartitionedCall/LocationSensitiveAttention/memory_layer/Tensordot/GatherV2_1", "op": "GatherV2", "input": ["StatefulPartitionedCall/LocationSensitiveAttention/memory_layer/Tensordot/Shape", "StatefulPartitionedCall/LocationSensitiveAttention/memory_layer/Tensordot/axes", "StatefulPartitionedCall/LocationSensitiveAttention/memory_layer/Tensordot/GatherV2_1/axis"], "attr": {"batch_dims": {"i": "0"}, "Tparams": {"type": "DT_INT32"}, "Tindices": {"type": "DT_INT32"}, "Taxis": {"type": "DT_INT32"}}}, {"name": "StatefulPartitionedCall/LocationSensitiveAttention/memory_layer/Tensordot/GatherV2", "op": "GatherV2", "input": ["StatefulPartitionedCall/LocationSensitiveAttention/memory_layer/Tensordot/Shape", "StatefulPartitionedCall/LocationSensitiveAttention/memory_layer/Tensordot/free", "StatefulPartitionedCall/LocationSensitiveAttention/memory_layer/Tensordot/GatherV2/axis"], "attr": {"Tindices": {"type": "DT_INT32"}, "batch_dims": {"i": "0"}, "Taxis": {"type": "DT_INT32"}, "Tparams": {"type": "DT_INT32"}}}, {"name": "StatefulPartitionedCall/LocationSensitiveAttention/memory_layer/Tensordot/Prod_1", "op": "Prod", "input": ["StatefulPartitionedCall/LocationSensitiveAttention/memory_layer/Tensordot/GatherV2_1", "StatefulPartitionedCall/LocationSensitiveAttention/memory_layer/Tensordot/Const_1"], "attr": {"T": {"type": "DT_INT32"}, "Tidx": {"type": "DT_INT32"}, "keep_dims": {"b": false}}}, {"name": "StatefulPartitionedCall/LocationSensitiveAttention/memory_layer/Tensordot/Prod", "op": "Prod", "input": ["StatefulPartitionedCall/LocationSensitiveAttention/memory_layer/Tensordot/GatherV2", "StatefulPartitionedCall/LocationSensitiveAttention/memory_layer/Tensordot/Const"], "attr": {"Tidx": {"type": "DT_INT32"}, "T": {"type": "DT_INT32"}, "keep_dims": {"b": false}}}, {"name": "StatefulPartitionedCall/LocationSensitiveAttention/memory_layer/Tensordot/concat_1", "op": "ConcatV2", "input": ["StatefulPartitionedCall/LocationSensitiveAttention/memory_layer/Tensordot/GatherV2", "StatefulPartitionedCall/LocationSensitiveAttention/memory_layer/Tensordot/Const_2", "StatefulPartitionedCall/LocationSensitiveAttention/memory_layer/Tensordot/concat_1/axis"], "attr": {"N": {"i": "2"}, "Tidx": {"type": "DT_INT32"}, "T": {"type": "DT_INT32"}}}, {"name": "StatefulPartitionedCall/LocationSensitiveAttention/memory_layer/Tensordot/stack", "op": "Pack", "input": ["StatefulPartitionedCall/LocationSensitiveAttention/memory_layer/Tensordot/Prod", "StatefulPartitionedCall/LocationSensitiveAttention/memory_layer/Tensordot/Prod_1"], "attr": {"T": {"type": "DT_INT32"}, "axis": {"i": "0"}, "N": {"i": "2"}}}, {"name": "StatefulPartitionedCall/LocationSensitiveAttention/memory_layer/Tensordot/Reshape", "op": "Reshape", "input": ["StatefulPartitionedCall/LocationSensitiveAttention/mul", "StatefulPartitionedCall/LocationSensitiveAttention/memory_layer/Tensordot/stack"], "attr": {"T": {"type": "DT_FLOAT"}, "Tshape": {"type": "DT_INT32"}}}, {"name": "StatefulPartitionedCall/LocationSensitiveAttention/memory_layer/Tensordot/MatMul", "op": "MatMul", "input": ["StatefulPartitionedCall/LocationSensitiveAttention/memory_layer/Tensordot/Reshape", "StatefulPartitionedCall/LocationSensitiveAttention/memory_layer/Tensordot/ReadVariableOp"], "device": "/device:CPU:0", "attr": {"transpose_b": {"b": false}, "T": {"type": "DT_FLOAT"}, "transpose_a": {"b": false}}}, {"name": "StatefulPartitionedCall/LocationSensitiveAttention/memory_layer/Tensordot", "op": "Reshape", "input": ["StatefulPartitionedCall/LocationSensitiveAttention/memory_layer/Tensordot/MatMul", "StatefulPartitionedCall/LocationSensitiveAttention/memory_layer/Tensordot/concat_1"], "attr": {"Tshape": {"type": "DT_INT32"}, "T": {"type": "DT_FLOAT"}}}, {"name": "StatefulPartitionedCall/decoder/while", "op": "While", "input": ["StatefulPartitionedCall/decoder/while/loop_counter", "StatefulPartitionedCall/decoder/maximum_iterations", "StatefulPartitionedCall/decoder/Const", "StatefulPartitionedCall/decoder/TensorArrayV2", "StatefulPartitionedCall/decoder/TensorArrayV2_1", "StatefulPartitionedCall/decoder/TensorArrayV2_2", "StatefulPartitionedCall/zeros", "StatefulPartitionedCall/zeros_1", "StatefulPartitionedCall/zeros_2", "StatefulPartitionedCall/zeros_3", "StatefulPartitionedCall/zeros_4", "StatefulPartitionedCall/zeros_6", "StatefulPartitionedCall/zeros_5", "StatefulPartitionedCall/TensorArrayV2", "StatefulPartitionedCall/zeros_7", "StatefulPartitionedCall/decoder/Tile_1", "StatefulPartitionedCall/decoder/Tile", "StatefulPartitionedCall/decoder/zeros_like", "unknown_39", "unknown_40", "unknown_41", "unknown_42", "unknown_43", "unknown_44", "unknown_45", "unknown_46", "unknown_47", "unknown_48", "StatefulPartitionedCall/LocationSensitiveAttention/memory_layer/Tensordot", "unknown_49", "unknown_50", "input_lengths", "StatefulPartitionedCall/LocationSensitiveAttention/mul", "unknown_51", "unknown_52", "unknown_53", "unknown_54", "unknown_55", "unknown_56", "unknown_57", "StatefulPartitionedCall/strided_slice"], "attr": {"cond": {"func": {"name": "__inference_decoder_while_cond_13384_frozen_26225"}}, "_stateful_parallelism": {"b": false}, "T": {"list": {"type": ["DT_INT32", "DT_INT32", "DT_INT32", "DT_VARIANT", "DT_VARIANT", "DT_VARIANT", "DT_FLOAT", "DT_FLOAT", "DT_FLOAT", "DT_FLOAT", "DT_FLOAT", "DT_INT32", "DT_FLOAT", "DT_VARIANT", "DT_INT32", "DT_FLOAT", "DT_BOOL", "DT_INT32", "DT_FLOAT", "DT_FLOAT", "DT_FLOAT", "DT_FLOAT", "DT_FLOAT", "DT_FLOAT", "DT_FLOAT", "DT_FLOAT", "DT_FLOAT", "DT_FLOAT", "DT_FLOAT", "DT_FLOAT", "DT_FLOAT", "DT_INT32", "DT_FLOAT", "DT_FLOAT", "DT_FLOAT", "DT_FLOAT", "DT_FLOAT", "DT_FLOAT", "DT_FLOAT", "DT_FLOAT", "DT_INT32"]}}, "parallel_iterations": {"i": "32"}, "_lower_using_switch_merge": {"b": false}, "body": {"func": {"name": "__inference_decoder_while_body_13385_frozen_26231"}}, "_num_original_outputs": {"i": "41"}, "_read_only_resource_inputs": {"list": {"i": ["18", "19", "20", "21", "22", "23", "24", "25", "26", "27", "29", "30", "33", "34", "35", "36", "37", "38", "39"]}}, "output_shapes": {"list": {"shape": [{}, {}, {}, {}, {}, {}, {"dim": [{"size": "-1"}, {"size": "1024"}]}, {"dim": [{"size": "-1"}, {"size": "1024"}]}, {"dim": [{"size": "-1"}, {"size": "1024"}]}, {"dim": [{"size": "-1"}, {"size": "1024"}]}, {"dim": [{"size": "-1"}, {"size": "512"}]}, {}, {"dim": [{"size": "-1"}, {"size": "-1"}]}, {}, {"dim": [{"size": "-1"}]}, {"dim": [{"size": "-1"}, {"size": "80"}]}, {"dim": [{"size": "-1"}]}, {"dim": [{"size": "-1"}]}, {"dim": [{"size": "80"}, {"size": "256"}]}, {"dim": [{"size": "256"}]}, {"dim": [{"size": "256"}, {"size": "256"}]}, {"dim": [{"size": "256"}]}, {"dim": [{"size": "768"}, {"size": "4096"}]}, {"dim": [{"size": "1024"}, {"size": "4096"}]}, {"dim": [{"size": "4096"}]}, {"dim": [{"size": "1024"}, {"size": "128"}]}, {"dim": [{"size": "31"}, {"size": "1"}, {"size": "32"}]}, {"dim": [{"size": "32"}, {"size": "128"}]}, {"dim": [{"size": "-1"}, {"size": "-1"}, {"size": "128"}]}, {"dim": [{"size": "128"}, {"size": "1"}]}, {"dim": [{"size": "1"}]}, {"dim": [{"size": "-1"}]}, {"dim": [{"size": "-1"}, {"size": "-1"}, {"size": "512"}]}, {"dim": [{"size": "1536"}, {"size": "4096"}]}, {"dim": [{"size": "1024"}, {"size": "4096"}]}, {"dim": [{"size": "4096"}]}, {"dim": [{"size": "1536"}, {"size": "80"}]}, {"dim": [{"size": "80"}]}, {"dim": [{"size": "1104"}, {"size": "1"}]}, {"dim": [{"size": "1"}]}, {}]}}}}, {"name": "StatefulPartitionedCall/decoder/TensorArrayV2Stack/TensorListStack", "op": "TensorListStack", "input": ["StatefulPartitionedCall/decoder/while:3", "StatefulPartitionedCall/decoder/TensorArrayV2Stack/TensorListStack/element_shape"], "attr": {"element_dtype": {"type": "DT_FLOAT"}, "num_elements": {"i": "-1"}}}, {"name": "StatefulPartitionedCall/decoder/TensorArrayV2Stack_1/TensorListStack", "op": "TensorListStack", "input": ["StatefulPartitionedCall/decoder/while:4", "StatefulPartitionedCall/decoder/TensorArrayV2Stack_1/TensorListStack/element_shape"], "attr": {"num_elements": {"i": "-1"}, "element_dtype": {"type": "DT_FLOAT"}}}, {"name": "StatefulPartitionedCall/TensorArrayV2Stack/TensorListStack", "op": "TensorListStack", "input": ["StatefulPartitionedCall/decoder/while:13", "StatefulPartitionedCall/TensorArrayV2Stack/TensorListStack/element_shape"], "attr": {"num_elements": {"i": "-1"}, "element_dtype": {"type": "DT_FLOAT"}}}, {"name": "StatefulPartitionedCall/decoder/transpose", "op": "Transpose", "input": ["StatefulPartitionedCall/decoder/TensorArrayV2Stack/TensorListStack", "StatefulPartitionedCall/decoder/concat_3"], "attr": {"Tperm": {"type": "DT_INT32"}, "T": {"type": "DT_FLOAT"}}}, {"name": "StatefulPartitionedCall/decoder/transpose_1", "op": "Transpose", "input": ["StatefulPartitionedCall/decoder/TensorArrayV2Stack_1/TensorListStack", "StatefulPartitionedCall/decoder/concat_4"], "attr": {"Tperm": {"type": "DT_INT32"}, "T": {"type": "DT_FLOAT"}}}, {"name": "StatefulPartitionedCall/transpose", "op": "Transpose", "input": ["StatefulPartitionedCall/TensorArrayV2Stack/TensorListStack", "StatefulPartitionedCall/transpose/perm"], "attr": {"T": {"type": "DT_FLOAT"}, "Tperm": {"type": "DT_INT32"}}}, {"name": "StatefulPartitionedCall/Reshape", "op": "Reshape", "input": ["StatefulPartitionedCall/decoder/transpose", "StatefulPartitionedCall/Reshape/shape"], "attr": {"T": {"type": "DT_FLOAT"}, "Tshape": {"type": "DT_INT32"}}}, {"name": "StatefulPartitionedCall/Reshape_1", "op": "Reshape", "input": ["StatefulPartitionedCall/decoder/transpose_1", "StatefulPartitionedCall/Reshape_1/shape"], "attr": {"T": {"type": "DT_FLOAT"}, "Tshape": {"type": "DT_INT32"}}}, {"name": "Identity_3", "op": "Identity", "input": ["StatefulPartitionedCall/transpose"], "attr": {"T": {"type": "DT_FLOAT"}}}, {"name": "Identity", "op": "Identity", "input": ["StatefulPartitionedCall/Reshape"], "attr": {"T": {"type": "DT_FLOAT"}}}, {"name": "StatefulPartitionedCall/post_net/tf_tacotron_conv_batch_norm_5/conv_._0/conv1d/ExpandDims", "op": "ExpandDims", "input": ["StatefulPartitionedCall/Reshape", "StatefulPartitionedCall/post_net/tf_tacotron_conv_batch_norm_5/conv_._0/conv1d/ExpandDims/dim"], "attr": {"T": {"type": "DT_FLOAT"}, "Tdim": {"type": "DT_INT32"}}}, {"name": "Identity_2", "op": "Identity", "input": ["StatefulPartitionedCall/Reshape_1"], "attr": {"T": {"type": "DT_FLOAT"}}}, {"name": "StatefulPartitionedCall/post_net/tf_tacotron_conv_batch_norm_5/conv_._0/conv1d", "op": "_FusedConv2D", "input": ["StatefulPartitionedCall/post_net/tf_tacotron_conv_batch_norm_5/conv_._0/conv1d/ExpandDims", "StatefulPartitionedCall/post_net/tf_tacotron_conv_batch_norm_5/conv_._0/conv1d/ExpandDims_1", "StatefulPartitionedCall/post_net/tf_tacotron_conv_batch_norm_5/conv_._0/BiasAdd/ReadVariableOp"], "device": "/device:CPU:0", "attr": {"dilations": {"list": {"i": ["1", "1", "1", "1"]}}, "num_args": {"i": "1"}, "padding": {"s": "U0FNRQ=="}, "use_cudnn_on_gpu": {"b": true}, "strides": {"list": {"i": ["1", "1", "1", "1"]}}, "explicit_paddings": {"list": {}}, "T": {"type": "DT_FLOAT"}, "data_format": {"s": "TkhXQw=="}, "epsilon": {"f": 0.0}, "fused_ops": {"list": {"s": ["Qmlhc0FkZA=="]}}}}, {"name": "StatefulPartitionedCall/post_net/tf_tacotron_conv_batch_norm_5/conv_._0/BiasAdd", "op": "Squeeze", "input": ["StatefulPartitionedCall/post_net/tf_tacotron_conv_batch_norm_5/conv_._0/conv1d"], "attr": {"T": {"type": "DT_FLOAT"}, "squeeze_dims": {"list": {"i": ["-3"]}}}}, {"name": "StatefulPartitionedCall/post_net/tf_tacotron_conv_batch_norm_5/batch_norm_._0/batchnorm/mul_1", "op": "Mul", "input": ["StatefulPartitionedCall/post_net/tf_tacotron_conv_batch_norm_5/conv_._0/BiasAdd", "StatefulPartitionedCall/post_net/tf_tacotron_conv_batch_norm_5/batch_norm_._0/batchnorm/mul"], "attr": {"T": {"type": "DT_FLOAT"}}}, {"name": "StatefulPartitionedCall/post_net/tf_tacotron_conv_batch_norm_5/batch_norm_._0/batchnorm/add_1", "op": "AddV2", "input": ["StatefulPartitionedCall/post_net/tf_tacotron_conv_batch_norm_5/batch_norm_._0/batchnorm/mul_1", "StatefulPartitionedCall/post_net/tf_tacotron_conv_batch_norm_5/batch_norm_._0/batchnorm/sub"], "attr": {"T": {"type": "DT_FLOAT"}}}, {"name": "StatefulPartitionedCall/post_net/tf_tacotron_conv_batch_norm_5/activation_7/Tanh", "op": "Tanh", "input": ["StatefulPartitionedCall/post_net/tf_tacotron_conv_batch_norm_5/batch_norm_._0/batchnorm/add_1"], "attr": {"T": {"type": "DT_FLOAT"}}}, {"name": "StatefulPartitionedCall/post_net/tf_tacotron_conv_batch_norm_6/conv_._1/conv1d/ExpandDims", "op": "ExpandDims", "input": ["StatefulPartitionedCall/post_net/tf_tacotron_conv_batch_norm_5/activation_7/Tanh", "StatefulPartitionedCall/post_net/tf_tacotron_conv_batch_norm_6/conv_._1/conv1d/ExpandDims/dim"], "attr": {"T": {"type": "DT_FLOAT"}, "Tdim": {"type": "DT_INT32"}}}, {"name": "StatefulPartitionedCall/post_net/tf_tacotron_conv_batch_norm_6/conv_._1/conv1d", "op": "_FusedConv2D", "input": ["StatefulPartitionedCall/post_net/tf_tacotron_conv_batch_norm_6/conv_._1/conv1d/ExpandDims", "StatefulPartitionedCall/post_net/tf_tacotron_conv_batch_norm_6/conv_._1/conv1d/ExpandDims_1", "StatefulPartitionedCall/post_net/tf_tacotron_conv_batch_norm_6/conv_._1/BiasAdd/ReadVariableOp"], "device": "/device:CPU:0", "attr": {"use_cudnn_on_gpu": {"b": true}, "data_format": {"s": "TkhXQw=="}, "epsilon": {"f": 0.0}, "padding": {"s": "U0FNRQ=="}, "dilations": {"list": {"i": ["1", "1", "1", "1"]}}, "fused_ops": {"list": {"s": ["Qmlhc0FkZA=="]}}, "num_args": {"i": "1"}, "T": {"type": "DT_FLOAT"}, "strides": {"list": {"i": ["1", "1", "1", "1"]}}, "explicit_paddings": {"list": {}}}}, {"name": "StatefulPartitionedCall/post_net/tf_tacotron_conv_batch_norm_6/conv_._1/BiasAdd", "op": "Squeeze", "input": ["StatefulPartitionedCall/post_net/tf_tacotron_conv_batch_norm_6/conv_._1/conv1d"], "attr": {"T": {"type": "DT_FLOAT"}, "squeeze_dims": {"list": {"i": ["-3"]}}}}, {"name": "StatefulPartitionedCall/post_net/tf_tacotron_conv_batch_norm_6/batch_norm_._1/batchnorm/mul_1", "op": "Mul", "input": ["StatefulPartitionedCall/post_net/tf_tacotron_conv_batch_norm_6/conv_._1/BiasAdd", "StatefulPartitionedCall/post_net/tf_tacotron_conv_batch_norm_6/batch_norm_._1/batchnorm/mul"], "attr": {"T": {"type": "DT_FLOAT"}}}, {"name": "StatefulPartitionedCall/post_net/tf_tacotron_conv_batch_norm_6/batch_norm_._1/batchnorm/add_1", "op": "AddV2", "input": ["StatefulPartitionedCall/post_net/tf_tacotron_conv_batch_norm_6/batch_norm_._1/batchnorm/mul_1", "StatefulPartitionedCall/post_net/tf_tacotron_conv_batch_norm_6/batch_norm_._1/batchnorm/sub"], "attr": {"T": {"type": "DT_FLOAT"}}}, {"name": "StatefulPartitionedCall/post_net/tf_tacotron_conv_batch_norm_6/activation_7/Tanh", "op": "Tanh", "input": ["StatefulPartitionedCall/post_net/tf_tacotron_conv_batch_norm_6/batch_norm_._1/batchnorm/add_1"], "attr": {"T": {"type": "DT_FLOAT"}}}, {"name": "StatefulPartitionedCall/post_net/tf_tacotron_conv_batch_norm_7/conv_._2/conv1d/ExpandDims", "op": "ExpandDims", "input": ["StatefulPartitionedCall/post_net/tf_tacotron_conv_batch_norm_6/activation_7/Tanh", "StatefulPartitionedCall/post_net/tf_tacotron_conv_batch_norm_7/conv_._2/conv1d/ExpandDims/dim"], "attr": {"Tdim": {"type": "DT_INT32"}, "T": {"type": "DT_FLOAT"}}}, {"name": "StatefulPartitionedCall/post_net/tf_tacotron_conv_batch_norm_7/conv_._2/conv1d", "op": "_FusedConv2D", "input": ["StatefulPartitionedCall/post_net/tf_tacotron_conv_batch_norm_7/conv_._2/conv1d/ExpandDims", "StatefulPartitionedCall/post_net/tf_tacotron_conv_batch_norm_7/conv_._2/conv1d/ExpandDims_1", "StatefulPartitionedCall/post_net/tf_tacotron_conv_batch_norm_7/conv_._2/BiasAdd/ReadVariableOp"], "device": "/device:CPU:0", "attr": {"dilations": {"list": {"i": ["1", "1", "1", "1"]}}, "data_format": {"s": "TkhXQw=="}, "num_args": {"i": "1"}, "use_cudnn_on_gpu": {"b": true}, "T": {"type": "DT_FLOAT"}, "padding": {"s": "U0FNRQ=="}, "strides": {"list": {"i": ["1", "1", "1", "1"]}}, "fused_ops": {"list": {"s": ["Qmlhc0FkZA=="]}}, "explicit_paddings": {"list": {}}, "epsilon": {"f": 0.0}}}, {"name": "StatefulPartitionedCall/post_net/tf_tacotron_conv_batch_norm_7/conv_._2/BiasAdd", "op": "Squeeze", "input": ["StatefulPartitionedCall/post_net/tf_tacotron_conv_batch_norm_7/conv_._2/conv1d"], "attr": {"T": {"type": "DT_FLOAT"}, "squeeze_dims": {"list": {"i": ["-3"]}}}}, {"name": "StatefulPartitionedCall/post_net/tf_tacotron_conv_batch_norm_7/batch_norm_._2/batchnorm/mul_1", "op": "Mul", "input": ["StatefulPartitionedCall/post_net/tf_tacotron_conv_batch_norm_7/conv_._2/BiasAdd", "StatefulPartitionedCall/post_net/tf_tacotron_conv_batch_norm_7/batch_norm_._2/batchnorm/mul"], "attr": {"T": {"type": "DT_FLOAT"}}}, {"name": "StatefulPartitionedCall/post_net/tf_tacotron_conv_batch_norm_7/batch_norm_._2/batchnorm/add_1", "op": "AddV2", "input": ["StatefulPartitionedCall/post_net/tf_tacotron_conv_batch_norm_7/batch_norm_._2/batchnorm/mul_1", "StatefulPartitionedCall/post_net/tf_tacotron_conv_batch_norm_7/batch_norm_._2/batchnorm/sub"], "attr": {"T": {"type": "DT_FLOAT"}}}, {"name": "StatefulPartitionedCall/post_net/tf_tacotron_conv_batch_norm_7/activation_7/Tanh", "op": "Tanh", "input": ["StatefulPartitionedCall/post_net/tf_tacotron_conv_batch_norm_7/batch_norm_._2/batchnorm/add_1"], "attr": {"T": {"type": "DT_FLOAT"}}}, {"name": "StatefulPartitionedCall/post_net/tf_tacotron_conv_batch_norm_8/conv_._3/conv1d/ExpandDims", "op": "ExpandDims", "input": ["StatefulPartitionedCall/post_net/tf_tacotron_conv_batch_norm_7/activation_7/Tanh", "StatefulPartitionedCall/post_net/tf_tacotron_conv_batch_norm_8/conv_._3/conv1d/ExpandDims/dim"], "attr": {"Tdim": {"type": "DT_INT32"}, "T": {"type": "DT_FLOAT"}}}, {"name": "StatefulPartitionedCall/post_net/tf_tacotron_conv_batch_norm_8/conv_._3/conv1d", "op": "_FusedConv2D", "input": ["StatefulPartitionedCall/post_net/tf_tacotron_conv_batch_norm_8/conv_._3/conv1d/ExpandDims", "StatefulPartitionedCall/post_net/tf_tacotron_conv_batch_norm_8/conv_._3/conv1d/ExpandDims_1", "StatefulPartitionedCall/post_net/tf_tacotron_conv_batch_norm_8/conv_._3/BiasAdd/ReadVariableOp"], "device": "/device:CPU:0", "attr": {"epsilon": {"f": 0.0}, "fused_ops": {"list": {"s": ["Qmlhc0FkZA=="]}}, "dilations": {"list": {"i": ["1", "1", "1", "1"]}}, "T": {"type": "DT_FLOAT"}, "padding": {"s": "U0FNRQ=="}, "num_args": {"i": "1"}, "use_cudnn_on_gpu": {"b": true}, "explicit_paddings": {"list": {}}, "data_format": {"s": "TkhXQw=="}, "strides": {"list": {"i": ["1", "1", "1", "1"]}}}}, {"name": "StatefulPartitionedCall/post_net/tf_tacotron_conv_batch_norm_8/conv_._3/BiasAdd", "op": "Squeeze", "input": ["StatefulPartitionedCall/post_net/tf_tacotron_conv_batch_norm_8/conv_._3/conv1d"], "attr": {"squeeze_dims": {"list": {"i": ["-3"]}}, "T": {"type": "DT_FLOAT"}}}, {"name": "StatefulPartitionedCall/post_net/tf_tacotron_conv_batch_norm_8/batch_norm_._3/batchnorm/mul_1", "op": "Mul", "input": ["StatefulPartitionedCall/post_net/tf_tacotron_conv_batch_norm_8/conv_._3/BiasAdd", "StatefulPartitionedCall/post_net/tf_tacotron_conv_batch_norm_8/batch_norm_._3/batchnorm/mul"], "attr": {"T": {"type": "DT_FLOAT"}}}, {"name": "StatefulPartitionedCall/post_net/tf_tacotron_conv_batch_norm_8/batch_norm_._3/batchnorm/add_1", "op": "AddV2", "input": ["StatefulPartitionedCall/post_net/tf_tacotron_conv_batch_norm_8/batch_norm_._3/batchnorm/mul_1", "StatefulPartitionedCall/post_net/tf_tacotron_conv_batch_norm_8/batch_norm_._3/batchnorm/sub"], "attr": {"T": {"type": "DT_FLOAT"}}}, {"name": "StatefulPartitionedCall/post_net/tf_tacotron_conv_batch_norm_8/activation_7/Tanh", "op": "Tanh", "input": ["StatefulPartitionedCall/post_net/tf_tacotron_conv_batch_norm_8/batch_norm_._3/batchnorm/add_1"], "attr": {"T": {"type": "DT_FLOAT"}}}, {"name": "StatefulPartitionedCall/post_net/tf_tacotron_conv_batch_norm_9/conv_._4/conv1d/ExpandDims", "op": "ExpandDims", "input": ["StatefulPartitionedCall/post_net/tf_tacotron_conv_batch_norm_8/activation_7/Tanh", "StatefulPartitionedCall/post_net/tf_tacotron_conv_batch_norm_9/conv_._4/conv1d/ExpandDims/dim"], "attr": {"T": {"type": "DT_FLOAT"}, "Tdim": {"type": "DT_INT32"}}}, {"name": "StatefulPartitionedCall/post_net/tf_tacotron_conv_batch_norm_9/conv_._4/conv1d", "op": "_FusedConv2D", "input": ["StatefulPartitionedCall/post_net/tf_tacotron_conv_batch_norm_9/conv_._4/conv1d/ExpandDims", "StatefulPartitionedCall/post_net/tf_tacotron_conv_batch_norm_9/conv_._4/conv1d/ExpandDims_1", "StatefulPartitionedCall/post_net/tf_tacotron_conv_batch_norm_9/conv_._4/BiasAdd/ReadVariableOp"], "device": "/device:CPU:0", "attr": {"T": {"type": "DT_FLOAT"}, "explicit_paddings": {"list": {}}, "fused_ops": {"list": {"s": ["Qmlhc0FkZA=="]}}, "data_format": {"s": "TkhXQw=="}, "padding": {"s": "U0FNRQ=="}, "num_args": {"i": "1"}, "epsilon": {"f": 0.0}, "dilations": {"list": {"i": ["1", "1", "1", "1"]}}, "use_cudnn_on_gpu": {"b": true}, "strides": {"list": {"i": ["1", "1", "1", "1"]}}}}, {"name": "StatefulPartitionedCall/post_net/tf_tacotron_conv_batch_norm_9/conv_._4/BiasAdd", "op": "Squeeze", "input": ["StatefulPartitionedCall/post_net/tf_tacotron_conv_batch_norm_9/conv_._4/conv1d"], "attr": {"T": {"type": "DT_FLOAT"}, "squeeze_dims": {"list": {"i": ["-3"]}}}}, {"name": "StatefulPartitionedCall/post_net/tf_tacotron_conv_batch_norm_9/batch_norm_._4/batchnorm/mul_1", "op": "Mul", "input": ["StatefulPartitionedCall/post_net/tf_tacotron_conv_batch_norm_9/conv_._4/BiasAdd", "StatefulPartitionedCall/post_net/tf_tacotron_conv_batch_norm_9/batch_norm_._4/batchnorm/mul"], "attr": {"T": {"type": "DT_FLOAT"}}}, {"name": "StatefulPartitionedCall/post_net/tf_tacotron_conv_batch_norm_9/batch_norm_._4/batchnorm/add_1", "op": "AddV2", "input": ["StatefulPartitionedCall/post_net/tf_tacotron_conv_batch_norm_9/batch_norm_._4/batchnorm/mul_1", "StatefulPartitionedCall/post_net/tf_tacotron_conv_batch_norm_9/batch_norm_._4/batchnorm/sub"], "attr": {"T": {"type": "DT_FLOAT"}}}, {"name": "StatefulPartitionedCall/residual_projection/Tensordot/Shape", "op": "Shape", "input": ["StatefulPartitionedCall/post_net/tf_tacotron_conv_batch_norm_9/batch_norm_._4/batchnorm/add_1"], "attr": {"out_type": {"type": "DT_INT32"}, "T": {"type": "DT_FLOAT"}}}, {"name": "StatefulPartitionedCall/residual_projection/Tensordot/GatherV2_1", "op": "GatherV2", "input": ["StatefulPartitionedCall/residual_projection/Tensordot/Shape", "StatefulPartitionedCall/residual_projection/Tensordot/axes", "StatefulPartitionedCall/residual_projection/Tensordot/GatherV2_1/axis"], "attr": {"batch_dims": {"i": "0"}, "Taxis": {"type": "DT_INT32"}, "Tindices": {"type": "DT_INT32"}, "Tparams": {"type": "DT_INT32"}}}, {"name": "StatefulPartitionedCall/residual_projection/Tensordot/GatherV2", "op": "GatherV2", "input": ["StatefulPartitionedCall/residual_projection/Tensordot/Shape", "StatefulPartitionedCall/residual_projection/Tensordot/free", "StatefulPartitionedCall/residual_projection/Tensordot/GatherV2/axis"], "attr": {"Taxis": {"type": "DT_INT32"}, "Tindices": {"type": "DT_INT32"}, "batch_dims": {"i": "0"}, "Tparams": {"type": "DT_INT32"}}}, {"name": "StatefulPartitionedCall/residual_projection/Tensordot/Prod_1", "op": "Prod", "input": ["StatefulPartitionedCall/residual_projection/Tensordot/GatherV2_1", "StatefulPartitionedCall/residual_projection/Tensordot/Const_1"], "attr": {"T": {"type": "DT_INT32"}, "keep_dims": {"b": false}, "Tidx": {"type": "DT_INT32"}}}, {"name": "StatefulPartitionedCall/residual_projection/Tensordot/Prod", "op": "Prod", "input": ["StatefulPartitionedCall/residual_projection/Tensordot/GatherV2", "StatefulPartitionedCall/residual_projection/Tensordot/Const"], "attr": {"Tidx": {"type": "DT_INT32"}, "T": {"type": "DT_INT32"}, "keep_dims": {"b": false}}}, {"name": "StatefulPartitionedCall/residual_projection/Tensordot/concat_1", "op": "ConcatV2", "input": ["StatefulPartitionedCall/residual_projection/Tensordot/GatherV2", "StatefulPartitionedCall/residual_projection/Tensordot/Const_2", "StatefulPartitionedCall/residual_projection/Tensordot/concat_1/axis"], "attr": {"T": {"type": "DT_INT32"}, "N": {"i": "2"}, "Tidx": {"type": "DT_INT32"}}}, {"name": "StatefulPartitionedCall/residual_projection/Tensordot/stack", "op": "Pack", "input": ["StatefulPartitionedCall/residual_projection/Tensordot/Prod", "StatefulPartitionedCall/residual_projection/Tensordot/Prod_1"], "attr": {"axis": {"i": "0"}, "N": {"i": "2"}, "T": {"type": "DT_INT32"}}}, {"name": "StatefulPartitionedCall/residual_projection/Tensordot/Reshape", "op": "Reshape", "input": ["StatefulPartitionedCall/post_net/tf_tacotron_conv_batch_norm_9/batch_norm_._4/batchnorm/add_1", "StatefulPartitionedCall/residual_projection/Tensordot/stack"], "attr": {"T": {"type": "DT_FLOAT"}, "Tshape": {"type": "DT_INT32"}}}, {"name": "StatefulPartitionedCall/residual_projection/Tensordot/MatMul", "op": "MatMul", "input": ["StatefulPartitionedCall/residual_projection/Tensordot/Reshape", "StatefulPartitionedCall/residual_projection/Tensordot/ReadVariableOp"], "device": "/device:CPU:0", "attr": {"T": {"type": "DT_FLOAT"}, "transpose_b": {"b": false}, "transpose_a": {"b": false}}}, {"name": "StatefulPartitionedCall/residual_projection/Tensordot", "op": "Reshape", "input": ["StatefulPartitionedCall/residual_projection/Tensordot/MatMul", "StatefulPartitionedCall/residual_projection/Tensordot/concat_1"], "attr": {"T": {"type": "DT_FLOAT"}, "Tshape": {"type": "DT_INT32"}}}, {"name": "StatefulPartitionedCall/residual_projection/BiasAdd", "op": "BiasAdd", "input": ["StatefulPartitionedCall/residual_projection/Tensordot", "StatefulPartitionedCall/residual_projection/BiasAdd/ReadVariableOp"], "attr": {"data_format": {"s": "TkhXQw=="}, "T": {"type": "DT_FLOAT"}}}, {"name": "StatefulPartitionedCall/add", "op": "AddV2", "input": ["StatefulPartitionedCall/Reshape", "StatefulPartitionedCall/residual_projection/BiasAdd"], "attr": {"T": {"type": "DT_FLOAT"}}}, {"name": "Identity_1", "op": "Identity", "input": ["StatefulPartitionedCall/add"], "attr": {"T": {"type": "DT_FLOAT"}}}], "library": {"function": [{"signature": {"name": "__inference_while_body_9880_11473", "inputArg": [{"name": "while_while_loop_counter", "type": "DT_INT32"}, {"name": "while_while_maximum_iterations", "type": "DT_INT32"}, {"name": "while_placeholder", "type": "DT_INT32"}, {"name": "while_placeholder_1", "type": "DT_VARIANT"}, {"name": "while_placeholder_2", "type": "DT_FLOAT"}, {"name": "while_placeholder_3", "type": "DT_FLOAT"}, {"name": "while_placeholder_4", "type": "DT_FLOAT"}, {"name": "while_strided_slice_0", "type": "DT_INT32"}, {"name": "while_tensorarrayv2read_tensorlistgetitem_tensorarrayunstack_tensorlistfromtensor_0", "type": "DT_VARIANT"}, {"name": "while_tensorarrayv2read_1_tensorlistgetitem_tensorarrayunstack_1_tensorlistfromtensor_0", "type": "DT_VARIANT"}, {"name": "while_matmul_kernel_0", "type": "DT_FLOAT"}, {"name": "while_matmul_1_recurrent_kernel_0", "type": "DT_FLOAT"}, {"name": "while_biasadd_bias_0", "type": "DT_FLOAT"}, {"name": "while_selectv2_zeros_like_0", "type": "DT_FLOAT"}], "outputArg": [{"name": "while_identity", "type": "DT_INT32"}, {"name": "while_identity_1", "type": "DT_INT32"}, {"name": "while_identity_2", "type": "DT_INT32"}, {"name": "while_identity_3", "type": "DT_VARIANT"}, {"name": "while_identity_4", "type": "DT_FLOAT"}, {"name": "while_identity_5", "type": "DT_FLOAT"}, {"name": "while_identity_6", "type": "DT_FLOAT"}, {"name": "while_strided_slice", "type": "DT_INT32"}, {"name": "while_tensorarrayv2read_tensorlistgetitem_tensorarrayunstack_tensorlistfromtensor", "type": "DT_VARIANT"}, {"name": "while_tensorarrayv2read_1_tensorlistgetitem_tensorarrayunstack_1_tensorlistfromtensor", "type": "DT_VARIANT"}, {"name": "while_matmul_kernel", "type": "DT_FLOAT"}, {"name": "while_matmul_1_recurrent_kernel", "type": "DT_FLOAT"}, {"name": "while_biasadd_bias", "type": "DT_FLOAT"}, {"name": "while_selectv2_zeros_like", "type": "DT_FLOAT"}]}, "nodeDef": [{"name": "__inference_while_body_9880_11473/while/add_2/y", "op": "Const", "attr": {"dtype": {"type": "DT_INT32"}, "value": {"tensor": {"dtype": "DT_INT32", "tensorShape": {}}}}}, {"name": "__inference_while_body_9880_11473/while/TensorArrayV2Read_1/TensorListGetItem/element_shape", "op": "Const", "attr": {"value": {"tensor": {"dtype": "DT_INT32", "tensorShape": {"dim": [{"size": "2"}]}}}, "dtype": {"type": "DT_INT32"}}}, {"name": "__inference_while_body_9880_11473/while/split/split_dim", "op": "Const", "attr": {"dtype": {"type": "DT_INT32"}, "value": {"tensor": {"dtype": "DT_INT32", "tensorShape": {}}}}}, {"name": "__inference_while_body_9880_11473/while/TensorArrayV2Read/TensorListGetItem/element_shape", "op": "Const", "attr": {"value": {"tensor": {"dtype": "DT_INT32", "tensorShape": {"dim": [{"size": "2"}]}}}, "dtype": {"type": "DT_INT32"}}}, {"name": "__inference_while_body_9880_11473/while/add_3/y", "op": "Const", "attr": {"value": {"tensor": {"dtype": "DT_INT32", "tensorShape": {}}}, "dtype": {"type": "DT_INT32"}}}, {"name": "while/MatMul_1", "op": "MatMul", "input": ["while_placeholder_3", "while_matmul_1_recurrent_kernel_0"], "attr": {"T": {"type": "DT_FLOAT"}, "transpose_a": {"b": false}, "transpose_b": {"b": false}}}, {"name": "while/add_2", "op": "AddV2", "input": ["while_placeholder", "__inference_while_body_9880_11473/while/add_2/y:output:0"], "attr": {"T": {"type": "DT_INT32"}}}, {"name": "while/TensorArrayV2Read_1/TensorListGetItem", "op": "TensorListGetItem", "input": ["while_tensorarrayv2read_1_tensorlistgetitem_tensorarrayunstack_1_tensorlistfromtensor_0", "while_placeholder", "__inference_while_body_9880_11473/while/TensorArrayV2Read_1/TensorListGetItem/element_shape:output:0"], "attr": {"element_dtype": {"type": "DT_BOOL"}}}, {"name": "while/TensorArrayV2Read/TensorListGetItem", "op": "TensorListGetItem", "input": ["while_tensorarrayv2read_tensorlistgetitem_tensorarrayunstack_tensorlistfromtensor_0", "while_placeholder", "__inference_while_body_9880_11473/while/TensorArrayV2Read/TensorListGetItem/element_shape:output:0"], "attr": {"element_dtype": {"type": "DT_FLOAT"}}}, {"name": "while/add_3", "op": "AddV2", "input": ["while_while_loop_counter", "__inference_while_body_9880_11473/while/add_3/y:output:0"], "attr": {"T": {"type": "DT_INT32"}}}, {"name": "while/MatMul", "op": "MatMul", "input": ["while/TensorArrayV2Read/TensorListGetItem:item:0", "while_matmul_kernel_0"], "attr": {"transpose_a": {"b": false}, "T": {"type": "DT_FLOAT"}, "transpose_b": {"b": false}}}, {"name": "while/add", "op": "AddV2", "input": ["while/MatMul:product:0", "while/MatMul_1:product:0"], "attr": {"T": {"type": "DT_FLOAT"}}}, {"name": "while/BiasAdd", "op": "BiasAdd", "input": ["while/add:z:0", "while_biasadd_bias_0"], "attr": {"data_format": {"s": "TkhXQw=="}, "T": {"type": "DT_FLOAT"}}}, {"name": "while/split", "op": "Split", "input": ["__inference_while_body_9880_11473/while/split/split_dim:output:0", "while/BiasAdd:output:0"], "attr": {"num_split": {"i": "4"}, "T": {"type": "DT_FLOAT"}}}, {"name": "while/Sigmoid", "op": "Sigmoid", "input": ["while/split:output:0"], "attr": {"T": {"type": "DT_FLOAT"}}}, {"name": "while/Sigmoid_1", "op": "Sigmoid", "input": ["while/split:output:1"], "attr": {"T": {"type": "DT_FLOAT"}}}, {"name": "while/Tanh", "op": "Tanh", "input": ["while/split:output:2"], "attr": {"T": {"type": "DT_FLOAT"}}}, {"name": "while/Sigmoid_2", "op": "Sigmoid", "input": ["while/split:output:3"], "attr": {"T": {"type": "DT_FLOAT"}}}, {"name": "while/mul", "op": "Mul", "input": ["while/Sigmoid_1:y:0", "while_placeholder_4"], "attr": {"T": {"type": "DT_FLOAT"}}}, {"name": "while/mul_1", "op": "Mul", "input": ["while/Sigmoid:y:0", "while/Tanh:y:0"], "attr": {"T": {"type": "DT_FLOAT"}}}, {"name": "while/add_1", "op": "AddV2", "input": ["while/mul:z:0", "while/mul_1:z:0"], "attr": {"T": {"type": "DT_FLOAT"}}}, {"name": "while/Tanh_1", "op": "Tanh", "input": ["while/add_1:z:0"], "attr": {"T": {"type": "DT_FLOAT"}}}, {"name": "while/SelectV2_2", "op": "SelectV2", "input": ["while/TensorArrayV2Read_1/TensorListGetItem:item:0", "while/add_1:z:0", "while_placeholder_4"], "attr": {"T": {"type": "DT_FLOAT"}}}, {"name": "while/mul_2", "op": "Mul", "input": ["while/Sigmoid_2:y:0", "while/Tanh_1:y:0"], "attr": {"T": {"type": "DT_FLOAT"}}}, {"name": "while/SelectV2", "op": "SelectV2", "input": ["while/TensorArrayV2Read_1/TensorListGetItem:item:0", "while/mul_2:z:0", "while_selectv2_zeros_like_0"], "attr": {"T": {"type": "DT_FLOAT"}}}, {"name": "while/SelectV2_1", "op": "SelectV2", "input": ["while/TensorArrayV2Read_1/TensorListGetItem:item:0", "while/mul_2:z:0", "while_placeholder_3"], "attr": {"T": {"type": "DT_FLOAT"}}}, {"name": "while/TensorArrayV2Write/TensorListSetItem", "op": "TensorListSetItem", "input": ["while_placeholder_1", "while_placeholder", "while/SelectV2:output:0"], "attr": {"element_dtype": {"type": "DT_FLOAT"}}}], "ret": {"while_identity": "while/add_3:z:0", "while_matmul_1_recurrent_kernel": "while_matmul_1_recurrent_kernel_0", "while_selectv2_zeros_like": "while_selectv2_zeros_like_0", "while_identity_1": "while_while_maximum_iterations", "while_strided_slice": "while_strided_slice_0", "while_identity_5": "while/SelectV2_1:output:0", "while_identity_6": "while/SelectV2_2:output:0", "while_tensorarrayv2read_tensorlistgetitem_tensorarrayunstack_tensorlistfromtensor": "while_tensorarrayv2read_tensorlistgetitem_tensorarrayunstack_tensorlistfromtensor_0", "while_tensorarrayv2read_1_tensorlistgetitem_tensorarrayunstack_1_tensorlistfromtensor": "while_tensorarrayv2read_1_tensorlistgetitem_tensorarrayunstack_1_tensorlistfromtensor_0", "while_identity_4": "while/SelectV2:output:0", "while_identity_2": "while/add_2:z:0", "while_matmul_kernel": "while_matmul_kernel_0", "while_identity_3": "while/TensorArrayV2Write/TensorListSetItem:output_handle:0", "while_biasadd_bias": "while_biasadd_bias_0"}, "attr": {"_construction_context": {"s": "a0VhZ2VyUnVudGltZQ=="}}, "argAttr": {"1": {"attr": {"_output_shapes": {"list": {"shape": [{}]}}}}, "12": {"attr": {"_output_shapes": {"list": {"shape": [{"dim": [{"size": "1024"}]}]}}}}, "11": {"attr": {"_output_shapes": {"list": {"shape": [{"dim": [{"size": "256"}, {"size": "1024"}]}]}}}}, "0": {"attr": {"_output_shapes": {"list": {"shape": [{}]}}}}, "5": {"attr": {"_output_shapes": {"list": {"shape": [{"dim": [{"size": "-1"}, {"size": "256"}]}]}}}}, "10": {"attr": {"_output_shapes": {"list": {"shape": [{"dim": [{"size": "512"}, {"size": "1024"}]}]}}}}, "4": {"attr": {"_output_shapes": {"list": {"shape": [{"dim": [{"size": "-1"}, {"size": "256"}]}]}}}}, "3": {"attr": {"_output_shapes": {"list": {"shape": [{}]}}}}, "2": {"attr": {"_output_shapes": {"list": {"shape": [{}]}}}}, "7": {"attr": {"_output_shapes": {"list": {"shape": [{}]}}}}, "9": {"attr": {"_output_shapes": {"list": {"shape": [{}]}}}}, "6": {"attr": {"_output_shapes": {"list": {"shape": [{"dim": [{"size": "-1"}, {"size": "256"}]}]}}}}, "8": {"attr": {"_output_shapes": {"list": {"shape": [{}]}}}}, "13": {"attr": {"_output_shapes": {"list": {"shape": [{"dim": [{"size": "-1"}, {"size": "256"}]}]}}}}}}, {"signature": {"name": "__inference_decoder_while_TensorArrayV2Write_2_cond_true_13715_20111", "inputArg": [{"name": "decoder_while_tensorarrayv2write_2_cond_add_decoder_while_placeholder", "type": "DT_INT32"}, {"name": "decoder_while_tensorarrayv2write_2_cond_tensorlistresize_decoder_while_placeholder_3", "type": "DT_VARIANT"}], "outputArg": [{"name": "decoder_while_tensorarrayv2write_2_cond_identity", "type": "DT_VARIANT"}]}, "nodeDef": [{"name": "__inference_decoder_while_TensorArrayV2Write_2_cond_true_13715_20111/decoder/while/TensorArrayV2Write_2/cond/add/y", "op": "Const", "attr": {"dtype": {"type": "DT_INT32"}, "value": {"tensor": {"dtype": "DT_INT32", "tensorShape": {}}}}}, {"name": "decoder/while/TensorArrayV2Write_2/cond/add", "op": "AddV2", "input": ["decoder_while_tensorarrayv2write_2_cond_add_decoder_while_placeholder", "__inference_decoder_while_TensorArrayV2Write_2_cond_true_13715_20111/decoder/while/TensorArrayV2Write_2/cond/add/y:output:0"], "attr": {"T": {"type": "DT_INT32"}}}, {"name": "decoder/while/TensorArrayV2Write_2/cond/TensorListResize", "op": "TensorListResize", "input": ["decoder_while_tensorarrayv2write_2_cond_tensorlistresize_decoder_while_placeholder_3", "decoder/while/TensorArrayV2Write_2/cond/add:z:0"]}], "ret": {"decoder_while_tensorarrayv2write_2_cond_identity": "decoder/while/TensorArrayV2Write_2/cond/TensorListResize:output_handle:0"}, "attr": {"_construction_context": {"s": "a0VhZ2VyUnVudGltZQ=="}}, "argAttr": {"1": {"attr": {"_output_shapes": {"list": {"shape": [{}]}}}}, "0": {"attr": {"_output_shapes": {"list": {"shape": [{}]}}}}}}, {"signature": {"name": "__inference_decoder_while_TensorArrayV2Write_cond_true_13679_10419", "inputArg": [{"name": "decoder_while_tensorarrayv2write_cond_add_decoder_while_placeholder", "type": "DT_INT32"}, {"name": "decoder_while_tensorarrayv2write_cond_tensorlistresize_decoder_while_placeholder_1", "type": "DT_VARIANT"}], "outputArg": [{"name": "decoder_while_tensorarrayv2write_cond_identity", "type": "DT_VARIANT"}]}, "nodeDef": [{"name": "__inference_decoder_while_TensorArrayV2Write_cond_true_13679_10419/decoder/while/TensorArrayV2Write/cond/add/y", "op": "Const", "attr": {"value": {"tensor": {"dtype": "DT_INT32", "tensorShape": {}}}, "dtype": {"type": "DT_INT32"}}}, {"name": "decoder/while/TensorArrayV2Write/cond/add", "op": "AddV2", "input": ["decoder_while_tensorarrayv2write_cond_add_decoder_while_placeholder", "__inference_decoder_while_TensorArrayV2Write_cond_true_13679_10419/decoder/while/TensorArrayV2Write/cond/add/y:output:0"], "attr": {"T": {"type": "DT_INT32"}}}, {"name": "decoder/while/TensorArrayV2Write/cond/TensorListResize", "op": "TensorListResize", "input": ["decoder_while_tensorarrayv2write_cond_tensorlistresize_decoder_while_placeholder_1", "decoder/while/TensorArrayV2Write/cond/add:z:0"]}], "ret": {"decoder_while_tensorarrayv2write_cond_identity": "decoder/while/TensorArrayV2Write/cond/TensorListResize:output_handle:0"}, "attr": {"_construction_context": {"s": "a0VhZ2VyUnVudGltZQ=="}}, "argAttr": {"1": {"attr": {"_output_shapes": {"list": {"shape": [{}]}}}}, "0": {"attr": {"_output_shapes": {"list": {"shape": [{}]}}}}}}, {"signature": {"name": "__inference_decoder_while_body_13385_frozen_26231", "inputArg": [{"name": "decoder_while_decoder_while_loop_counter", "type": "DT_INT32"}, {"name": "decoder_while_decoder_maximum_iterations", "type": "DT_INT32"}, {"name": "decoder_while_placeholder", "type": "DT_INT32"}, {"name": "decoder_while_placeholder_1", "type": "DT_VARIANT"}, {"name": "decoder_while_placeholder_2", "type": "DT_VARIANT"}, {"name": "decoder_while_placeholder_3", "type": "DT_VARIANT"}, {"name": "decoder_while_placeholder_4", "type": "DT_FLOAT"}, {"name": "decoder_while_placeholder_5", "type": "DT_FLOAT"}, {"name": "decoder_while_placeholder_6", "type": "DT_FLOAT"}, {"name": "decoder_while_placeholder_7", "type": "DT_FLOAT"}, {"name": "decoder_while_placeholder_8", "type": "DT_FLOAT"}, {"name": "decoder_while_placeholder_9", "type": "DT_INT32"}, {"name": "decoder_while_placeholder_10", "type": "DT_FLOAT"}, {"name": "decoder_while_placeholder_11", "type": "DT_VARIANT"}, {"name": "decoder_while_placeholder_12", "type": "DT_INT32"}, {"name": "decoder_while_placeholder_13", "type": "DT_FLOAT"}, {"name": "decoder_while_placeholder_14", "type": "DT_BOOL"}, {"name": "decoder_while_placeholder_15", "type": "DT_INT32"}, {"name": "decoder_while_decoder_cell_prenet_dense___0_matmul_readvariableop_resource_0", "type": "DT_FLOAT"}, {"name": "decoder_while_decoder_cell_prenet_dense___0_biasadd_readvariableop_resource_0", "type": "DT_FLOAT"}, {"name": "decoder_while_decoder_cell_prenet_dense___1_matmul_readvariableop_resource_0", "type": "DT_FLOAT"}, {"name": "decoder_while_decoder_cell_prenet_dense___1_biasadd_readvariableop_resource_0", "type": "DT_FLOAT"}, {"name": "decoder_while_decoder_cell_attention_lstm_cell_matmul_readvariableop_resource_0", "type": "DT_FLOAT"}, {"name": "decoder_while_decoder_cell_attention_lstm_cell_matmul_1_readvariableop_resource_0", "type": "DT_FLOAT"}, {"name": "decoder_while_decoder_cell_attention_lstm_cell_biasadd_readvariableop_resource_0", "type": "DT_FLOAT"}, {"name": "decoder_while_decoder_cell_query_layer_matmul_readvariableop_resource_0", "type": "DT_FLOAT"}, {"name": "decoder_while_decoder_cell_location_conv_conv1d_expanddims_1_readvariableop_resource_0", "type": "DT_FLOAT"}, {"name": "decoder_while_decoder_cell_location_layer_tensordot_readvariableop_resource_0", "type": "DT_FLOAT"}, {"name": "decoder_while_decoder_cell_add_locationsensitiveattention_memory_layer_tensordot_0", "type": "DT_FLOAT"}, {"name": "decoder_while_decoder_cell_scores_attention_tensordot_readvariableop_resource_0", "type": "DT_FLOAT"}, {"name": "decoder_while_decoder_cell_scores_attention_biasadd_readvariableop_resource_0", "type": "DT_FLOAT"}, {"name": "decoder_while_decoder_cell_assert_positive_assert_less_less_input_lengths_0", "type": "DT_INT32"}, {"name": "decoder_while_decoder_cell_mul_1_locationsensitiveattention_mul_0", "type": "DT_FLOAT"}, {"name": "decoder_while_decoder_cell_decoder_lstms_lstm_cell___0_matmul_readvariableop_resource_0", "type": "DT_FLOAT"}, {"name": "decoder_while_decoder_cell_decoder_lstms_lstm_cell___0_matmul_1_readvariableop_resource_0", "type": "DT_FLOAT"}, {"name": "decoder_while_decoder_cell_decoder_lstms_lstm_cell___0_biasadd_readvariableop_resource_0", "type": "DT_FLOAT"}, {"name": "decoder_while_decoder_cell_frame_projection_matmul_readvariableop_resource_0", "type": "DT_FLOAT"}, {"name": "decoder_while_decoder_cell_frame_projection_biasadd_readvariableop_resource_0", "type": "DT_FLOAT"}, {"name": "decoder_while_decoder_cell_stop_projection_matmul_readvariableop_resource_0", "type": "DT_FLOAT"}, {"name": "decoder_while_decoder_cell_stop_projection_biasadd_readvariableop_resource_0", "type": "DT_FLOAT"}, {"name": "decoder_while_tile_multiples_strided_slice_0", "type": "DT_INT32"}], "outputArg": [{"name": "decoder_while_identity", "type": "DT_INT32"}, {"name": "decoder_while_identity_1", "type": "DT_INT32"}, {"name": "decoder_while_identity_2", "type": "DT_INT32"}, {"name": "decoder_while_identity_3", "type": "DT_VARIANT"}, {"name": "decoder_while_identity_4", "type": "DT_VARIANT"}, {"name": "decoder_while_identity_5", "type": "DT_VARIANT"}, {"name": "decoder_while_identity_6", "type": "DT_FLOAT"}, {"name": "decoder_while_identity_7", "type": "DT_FLOAT"}, {"name": "decoder_while_identity_8", "type": "DT_FLOAT"}, {"name": "decoder_while_identity_9", "type": "DT_FLOAT"}, {"name": "decoder_while_identity_10", "type": "DT_FLOAT"}, {"name": "decoder_while_identity_11", "type": "DT_INT32"}, {"name": "decoder_while_identity_12", "type": "DT_FLOAT"}, {"name": "decoder_while_identity_13", "type": "DT_VARIANT"}, {"name": "decoder_while_identity_14", "type": "DT_INT32"}, {"name": "decoder_while_identity_15", "type": "DT_FLOAT"}, {"name": "decoder_while_identity_16", "type": "DT_BOOL"}, {"name": "decoder_while_identity_17", "type": "DT_INT32"}, {"name": "decoder_while_decoder_cell_prenet_dense___0_matmul_readvariableop_resource", "type": "DT_FLOAT"}, {"name": "decoder_while_decoder_cell_prenet_dense___0_biasadd_readvariableop_resource", "type": "DT_FLOAT"}, {"name": "decoder_while_decoder_cell_prenet_dense___1_matmul_readvariableop_resource", "type": "DT_FLOAT"}, {"name": "decoder_while_decoder_cell_prenet_dense___1_biasadd_readvariableop_resource", "type": "DT_FLOAT"}, {"name": "decoder_while_decoder_cell_attention_lstm_cell_matmul_readvariableop_resource", "type": "DT_FLOAT"}, {"name": "decoder_while_decoder_cell_attention_lstm_cell_matmul_1_readvariableop_resource", "type": "DT_FLOAT"}, {"name": "decoder_while_decoder_cell_attention_lstm_cell_biasadd_readvariableop_resource", "type": "DT_FLOAT"}, {"name": "decoder_while_decoder_cell_query_layer_matmul_readvariableop_resource", "type": "DT_FLOAT"}, {"name": "decoder_while_decoder_cell_location_conv_conv1d_expanddims_1_readvariableop_resource", "type": "DT_FLOAT"}, {"name": "decoder_while_decoder_cell_location_layer_tensordot_readvariableop_resource", "type": "DT_FLOAT"}, {"name": "decoder_while_decoder_cell_add_locationsensitiveattention_memory_layer_tensordot", "type": "DT_FLOAT"}, …
2"}, "value": {"tensor": {"dtype": "DT_INT32", "tensorShape": {}}}}}, {"name": "while/MatMul_1", "op": "MatMul", "input": ["while_placeholder_3", "while_matmul_1_recurrent_kernel_0"], "attr": {"transpose_a": {"b": false}, "transpose_b": {"b": false}, "T": {"type": "DT_FLOAT"}}}, {"name": "while/add_2", "op": "AddV2", "input": ["while_placeholder", "__inference_while_body_11580_13918/while/add_2/y:output:0"], "attr": {"T": {"type": "DT_INT32"}}}, {"name": "while/TensorArrayV2Read_1/TensorListGetItem", "op": "TensorListGetItem", "input": ["while_tensorarrayv2read_1_tensorlistgetitem_tensorarrayunstack_1_tensorlistfromtensor_0", "while_placeholder", "__inference_while_body_11580_13918/while/TensorArrayV2Read_1/TensorListGetItem/element_shape:output:0"], "attr": {"element_dtype": {"type": "DT_BOOL"}}}, {"name": "while/TensorArrayV2Read/TensorListGetItem", "op": "TensorListGetItem", "input": ["while_tensorarrayv2read_tensorlistgetitem_tensorarrayunstack_tensorlistfromtensor_0", "while_placeholder", "__inference_while_body_11580_13918/while/TensorArrayV2Read/TensorListGetItem/element_shape:output:0"], "attr": {"element_dtype": {"type": "DT_FLOAT"}}}, {"name": "while/add_3", "op": "AddV2", "input": ["while_while_loop_counter", "__inference_while_body_11580_13918/while/add_3/y:output:0"], "attr": {"T": {"type": "DT_INT32"}}}, {"name": "while/MatMul", "op": "MatMul", "input": ["while/TensorArrayV2Read/TensorListGetItem:item:0", "while_matmul_kernel_0"], "attr": {"transpose_a": {"b": false}, "T": {"type": "DT_FLOAT"}, "transpose_b": {"b": false}}}, {"name": "while/add", "op": "AddV2", "input": ["while/MatMul:product:0", "while/MatMul_1:product:0"], "attr": {"T": {"type": "DT_FLOAT"}}}, {"name": "while/BiasAdd", "op": "BiasAdd", "input": ["while/add:z:0", "while_biasadd_bias_0"], "attr": {"T": {"type": "DT_FLOAT"}, "data_format": {"s": "TkhXQw=="}}}, {"name": "while/split", "op": "Split", "input": ["__inference_while_body_11580_13918/while/split/split_dim:output:0", "while/BiasAdd:output:0"], "attr": {"T": {"type": "DT_FLOAT"}, "num_split": {"i": "4"}}}, {"name": "while/Sigmoid", "op": "Sigmoid", "input": ["while/split:output:0"], "attr": {"T": {"type": "DT_FLOAT"}}}, {"name": "while/Sigmoid_1", "op": "Sigmoid", "input": ["while/split:output:1"], "attr": {"T": {"type": "DT_FLOAT"}}}, {"name": "while/Tanh", "op": "Tanh", "input": ["while/split:output:2"], "attr": {"T": {"type": "DT_FLOAT"}}}, {"name": "while/Sigmoid_2", "op": "Sigmoid", "input": ["while/split:output:3"], "attr": {"T": {"type": "DT_FLOAT"}}}, {"name": "while/mul", "op": "Mul", "input": ["while/Sigmoid_1:y:0", "while_placeholder_4"], "attr": {"T": {"type": "DT_FLOAT"}}}, {"name": "while/mul_1", "op": "Mul", "input": ["while/Sigmoid:y:0", "while/Tanh:y:0"], "attr": {"T": {"type": "DT_FLOAT"}}}, {"name": "while/add_1", "op": "AddV2", "input": ["while/mul:z:0", "while/mul_1:z:0"], "attr": {"T": {"type": "DT_FLOAT"}}}, {"name": "while/Tanh_1", "op": "Tanh", "input": ["while/add_1:z:0"], "attr": {"T": {"type": "DT_FLOAT"}}}, {"name": "while/SelectV2_2", "op": "SelectV2", "input": ["while/TensorArrayV2Read_1/TensorListGetItem:item:0", "while/add_1:z:0", "while_placeholder_4"], "attr": {"T": {"type": "DT_FLOAT"}}}, {"name": "while/mul_2", "op": "Mul", "input": ["while/Sigmoid_2:y:0", "while/Tanh_1:y:0"], "attr": {"T": {"type": "DT_FLOAT"}}}, {"name": "while/SelectV2", "op": "SelectV2", "input": ["while/TensorArrayV2Read_1/TensorListGetItem:item:0", "while/mul_2:z:0", "while_selectv2_zeros_like_0"], "attr": {"T": {"type": "DT_FLOAT"}}}, {"name": "while/SelectV2_1", "op": "SelectV2", "input": ["while/TensorArrayV2Read_1/TensorListGetItem:item:0", "while/mul_2:z:0", "while_placeholder_3"], "attr": {"T": {"type": "DT_FLOAT"}}}, {"name": "while/TensorArrayV2Write/TensorListSetItem", "op": "TensorListSetItem", "input": ["while_placeholder_1", "while_placeholder", "while/SelectV2:output:0"], "attr": {"element_dtype": {"type": "DT_FLOAT"}}}], "ret": {"while_strided_slice": "while_strided_slice_0", "while_identity_2": "while/add_2:z:0", "while_selectv2_zeros_like": "while_selectv2_zeros_like_0", "while_tensorarrayv2read_1_tensorlistgetitem_tensorarrayunstack_1_tensorlistfromtensor": "while_tensorarrayv2read_1_tensorlistgetitem_tensorarrayunstack_1_tensorlistfromtensor_0", "while_matmul_1_recurrent_kernel": "while_matmul_1_recurrent_kernel_0", "while_identity_1": "while_while_maximum_iterations", "while_identity_4": "while/SelectV2:output:0", "while_biasadd_bias": "while_biasadd_bias_0", "while_identity": "while/add_3:z:0", "while_identity_5": "while/SelectV2_1:output:0", "while_identity_6": "while/SelectV2_2:output:0", "while_tensorarrayv2read_tensorlistgetitem_tensorarrayunstack_tensorlistfromtensor": "while_tensorarrayv2read_tensorlistgetitem_tensorarrayunstack_tensorlistfromtensor_0", "while_identity_3": "while/TensorArrayV2Write/TensorListSetItem:output_handle:0", "while_matmul_kernel": "while_matmul_kernel_0"}, "attr": {"_construction_context": {"s": "a0VhZ2VyUnVudGltZQ=="}}, "argAttr": {"12": {"attr": {"_output_shapes": {"list": {"shape": [{"dim": [{"size": "1024"}]}]}}}}, "1": {"attr": {"_output_shapes": {"list": {"shape": [{}]}}}}, "6": {"attr": {"_output_shapes": {"list": {"shape": [{"dim": [{"size": "-1"}, {"size": "256"}]}]}}}}, "8": {"attr": {"_output_shapes": {"list": {"shape": [{}]}}}}, "13": {"attr": {"_output_shapes": {"list": {"shape": [{"dim": [{"size": "-1"}, {"size": "256"}]}]}}}}, "2": {"attr": {"_output_shapes": {"list": {"shape": [{}]}}}}, "7": {"attr": {"_output_shapes": {"list": {"shape": [{}]}}}}, "9": {"attr": {"_output_shapes": {"list": {"shape": [{}]}}}}, "3": {"attr": {"_output_shapes": {"list": {"shape": [{}]}}}}, "10": {"attr": {"_output_shapes": {"list": {"shape": [{"dim": [{"size": "512"}, {"size": "1024"}]}]}}}}, "4": {"attr": {"_output_shapes": {"list": {"shape": [{"dim": [{"size": "-1"}, {"size": "256"}]}]}}}}, "11": {"attr": {"_output_shapes": {"list": {"shape": [{"dim": [{"size": "256"}, {"size": "1024"}]}]}}}}, "0": {"attr": {"_output_shapes": {"list": {"shape": [{}]}}}}, "5": {"attr": {"_output_shapes": {"list": {"shape": [{"dim": [{"size": "-1"}, {"size": "256"}]}]}}}}}}, {"signature": {"name": "__inference_decoder_while_TensorArrayV2Write_1_cond_false_13698_16403", "inputArg": [{"name": "decoder_while_tensorarrayv2write_1_cond_placeholder", "type": "DT_INT32"}, {"name": "decoder_while_tensorarrayv2write_1_cond_identity_decoder_while_placeholder_2", "type": "DT_VARIANT"}], "outputArg": [{"name": "decoder_while_tensorarrayv2write_1_cond_identity", "type": "DT_VARIANT"}]}, "ret": {"decoder_while_tensorarrayv2write_1_cond_identity": "decoder_while_tensorarrayv2write_1_cond_identity_decoder_while_placeholder_2"}, "attr": {"_construction_context": {"s": "a0VhZ2VyUnVudGltZQ=="}}, "argAttr": {"1": {"attr": {"_output_shapes": {"list": {"shape": [{}]}}}}, "0": {"attr": {"_output_shapes": {"list": {"shape": [{}]}}}}}}, {"signature": {"name": "__inference_decoder_while_TensorArrayV2Write_1_cond_true_13697_9", "inputArg": [{"name": "decoder_while_tensorarrayv2write_1_cond_add_decoder_while_placeholder", "type": "DT_INT32"}, {"name": "decoder_while_tensorarrayv2write_1_cond_tensorlistresize_decoder_while_placeholder_2", "type": "DT_VARIANT"}], "outputArg": [{"name": "decoder_while_tensorarrayv2write_1_cond_identity", "type": "DT_VARIANT"}]}, "nodeDef": [{"name": "__inference_decoder_while_TensorArrayV2Write_1_cond_true_13697_9/decoder/while/TensorArrayV2Write_1/cond/add/y", "op": "Const", "attr": {"dtype": {"type": "DT_INT32"}, "value": {"tensor": {"dtype": "DT_INT32", "tensorShape": {}}}}}, {"name": "decoder/while/TensorArrayV2Write_1/cond/add", "op": "AddV2", "input": ["decoder_while_tensorarrayv2write_1_cond_add_decoder_while_placeholder", "__inference_decoder_while_TensorArrayV2Write_1_cond_true_13697_9/decoder/while/TensorArrayV2Write_1/cond/add/y:output:0"], "attr": {"T": {"type": "DT_INT32"}}}, {"name": "decoder/while/TensorArrayV2Write_1/cond/TensorListResize", "op": "TensorListResize", "input": ["decoder_while_tensorarrayv2write_1_cond_tensorlistresize_decoder_while_placeholder_2", "decoder/while/TensorArrayV2Write_1/cond/add:z:0"]}], "ret": {"decoder_while_tensorarrayv2write_1_cond_identity": "decoder/while/TensorArrayV2Write_1/cond/TensorListResize:output_handle:0"}, "attr": {"_construction_context": {"s": "a0VhZ2VyUnVudGltZQ=="}}, "argAttr": {"1": {"attr": {"_output_shapes": {"list": {"shape": [{}]}}}}, "0": {"attr": {"_output_shapes": {"list": {"shape": [{}]}}}}}}, {"signature": {"name": "__inference_decoder_while_TensorArrayV2Write_2_cond_false_13716_13695", "inputArg": [{"name": "decoder_while_tensorarrayv2write_2_cond_placeholder", "type": "DT_INT32"}, {"name": "decoder_while_tensorarrayv2write_2_cond_identity_decoder_while_placeholder_3", "type": "DT_VARIANT"}], "outputArg": [{"name": "decoder_while_tensorarrayv2write_2_cond_identity", "type": "DT_VARIANT"}]}, "ret": {"decoder_while_tensorarrayv2write_2_cond_identity": "decoder_while_tensorarrayv2write_2_cond_identity_decoder_while_placeholder_3"}, "attr": {"_construction_context": {"s": "a0VhZ2VyUnVudGltZQ=="}}, "argAttr": {"1": {"attr": {"_output_shapes": {"list": {"shape": [{}]}}}}, "0": {"attr": {"_output_shapes": {"list": {"shape": [{}]}}}}}}, {"signature": {"name": "__inference_while_cond_11579_9010", "inputArg": [{"name": "while_while_loop_counter", "type": "DT_INT32"}, {"name": "while_while_maximum_iterations", "type": "DT_INT32"}, {"name": "while_placeholder", "type": "DT_INT32"}, {"name": "while_placeholder_1", "type": "DT_VARIANT"}, {"name": "while_placeholder_2", "type": "DT_FLOAT"}, {"name": "while_placeholder_3", "type": "DT_FLOAT"}, {"name": "while_placeholder_4", "type": "DT_FLOAT"}, {"name": "while_less_strided_slice", "type": "DT_INT32"}, {"name": "while_while_cond_11579___redundant_placeholder0", "type": "DT_VARIANT"}, {"name": "while_while_cond_11579___redundant_placeholder1", "type": "DT_VARIANT"}, {"name": "while_while_cond_11579___redundant_placeholder2", "type": "DT_FLOAT"}, {"name": "while_while_cond_11579___redundant_placeholder3", "type": "DT_FLOAT"}, {"name": "while_while_cond_11579___redundant_placeholder4", "type": "DT_FLOAT"}, {"name": "while_while_cond_11579___redundant_placeholder5", "type": "DT_FLOAT"}], "outputArg": [{"name": "while_identity", "type": "DT_BOOL"}]}, "nodeDef": [{"name": "while/Less", "op": "Less", "input": ["while_placeholder", "while_less_strided_slice"], "attr": {"T": {"type": "DT_INT32"}}}], "ret": {"while_identity": "while/Less:z:0"}, "attr": {"_construction_context": {"s": "a0VhZ2VyUnVudGltZQ=="}}, "argAttr": {"12": {"attr": {"_output_shapes": {"list": {"shape": [{"unknownRank": true}]}}}}, "9": {"attr": {"_output_shapes": {"list": {"shape": [{"unknownRank": true}]}}}}, "7": {"attr": {"_output_shapes": {"list": {"shape": [{}]}}}}, "8": {"attr": {"_output_shapes": {"list": {"shape": [{"unknownRank": true}]}}}}, "3": {"attr": {"_output_shapes": {"list": {"shape": [{}]}}}}, "6": {"attr": {"_output_shapes": {"list": {"shape": [{"dim": [{"size": "-1"}, {"size": "256"}]}]}}}}, "2": {"attr": {"_output_shapes": {"list": {"shape": [{}]}}}}, "5": {"attr": {"_output_shapes": {"list": {"shape": [{"dim": [{"size": "-1"}, {"size": "256"}]}]}}}}, "11": {"attr": {"_output_shapes": {"list": {"shape": [{"unknownRank": true}]}}}}, "4": {"attr": {"_output_shapes": {"list": {"shape": [{"dim": [{"size": "-1"}, {"size": "256"}]}]}}}}, "1": {"attr": {"_output_shapes": {"list": {"shape": [{}]}}}}, "10": {"attr": {"_output_shapes": {"list": {"shape": [{"unknownRank": true}]}}}}, "13": {"attr": {"_output_shapes": {"list": {"shape": [{"unknownRank": true}]}}}}, "0": {"attr": {"_output_shapes": {"list": {"shape": [{}]}}}}}}, {"signature": {"name": "__inference_while_cond_9879_16421", "inputArg": [{"name": "while_while_loop_counter", "type": "DT_INT32"}, {"name": "while_while_maximum_iterations", "type": "DT_INT32"}, {"name": "while_placeholder", "type": "DT_INT32"}, {"name": "while_placeholder_1", "type": "DT_VARIANT"}, {"name": "while_placeholder_2", "type": "DT_FLOAT"}, {"name": "while_placeholder_3", "type": "DT_FLOAT"}, {"name": "while_placeholder_4", "type": "DT_FLOAT"}, {"name": "while_less_strided_slice", "type": "DT_INT32"}, {"name": "while_while_cond_9879___redundant_placeholder0", "type": "DT_VARIANT"}, {"name": "while_while_cond_9879___redundant_placeholder1", "type": "DT_VARIANT"}, {"name": "while_while_cond_9879___redundant_placeholder2", "type": "DT_FLOAT"}, {"name": "while_while_cond_9879___redundant_placeholder3", "type": "DT_FLOAT"}, {"name": "while_while_cond_9879___redundant_placeholder4", "type": "DT_FLOAT"}, {"name": "while_while_cond_9879___redundant_placeholder5", "type": "DT_FLOAT"}], "outputArg": [{"name": "while_identity", "type": "DT_BOOL"}]}, "nodeDef": [{"name": "while/Less", "op": "Less", "input": ["while_placeholder", "while_less_strided_slice"], "attr": {"T": {"type": "DT_INT32"}}}], "ret": {"while_identity": "while/Less:z:0"}, "attr": {"_construction_context": {"s": "a0VhZ2VyUnVudGltZQ=="}}, "argAttr": {"5": {"attr": {"_output_shapes": {"list": {"shape": [{"dim": [{"size": "-1"}, {"size": "256"}]}]}}}}, "0": {"attr": {"_output_shapes": {"list": {"shape": [{}]}}}}, "11": {"attr": {"_output_shapes": {"list": {"shape": [{"unknownRank": true}]}}}}, "4": {"attr": {"_output_shapes": {"list": {"shape": [{"dim": [{"size": "-1"}, {"size": "256"}]}]}}}}, "10": {"attr": {"_output_shapes": {"list": {"shape": [{"unknownRank": true}]}}}}, "3": {"attr": {"_output_shapes": {"list": {"shape": [{}]}}}}, "9": {"attr": {"_output_shapes": {"list": {"shape": [{"unknownRank": true}]}}}}, "7": {"attr": {"_output_shapes": {"list": {"shape": [{}]}}}}, "13": {"attr": {"_output_shapes": {"list": {"shape": [{"unknownRank": true}]}}}}, "2": {"attr": {"_output_shapes": {"list": {"shape": [{}]}}}}, "8": {"attr": {"_output_shapes": {"list": {"shape": [{"unknownRank": true}]}}}}, "1": {"attr": {"_output_shapes": {"list": {"shape": [{}]}}}}, "6": {"attr": {"_output_shapes": {"list": {"shape": [{"dim": [{"size": "-1"}, {"size": "256"}]}]}}}}, "12": {"attr": {"_output_shapes": {"list": {"shape": [{"unknownRank": true}]}}}}}}, {"signature": {"name": "__inference_decoder_while_TensorArrayV2Write_cond_false_13680_11122", "inputArg": [{"name": "decoder_while_tensorarrayv2write_cond_placeholder", "type": "DT_INT32"}, {"name": "decoder_while_tensorarrayv2write_cond_identity_decoder_while_placeholder_1", "type": "DT_VARIANT"}], "outputArg": [{"name": "decoder_while_tensorarrayv2write_cond_identity", "type": "DT_VARIANT"}]}, "ret": {"decoder_while_tensorarrayv2write_cond_identity": "decoder_while_tensorarrayv2write_cond_identity_decoder_while_placeholder_1"}, "attr": {"_construction_context": {"s": "a0VhZ2VyUnVudGltZQ=="}}, "argAttr": {"1": {"attr": {"_output_shapes": {"list": {"shape": [{}]}}}}, "0": {"attr": {"_output_shapes": {"list": {"shape": [{}]}}}}}}]}, "versions": {"producer": 808, "minConsumer": 12}}, "weightsManifest": [{"paths": ["group1-shard1of31.bin", "group1-shard2of31.bin", "group1-shard3of31.bin", "group1-shard4of31.bin", "group1-shard5of31.bin", "group1-shard6of31.bin", "group1-shard7of31.bin", "group1-shard8of31.bin", "group1-shard9of31.bin", "group1-shard10of31.bin", "group1-shard11of31.bin", "group1-shard12of31.bin", "group1-shard13of31.bin", "group1-shard14of31.bin", "group1-shard15of31.bin", "group1-shard16of31.bin", "group1-shard17of31.bin", "group1-shard18of31.bin", "group1-shard19of31.bin", "group1-shard20of31.bin", "group1-shard21of31.bin", "group1-shard22of31.bin", "group1-shard23of31.bin", "group1-shard24of31.bin", "group1-shard25of31.bin", "group1-shard26of31.bin", "group1-shard27of31.bin", "group1-shard28of31.bin", "group1-shard29of31.bin", "group1-shard30of31.bin", "group1-shard31of31.bin"], "weights": [{"name": "StatefulPartitionedCall/residual_projection/Tensordot/Const", "shape": [1], "dtype": "int32"}, {"name": "StatefulPartitionedCall/residual_projection/Tensordot/axes", "shape": [1], "dtype": "int32"}, {"name": "StatefulPartitionedCall/residual_projection/Tensordot/GatherV2_1/axis", "shape": [], "dtype": "int32"}, {"name": "StatefulPartitionedCall/residual_projection/Tensordot/Const_1", "shape": [1], "dtype": "int32"}, {"name": "StatefulPartitionedCall/residual_projection/Tensordot/ReadVariableOp", "shape": [512, 80], "dtype": "float32"}, {"name": "StatefulPartitionedCall/decoder/TensorArrayV2Stack/TensorListStack/element_shape", "shape": [2], "dtype": "int32"}, {"name": "StatefulPartitionedCall/decoder/concat_3", "shape": [3], "dtype": "int32"}, {"name": "StatefulPartitionedCall/Reshape/shape/1", "shape": [], "dtype": "int32"}, {"name": "StatefulPartitionedCall/Reshape/shape/2", "shape": [], "dtype": "int32"}, {"name": "StatefulPartitionedCall/post_net/tf_tacotron_conv_batch_norm_5/conv_._0/conv1d/ExpandDims/dim", "shape": [], "dtype": "int32"}, {"name": "StatefulPartitionedCall/post_net/tf_tacotron_conv_batch_norm_5/conv_._0/conv1d/ExpandDims_1", "shape": [1, 5, 80, 512], "dtype": "float32"}, {"name": "StatefulPartitionedCall/post_net/tf_tacotron_conv_batch_norm_5/conv_._0/BiasAdd/ReadVariableOp", "shape": [512], "dtype": "float32"}, {"name": "StatefulPartitionedCall/post_net/tf_tacotron_conv_batch_norm_5/batch_norm_._0/batchnorm/mul", "shape": [512], "dtype": "float32"}, {"name": "StatefulPartitionedCall/post_net/tf_tacotron_conv_batch_norm_5/batch_norm_._0/batchnorm/sub", "shape": [512], "dtype": "float32"}, {"name": "StatefulPartitionedCall/post_net/tf_tacotron_conv_batch_norm_6/conv_._1/conv1d/ExpandDims/dim", "shape": [], "dtype": "int32"}, {"name": "StatefulPartitionedCall/post_net/tf_tacotron_conv_batch_norm_6/conv_._1/conv1d/ExpandDims_1", "shape": [1, 5, 512, 512], "dtype": "float32"}, {"name": "StatefulPartitionedCall/post_net/tf_tacotron_conv_batch_norm_6/conv_._1/BiasAdd/ReadVariableOp", "shape": [512], "dtype": "float32"}, {"name": "StatefulPartitionedCall/post_net/tf_tacotron_conv_batch_norm_6/batch_norm_._1/batchnorm/mul", "shape": [512], "dtype": "float32"}, {"name": "StatefulPartitionedCall/post_net/tf_tacotron_conv_batch_norm_6/batch_norm_._1/batchnorm/sub", "shape": [512], "dtype": "float32"}, {"name": "StatefulPartitionedCall/post_net/tf_tacotron_conv_batch_norm_7/conv_._2/conv1d/ExpandDims/dim", "shape": [], "dtype": "int32"}, {"name": "StatefulPartitionedCall/post_net/tf_tacotron_conv_batch_norm_7/conv_._2/conv1d/ExpandDims_1", "shape": [1, 5, 512, 512], "dtype": "float32"}, {"name": "StatefulPartitionedCall/post_net/tf_tacotron_conv_batch_norm_7/conv_._2/BiasAdd/ReadVariableOp", "shape": [512], "dtype": "float32"}, {"name": "StatefulPartitionedCall/post_net/tf_tacotron_conv_batch_norm_7/batch_norm_._2/batchnorm/mul", "shape": [512], "dtype": "float32"}, {"name": "StatefulPartitionedCall/post_net/tf_tacotron_conv_batch_norm_7/batch_norm_._2/batchnorm/sub", "shape": [512], "dtype": "float32"}, {"name": "StatefulPartitionedCall/post_net/tf_tacotron_conv_batch_norm_8/conv_._3/conv1d/ExpandDims/dim", "shape": [], "dtype": "int32"}, {"name": "StatefulPartitionedCall/post_net/tf_tacotron_conv_batch_norm_8/conv_._3/conv1d/ExpandDims_1", "shape": [1, 5, 512, 512], "dtype": "float32"}, {"name": "StatefulPartitionedCall/post_net/tf_tacotron_conv_batch_norm_8/conv_._3/BiasAdd/ReadVariableOp", "shape": [512], "dtype": "float32"}, {"name": "StatefulPartitionedCall/post_net/tf_tacotron_conv_batch_norm_8/batch_norm_._3/batchnorm/mul", "shape": [512], "dtype": "float32"}, {"name": "StatefulPartitionedCall/post_net/tf_tacotron_conv_batch_norm_8/batch_norm_._3/batchnorm/sub", "shape": [512], "dtype": "float32"}, {"name": "StatefulPartitionedCall/post_net/tf_tacotron_conv_batch_norm_9/conv_._4/conv1d/ExpandDims/dim", "shape": [], "dtype": "int32"}, {"name": "StatefulPartitionedCall/post_net/tf_tacotron_conv_batch_norm_9/conv_._4/conv1d/ExpandDims_1", "shape": [1, 5, 512, 512], "dtype": "float32"}, {"name": "StatefulPartitionedCall/post_net/tf_tacotron_conv_batch_norm_9/conv_._4/BiasAdd/ReadVariableOp", "shape": [512], "dtype": "float32"}, {"name": "StatefulPartitionedCall/post_net/tf_tacotron_conv_batch_norm_9/batch_norm_._4/batchnorm/mul", "shape": [512], "dtype": "float32"}, {"name": "StatefulPartitionedCall/post_net/tf_tacotron_conv_batch_norm_9/batch_norm_._4/batchnorm/sub", "shape": [512], "dtype": "float32"}, {"name": "StatefulPartitionedCall/residual_projection/Tensordot/free", "shape": [2], "dtype": "int32"}, {"name": "StatefulPartitionedCall/residual_projection/Tensordot/GatherV2/axis", "shape": [], "dtype": "int32"}, {"name": "StatefulPartitionedCall/residual_projection/Tensordot/Const_2", "shape": [1], "dtype": "int32"}, {"name": "StatefulPartitionedCall/residual_projection/Tensordot/concat_1/axis", "shape": [], "dtype": "int32"}, {"name": "StatefulPartitionedCall/residual_projection/BiasAdd/ReadVariableOp", "shape": [80], "dtype": "float32"}, {"name": "StatefulPartitionedCall/decoder/TensorArrayV2Stack_1/TensorListStack/element_shape", "shape": [2], "dtype": "int32"}, {"name": "StatefulPartitionedCall/decoder/concat_4", "shape": [3], "dtype": "int32"}, {"name": "StatefulPartitionedCall/Reshape_1/shape/1", "shape": [], "dtype": "int32"}, {"name": "StatefulPartitionedCall/decoder/while/loop_counter", "shape": [], "dtype": "int32"}, {"name": "StatefulPartitionedCall/decoder/maximum_iterations", "shape": [], "dtype": "int32"}, {"name": "StatefulPartitionedCall/decoder/Const", "shape": [], "dtype": "int32"}, {"name": "StatefulPartitionedCall/decoder/TensorArrayV2/element_shape", "shape": [2], "dtype": "int32"}, {"name": "StatefulPartitionedCall/decoder/TensorArrayV2/num_elements", "shape": [], "dtype": "int32"}, {"name": "StatefulPartitionedCall/decoder/TensorArrayV2_1/element_shape", "shape": [2], "dtype": "int32"}, {"name": "StatefulPartitionedCall/decoder/TensorArrayV2_1/num_elements", "shape": [], "dtype": "int32"}, {"name": "StatefulPartitionedCall/decoder/TensorArrayV2_2/element_shape", "shape": [], "dtype": "int32"}, {"name": "StatefulPartitionedCall/decoder/TensorArrayV2_2/num_elements", "shape": [], "dtype": "int32"}, {"name": "StatefulPartitionedCall/zeros/packed/1", "shape": [], "dtype": "int32"}, {"name": "StatefulPartitionedCall/zeros/Const", "shape": [], "dtype": "float32"}, {"name": "StatefulPartitionedCall/zeros_1/packed/1", "shape": [], "dtype": "int32"}, {"name": "StatefulPartitionedCall/zeros_1/Const", "shape": [], "dtype": "float32"}, {"name": "StatefulPartitionedCall/zeros_2/packed/1", "shape": [], "dtype": "int32"}, {"name": "StatefulPartitionedCall/zeros_2/Const", "shape": [], "dtype": "float32"}, {"name": "StatefulPartitionedCall/zeros_3/packed/1", "shape": [], "dtype": "int32"}, {"name": "StatefulPartitionedCall/zeros_3/Const", "shape": [], "dtype": "float32"}, {"name": "StatefulPartitionedCall/zeros_4/packed/1", "shape": [], "dtype": "int32"}, {"name": "StatefulPartitionedCall/zeros_4/Const", "shape": [], "dtype": "float32"}, {"name": "StatefulPartitionedCall/zeros_6", "shape": [], "dtype": "int32"}, {"name": "StatefulPartitionedCall/strided_slice_1/stack", "shape": [1], "dtype": "int32"}, {"name": "StatefulPartitionedCall/strided_slice_1/stack_1", "shape": [1], "dtype": "int32"}, {"name": "StatefulPartitionedCall/strided_slice_1/stack_2", "shape": [1], "dtype": "int32"}, {"name": "StatefulPartitionedCall/zeros_5/Const", "shape": [], "dtype": "float32"}, {"name": "StatefulPartitionedCall/TensorArrayV2/element_shape", "shape": [], "dtype": "int32"}, {"name": "StatefulPartitionedCall/TensorArrayV2/num_elements", "shape": [], "dtype": "int32"}, {"name": "StatefulPartitionedCall/zeros_7/Const", "shape": [], "dtype": "int32"}, {"name": "StatefulPartitionedCall/decoder/Tile_1/input", "shape": [1, 1], "dtype": "float32"}, {"name": "StatefulPartitionedCall/decoder/Tile_1/multiples/1", "shape": [], "dtype": "int32"}, {"name": "StatefulPartitionedCall/decoder/Tile/input", "shape": [1], "dtype": "bool"}, {"name": "StatefulPartitionedCall/decoder/zeros_like/Const", "shape": [], "dtype": "int32"}, {"name": "unknown_39", "shape": [80, 256], "dtype": "float32"}, {"name": "unknown_40", "shape": [256], "dtype": "float32"}, {"name": "unknown_41", "shape": [256, 256], "dtype": "float32"}, {"name": "unknown_42", "shape": [256], "dtype": "float32"}, {"name": "unknown_43", "shape": [768, 4096], "dtype": "float32"}, {"name": "unknown_44", "shape": [1024, 4096], "dtype": "float32"}, {"name": "unknown_45", "shape": [4096], "dtype": "float32"}, {"name": "unknown_46", "shape": [1024, 128], "dtype": "float32"}, {"name": "unknown_47", "shape": [31, 1, 32], "dtype": "float32"}, {"name": "unknown_48", "shape": [32, 128], "dtype": "float32"}, {"name": "StatefulPartitionedCall/LocationSensitiveAttention/memory_layer/Tensordot/Const", "shape": [1], "dtype": "int32"}, {"name": "StatefulPartitionedCall/LocationSensitiveAttention/memory_layer/Tensordot/axes", "shape": [1], "dtype": "int32"}, {"name": "StatefulPartitionedCall/LocationSensitiveAttention/memory_layer/Tensordot/GatherV2_1/axis", "shape": [], "dtype": "int32"}, {"name": "StatefulPartitionedCall/LocationSensitiveAttention/memory_layer/Tensordot/Const_1", "shape": [1], "dtype": "int32"}, {"name": "StatefulPartitionedCall/LocationSensitiveAttention/memory_layer/Tensordot/ReadVariableOp", "shape": [512, 128], "dtype": "float32"}, {"name": "StatefulPartitionedCall/LocationSensitiveAttention/memory_layer/Tensordot/free", "shape": [2], "dtype": "int32"}, {"name": "StatefulPartitionedCall/LocationSensitiveAttention/memory_layer/Tensordot/GatherV2/axis", "shape": [], "dtype": "int32"}, {"name": "StatefulPartitionedCall/LocationSensitiveAttention/memory_layer/Tensordot/Const_2", "shape": [1], "dtype": "int32"}, {"name": "StatefulPartitionedCall/LocationSensitiveAttention/memory_layer/Tensordot/concat_1/axis", "shape": [], "dtype": "int32"}, {"name": "unknown_49", "shape": [128, 1], "dtype": "float32"}, {"name": "unknown_50", "shape": [1], "dtype": "float32"}, {"name": "StatefulPartitionedCall/LocationSensitiveAttention/SequenceMask/Const", "shape": [], "dtype": "int32"}, {"name": "StatefulPartitionedCall/LocationSensitiveAttention/strided_slice/stack", "shape": [1], "dtype": "int32"}, {"name": "StatefulPartitionedCall/LocationSensitiveAttention/strided_slice/stack_1", "shape": [1], "dtype": "int32"}, {"name": "StatefulPartitionedCall/LocationSensitiveAttention/strided_slice/stack_2", "shape": [1], "dtype": "int32"}, {"name": "StatefulPartitionedCall/LocationSensitiveAttention/SequenceMask/Const_1", "shape": [], "dtype": "int32"}, {"name": "StatefulPartitionedCall/LocationSensitiveAttention/SequenceMask/ExpandDims/dim", "shape": [], "dtype": "int32"}, {"name": "StatefulPartitionedCall/LocationSensitiveAttention/ones", "shape": [1], "dtype": "int32"}, {"name": "StatefulPartitionedCall/LocationSensitiveAttention/concat/axis", "shape": [], "dtype": "int32"}, {"name": "unknown_51", "shape": [1536, 4096], "dtype": "float32"}, {"name": "unknown_52", "shape": [1024, 4096], "dtype": "float32"}, {"name": "unknown_53", "shape": [4096], "dtype": "float32"}, {"name": "unknown_54", "shape": [1536, 80], "dtype": "float32"}, {"name": "unknown_55", "shape": [80], "dtype": "float32"}, {"name": "unknown_56", "shape": [1104, 1], "dtype": "float32"}, {"name": "unknown_57", "shape": [1], "dtype": "float32"}, {"name": "StatefulPartitionedCall/encoder/bilstm/forward_lstm/PartitionedCall/while/loop_counter", "shape": [], "dtype": "int32"}, {"name": "StatefulPartitionedCall/encoder/bilstm/forward_lstm/PartitionedCall/while/maximum_iterations", "shape": [], "dtype": "int32"}, {"name": "StatefulPartitionedCall/encoder/bilstm/forward_lstm/PartitionedCall/time", "shape": [], "dtype": "int32"}, {"name": "StatefulPartitionedCall/encoder/bilstm/forward_lstm/PartitionedCall/TensorArrayV2_1/element_shape", "shape": [2], "dtype": "int32"}, {"name": "StatefulPartitionedCall/encoder/bilstm/forward_lstm/PartitionedCall/strided_slice/stack", "shape": [1], "dtype": "int32"}, {"name": "StatefulPartitionedCall/encoder/bilstm/forward_lstm/PartitionedCall/strided_slice/stack_1", "shape": [1], "dtype": "int32"}, {"name": "StatefulPartitionedCall/encoder/bilstm/forward_lstm/PartitionedCall/strided_slice/stack_2", "shape": [1], "dtype": "int32"}, {"name": "StatefulPartitionedCall/encoder/bilstm/forward_lstm/PartitionedCall/TensorArrayUnstack/TensorListFromTensor/element_shape", "shape": [2], "dtype": "int32"}, {"name": "StatefulPartitionedCall/encoder/bilstm/forward_lstm/PartitionedCall/ExpandDims/dim", "shape": [], "dtype": "int32"}, {"name": "StatefulPartitionedCall/encoder/bilstm/forward_lstm/PartitionedCall/transpose_1/perm", "shape": [3], "dtype": "int32"}, {"name": "StatefulPartitionedCall/encoder/bilstm/forward_lstm/PartitionedCall/TensorArrayUnstack_1/TensorListFromTensor/element_shape", "shape": [2], "dtype": "int32"}, {"name": "StatefulPartitionedCall/encoder/bilstm/forward_lstm/zeros_1/packed/1", "shape": [], "dtype": "int32"}, {"name": "StatefulPartitionedCall/encoder/bilstm/forward_lstm/zeros_1/Const", "shape": [], "dtype": "float32"}, {"name": "StatefulPartitionedCall/encoder/bilstm/forward_lstm/PartitionedCall/split/split_dim", "shape": [], "dtype": "int32"}, {"name": "StatefulPartitionedCall/encoder/bilstm/forward_lstm/PartitionedCall/transpose/perm", "shape": [3], "dtype": "int32"}, {"name": "StatefulPartitionedCall/encoder/bilstm/forward_lstm/PartitionedCall/strided_slice_1/stack", "shape": [1], "dtype": "int32"}, {"name": "StatefulPartitionedCall/encoder/bilstm/forward_lstm/PartitionedCall/strided_slice_1/stack_1", "shape": [1], "dtype": "int32"}, {"name": "StatefulPartitionedCall/encoder/bilstm/forward_lstm/PartitionedCall/strided_slice_1/stack_2", "shape": [1], "dtype": "int32"}, {"name": "StatefulPartitionedCall/encoder/bilstm/forward_lstm/Read/ReadVariableOp", "shape": [512, 1024], "dtype": "float32"}, {"name": "StatefulPartitionedCall/encoder/bilstm/forward_lstm/strided_slice/stack", "shape": [1], "dtype": "int32"}, {"name": "StatefulPartitionedCall/encoder/bilstm/forward_lstm/strided_slice/stack_1", "shape": [1], "dtype": "int32"}, {"name": "StatefulPartitionedCall/encoder/bilstm/forward_lstm/strided_slice/stack_2", "shape": [1], "dtype": "int32"}, {"name": "StatefulPartitionedCall/encoder/bilstm/forward_lstm/zeros/packed/1", "shape": [], "dtype": "int32"}, {"name": "StatefulPartitionedCall/encoder/bilstm/forward_lstm/zeros/Const", "shape": [], "dtype": "float32"}, {"name": "StatefulPartitionedCall/encoder/bilstm/forward_lstm/Read_1/ReadVariableOp", "shape": [256, 1024], "dtype": "float32"}, {"name": "StatefulPartitionedCall/encoder/bilstm/forward_lstm/Read_2/ReadVariableOp", "shape": [1024], "dtype": "float32"}, {"name": "StatefulPartitionedCall/encoder/bilstm/forward_lstm/PartitionedCall/TensorArrayV2Stack/TensorListStack/element_shape", "shape": [2], "dtype": "int32"}, {"name": "StatefulPartitionedCall/encoder/bilstm/forward_lstm/PartitionedCall/transpose_2/perm", "shape": [3], "dtype": "int32"}, {"name": "StatefulPartitionedCall/encoder/bilstm/backward_lstm/PartitionedCall/while/loop_counter", "shape": [], "dtype": "int32"}, {"name": "StatefulPartitionedCall/encoder/bilstm/backward_lstm/PartitionedCall/while/maximum_iterations", "shape": [], "dtype": "int32"}, {"name": "StatefulPartitionedCall/encoder/bilstm/backward_lstm/PartitionedCall/time", "shape": [], "dtype": "int32"}, {"name": "StatefulPartitionedCall/encoder/bilstm/backward_lstm/PartitionedCall/TensorArrayV2_1/element_shape", "shape": [2], "dtype": "int32"}, {"name": "StatefulPartitionedCall/encoder/bilstm/backward_lstm/PartitionedCall/strided_slice/stack", "shape": [1], "dtype": "int32"}, {"name": "StatefulPartitionedCall/encoder/bilstm/backward_lstm/PartitionedCall/strided_slice/stack_1", "shape": [1], "dtype": "int32"}, {"name": "StatefulPartitionedCall/encoder/bilstm/backward_lstm/PartitionedCall/strided_slice/stack_2", "shape": [1], "dtype": "int32"}, {"name": "StatefulPartitionedCall/encoder/bilstm/backward_lstm/PartitionedCall/ReverseV2/axis", "shape": [1], "dtype": "int32"}, {"name": "StatefulPartitionedCall/encoder/bilstm/backward_lstm/PartitionedCall/TensorArrayUnstack/TensorListFromTensor/element_shape", "shape": [2], "dtype": "int32"}, {"name": "StatefulPartitionedCall/input_sequence_masks/Const", "shape": [], "dtype": "int32"}, {"name": "StatefulPartitionedCall/Const", "shape": [1], "dtype": "int32"}, {"name": "StatefulPartitionedCall/input_sequence_masks/Const_1", "shape": [], "dtype": "int32"}, {"name": "StatefulPartitionedCall/input_sequence_masks/ExpandDims/dim", "shape": [], "dtype": "int32"}, {"name": "StatefulPartitionedCall/encoder/bilstm/backward_lstm/PartitionedCall/ExpandDims/dim", "shape": [], "dtype": "int32"}, {"name": "StatefulPartitionedCall/encoder/bilstm/backward_lstm/PartitionedCall/transpose_1/perm", "shape": [3], "dtype": "int32"}, {"name": "StatefulPartitionedCall/encoder/bilstm/backward_lstm/PartitionedCall/ReverseV2_1/axis", "shape": [1], "dtype": "int32"}, {"name": "StatefulPartitionedCall/encoder/bilstm/backward_lstm/PartitionedCall/TensorArrayUnstack_1/TensorListFromTensor/element_shape", "shape": [2], "dtype": "int32"}, {"name": "StatefulPartitionedCall/encoder/bilstm/backward_lstm/zeros_1/packed/1", "shape": [], "dtype": "int32"}, {"name": "StatefulPartitionedCall/encoder/bilstm/backward_lstm/zeros_1/Const", "shape": [], "dtype": "float32"}, {"name": "StatefulPartitionedCall/encoder/bilstm/backward_lstm/PartitionedCall/split/split_dim", "shape": [], "dtype": "int32"}, {"name": "StatefulPartitionedCall/encoder/bilstm/backward_lstm/PartitionedCall/transpose/perm", "shape": [3], "dtype": "int32"}, {"name": "StatefulPartitionedCall/encoder/bilstm/backward_lstm/PartitionedCall/strided_slice_1/stack", "shape": [1], "dtype": "int32"}, {"name": "StatefulPartitionedCall/encoder/bilstm/backward_lstm/PartitionedCall/strided_slice_1/stack_1", "shape": [1], "dtype": "int32"}, {"name": "StatefulPartitionedCall/encoder/bilstm/backward_lstm/PartitionedCall/strided_slice_1/stack_2", "shape": [1], "dtype": "int32"}, {"name": "StatefulPartitionedCall/encoder/bilstm/backward_lstm/Read/ReadVariableOp", "shape": [512, 1024], "dtype": "float32"}, {"name": "StatefulPartitionedCall/encoder/embeddings/LayerNorm/batchnorm/ReadVariableOp", "shape": [512], "dtype": "float32"}, {"name": "unknown", "shape": [149, 512], "dtype": "float32"}, {"name": "StatefulPartitionedCall/encoder/embeddings/Gather/axis", "shape": [], "dtype": "int32"}, {"name": "StatefulPartitionedCall/encoder/embeddings/LayerNorm/moments/mean/reduction_indices", "shape": [1], "dtype": "int32"}, {"name": "StatefulPartitionedCall/encoder/embeddings/LayerNorm/moments/variance/reduction_indices", "shape": [1], "dtype": "int32"}, {"name": "StatefulPartitionedCall/encoder/embeddings/LayerNorm/batchnorm/add/y", "shape": [], "dtype": "float32"}, {"name": "StatefulPartitionedCall/encoder/embeddings/LayerNorm/batchnorm/mul/ReadVariableOp", "shape": [512], "dtype": "float32"}, {"name": "StatefulPartitionedCall/encoder/conv_batch_norm/tf_tacotron_conv_batch_norm/conv_._0/conv1d/ExpandDims/dim", "shape": [], "dtype": "int32"}, {"name": "StatefulPartitionedCall/encoder/conv_batch_norm/tf_tacotron_conv_batch_norm/conv_._0/conv1d/ExpandDims_1", "shape": [1, 5, 512, 512], "dtype": "float32"}, {"name": "StatefulPartitionedCall/encoder/conv_batch_norm/tf_tacotron_conv_batch_norm/conv_._0/BiasAdd/ReadVariableOp", "shape": [512], "dtype": "float32"}, {"name": "StatefulPartitionedCall/encoder/conv_batch_norm/tf_tacotron_conv_batch_norm/batch_norm_._0/batchnorm/mul", "shape": [512], "dtype": "float32"}, {"name": "StatefulPartitionedCall/encoder/conv_batch_norm/tf_tacotron_conv_batch_norm/batch_norm_._0/batchnorm/sub", "shape": [512], "dtype": "float32"}, {"name": "StatefulPartitionedCall/encoder/conv_batch_norm/tf_tacotron_conv_batch_norm_1/conv_._1/conv1d/ExpandDims/dim", "shape": [], "dtype": "int32"}, {"name": "StatefulPartitionedCall/encoder/conv_batch_norm/tf_tacotron_conv_batch_norm_1/conv_._1/conv1d/ExpandDims_1", "shape": [1, 5, 512, 512], "dtype": "float32"}, {"name": "StatefulPartitionedCall/encoder/conv_batch_norm/tf_tacotron_conv_batch_norm_1/conv_._1/BiasAdd/ReadVariableOp", "shape": [512], "dtype": "float32"}, {"name": "StatefulPartitionedCall/encoder/conv_batch_norm/tf_tacotron_conv_batch_norm_1/batch_norm_._1/batchnorm/mul", "shape": [512], "dtype": "float32"}, {"name": "StatefulPartitionedCall/encoder/conv_batch_norm/tf_tacotron_conv_batch_norm_1/batch_norm_._1/batchnorm/sub", "shape": [512], "dtype": "float32"}, {"name": "StatefulPartitionedCall/encoder/conv_batch_norm/tf_tacotron_conv_batch_norm_2/conv_._2/conv1d/ExpandDims/dim", "shape": [], "dtype": "int32"}, {"name": "StatefulPartitionedCall/encoder/conv_batch_norm/tf_tacotron_conv_batch_norm_2/conv_._2/conv1d/ExpandDims_1", "shape": [1, 5, 512, 512], "dtype": "float32"}, {"name": "StatefulPartitionedCall/encoder/conv_batch_norm/tf_tacotron_conv_batch_norm_2/conv_._2/BiasAdd/ReadVariableOp", "shape": [512], "dtype": "float32"}, {"name": "StatefulPartitionedCall/encoder/conv_batch_norm/tf_tacotron_conv_batch_norm_2/batch_norm_._2/batchnorm/mul", "shape": [512], "dtype": "float32"}, {"name": "StatefulPartitionedCall/encoder/conv_batch_norm/tf_tacotron_conv_batch_norm_2/batch_norm_._2/batchnorm/sub", "shape": [512], "dtype": "float32"}, {"name": "StatefulPartitionedCall/encoder/conv_batch_norm/tf_tacotron_conv_batch_norm_3/conv_._3/conv1d/ExpandDims/dim", "shape": [], "dtype": "int32"}, {"name": "StatefulPartitionedCall/encoder/conv_batch_norm/tf_tacotron_conv_batch_norm_3/conv_._3/conv1d/ExpandDims_1", "shape": [1, 5, 512, 512], "dtype": "float32"}, {"name": "StatefulPartitionedCall/encoder/conv_batch_norm/tf_tacotron_conv_batch_norm_3/conv_._3/BiasAdd/ReadVariableOp", "shape": [512], "dtype": "float32"}, {"name": "StatefulPartitionedCall/encoder/conv_batch_norm/tf_tacotron_conv_batch_norm_3/batch_norm_._3/batchnorm/mul", "shape": [512], "dtype": "float32"}, {"name": "StatefulPartitionedCall/encoder/conv_batch_norm/tf_tacotron_conv_batch_norm_3/batch_norm_._3/batchnorm/sub", "shape": [512], "dtype": "float32"}, {"name": "StatefulPartitionedCall/encoder/conv_batch_norm/tf_tacotron_conv_batch_norm_4/conv_._4/conv1d/ExpandDims/dim", "shape": [], "dtype": "int32"}, {"name": "StatefulPartitionedCall/encoder/conv_batch_norm/tf_tacotron_conv_batch_norm_4/conv_._4/conv1d/ExpandDims_1", "shape": [1, 5, 512, 512], "dtype": "float32"}, {"name": "StatefulPartitionedCall/encoder/conv_batch_norm/tf_tacotron_conv_batch_norm_4/conv_._4/BiasAdd/ReadVariableOp", "shape": [512], "dtype": "float32"}, {"name": "StatefulPartitionedCall/encoder/conv_batch_norm/tf_tacotron_conv_batch_norm_4/batch_norm_._4/batchnorm/mul", "shape": [512], "dtype": "float32"}, {"name": "StatefulPartitionedCall/encoder/conv_batch_norm/tf_tacotron_conv_batch_norm_4/batch_norm_._4/batchnorm/sub", "shape": [512], "dtype": "float32"}, {"name": "StatefulPartitionedCall/encoder/bilstm/backward_lstm/strided_slice/stack", "shape": [1], "dtype": "int32"}, {"name": "StatefulPartitionedCall/encoder/bilstm/backward_lstm/strided_slice/stack_1", "shape": [1], "dtype": "int32"}, {"name": "StatefulPartitionedCall/encoder/bilstm/backward_lstm/strided_slice/stack_2", "shape": [1], "dtype": "int32"}, {"name": "StatefulPartitionedCall/encoder/bilstm/backward_lstm/zeros/packed/1", "shape": [], "dtype": "int32"}, {"name": "StatefulPartitionedCall/encoder/bilstm/backward_lstm/zeros/Const", "shape": [], "dtype": "float32"}, {"name": "StatefulPartitionedCall/encoder/bilstm/backward_lstm/Read_1/ReadVariableOp", "shape": [256, 1024], "dtype": "float32"}, {"name": "StatefulPartitionedCall/encoder/bilstm/backward_lstm/Read_2/ReadVariableOp", "shape": [1024], "dtype": "float32"}, {"name": "StatefulPartitionedCall/encoder/bilstm/backward_lstm/PartitionedCall/TensorArrayV2Stack/TensorListStack/element_shape", "shape": [2], "dtype": "int32"}, {"name": "StatefulPartitionedCall/encoder/bilstm/backward_lstm/PartitionedCall/transpose_2/perm", "shape": [3], "dtype": "int32"}, {"name": "StatefulPartitionedCall/encoder/bilstm/ReverseV2/axis", "shape": [1], "dtype": "int32"}, {"name": "StatefulPartitionedCall/encoder/bilstm/concat/axis", "shape": [], "dtype": "int32"}, {"name": "StatefulPartitionedCall/strided_slice/stack", "shape": [1], "dtype": "int32"}, {"name": "StatefulPartitionedCall/strided_slice/stack_1", "shape": [1], "dtype": "int32"}, {"name": "StatefulPartitionedCall/strided_slice/stack_2", "shape": [1], "dtype": "int32"}, {"name": "StatefulPartitionedCall/TensorArrayV2Stack/TensorListStack/element_shape", "shape": [2], "dtype": "int32"}, {"name": "StatefulPartitionedCall/transpose/perm", "shape": [3], "dtype": "int32"}, {"name": "ConstantFolding/StatefulPartitionedCall/zeros_7/packed_const_axis", "shape": [], "dtype": "int32"}, {"name": "ConstantFolding/StatefulPartitionedCall/decoder/Tile/multiples_const_axis", "shape": [], "dtype": "int32"}, {"name": "__inference_while_body_9880_11473/while/add_2/y", "shape": [], "dtype": "int32"}, {"name": "__inference_while_body_9880_11473/while/TensorArrayV2Read_1/TensorListGetItem/element_shape", "shape": [2], "dtype": "int32"}, {"name": "__inference_while_body_9880_11473/while/split/split_dim", "shape": [], "dtype": "int32"}, {"name": "__inference_while_body_9880_11473/while/TensorArrayV2Read/TensorListGetItem/element_shape", "shape": [2], "dtype": "int32"}, {"name": "__inference_while_body_9880_11473/while/add_3/y", "shape": [], "dtype": "int32"}, {"name": "__inference_decoder_while_TensorArrayV2Write_2_cond_true_13715_20111/decoder/while/TensorArrayV2Write_2/cond/add/y", "shape": [], "dtype": "int32"}, {"name": "__inference_decoder_while_TensorArrayV2Write_cond_true_13679_10419/decoder/while/TensorArrayV2Write/cond/add/y", "shape": [], "dtype": "int32"}, {"name": "__inference_decoder_while_body_13385_frozen_26231/decoder/while/decoder_cell/add_3/y", "shape": [], "dtype": "int32"}, {"name": "__inference_decoder_while_body_13385_frozen_26231/decoder/while/decoder_cell/ArgMax/dimension", "shape": [], "dtype": "int32"}, {"name": "__inference_decoder_while_body_13385_frozen_26231/decoder/while/strided_slice/stack", "shape": [2], "dtype": "int32"}, {"name": "__inference_decoder_while_body_13385_frozen_26231/decoder/while/strided_slice/stack_1", "shape": [2], "dtype": "int32"}, {"name": "__inference_decoder_while_body_13385_frozen_26231/decoder/while/strided_slice/stack_2", "shape": [2], "dtype": "int32"}, {"name": "__inference_decoder_while_body_13385_frozen_26231/decoder/while/Const", "shape": [2], "dtype": "int32"}, {"name": "__inference_decoder_while_body_13385_frozen_26231/decoder/while/add/y", "shape": [], "dtype": "int32"}, {"name": "__inference_decoder_while_body_13385_frozen_26231/decoder/while/add_1/y", "shape": [], "dtype": "int32"}, {"name": "__inference_decoder_while_body_13385_frozen_26231/decoder/while/decoder_cell/concat_2/axis", "shape": [], "dtype": "int32"}, {"name": "__inference_decoder_while_body_13385_frozen_26231/decoder/while/decoder_cell/concat_3/axis", "shape": [], "dtype": "int32"}, {"name": "__inference_decoder_while_body_13385_frozen_26231/decoder/while/Tile/input", "shape": [1], "dtype": "int32"}, {"name": "__inference_decoder_while_body_13385_frozen_26231/decoder/while/decoder_cell/decoder_lstms/lstm_cell_._0/split/split_dim", "shape": [], "dtype": "int32"}, {"name": "__inference_decoder_while_body_13385_frozen_26231/decoder/while/decoder_cell/mul/x", "shape": [], "dtype": "float32"}, {"name": "__inference_decoder_while_body_13385_frozen_26231/decoder/while/decoder_cell/scores_attention/Tensordot/Const", "shape": [1], "dtype": "int32"}, {"name": "__inference_decoder_while_body_13385_frozen_26231/decoder/while/decoder_cell/scores_attention/Tensordot/axes", "shape": [1], "dtype": "int32"}, {"name": "__inference_decoder_while_body_13385_frozen_26231/decoder/while/decoder_cell/scores_attention/Tensordot/GatherV2_1/axis", "shape": [], "dtype": "int32"}, {"name": "__inference_decoder_while_body_13385_frozen_26231/decoder/while/decoder_cell/scores_attention/Tensordot/Const_1", "shape": [1], "dtype": "int32"}, {"name": "__inference_decoder_while_body_13385_frozen_26231/decoder/while/decoder_cell/attention_lstm_cell/split/split_dim", "shape": [], "dtype": "int32"}, {"name": "__inference_decoder_while_body_13385_frozen_26231/decoder/while/decoder_cell/prenet/dropout/dropout_1/Const", "shape": [], "dtype": "float32"}, {"name": "__inference_decoder_while_body_13385_frozen_26231/decoder/while/decoder_cell/prenet/dropout/dropout/Const", "shape": [], "dtype": "float32"}, {"name": "__inference_decoder_while_body_13385_frozen_26231/decoder/while/decoder_cell/prenet/dropout/dropout/GreaterEqual/y", "shape": [], "dtype": "float32"}, {"name": "__inference_decoder_while_body_13385_frozen_26231/decoder/while/decoder_cell/prenet/dropout/dropout_1/GreaterEqual/y", "shape": [], "dtype": "float32"}, {"name": "__inference_decoder_while_body_13385_frozen_26231/decoder/while/decoder_cell/concat/axis", "shape": [], "dtype": "int32"}, {"name": "__inference_decoder_while_body_13385_frozen_26231/decoder/while/decoder_cell/ExpandDims/dim", "shape": [], "dtype": "int32"}, {"name": "__inference_decoder_while_body_13385_frozen_26231/decoder/while/decoder_cell/location_layer/Tensordot/Const", "shape": [1], "dtype": "int32"}, {"name": "__inference_decoder_while_body_13385_frozen_26231/decoder/while/decoder_cell/location_layer/Tensordot/axes", "shape": [1], "dtype": "int32"}, {"name": "__inference_decoder_while_body_13385_frozen_26231/decoder/while/decoder_cell/location_layer/Tensordot/GatherV2_1/axis", "shape": [], "dtype": "int32"}, {"name": "__inference_decoder_while_body_13385_frozen_26231/decoder/while/decoder_cell/location_layer/Tensordot/Const_1", "shape": [1], "dtype": "int32"}, {"name": "__inference_decoder_while_body_13385_frozen_26231/decoder/while/decoder_cell/ExpandDims_1/dim", "shape": [], "dtype": "int32"}, {"name": "__inference_decoder_while_body_13385_frozen_26231/decoder/while/decoder_cell/location_conv/conv1d/ExpandDims/dim", "shape": [], "dtype": "int32"}, {"name": "__inference_decoder_while_body_13385_frozen_26231/decoder/while/decoder_cell/location_conv/conv1d/ExpandDims_1/dim", "shape": [], "dtype": "int32"}, {"name": "__inference_decoder_while_body_13385_frozen_26231/decoder/while/decoder_cell/location_layer/Tensordot/free", "shape": [2], "dtype": "int32"}, {"name": "__inference_decoder_while_body_13385_frozen_26231/decoder/while/decoder_cell/location_layer/Tensordot/GatherV2/axis", "shape": [], "dtype": "int32"}, {"name": "__inference_decoder_while_body_13385_frozen_26231/decoder/while/decoder_cell/location_layer/Tensordot/Const_2", "shape": [1], "dtype": "int32"}, {"name": "__inference_decoder_while_body_13385_frozen_26231/decoder/while/decoder_cell/location_layer/Tensordot/concat_1/axis", "shape": [], "dtype": "int32"}, {"name": "__inference_decoder_while_body_13385_frozen_26231/decoder/while/decoder_cell/scores_attention/Tensordot/free", "shape": [2], "dtype": "int32"}, {"name": "__inference_decoder_while_body_13385_frozen_26231/decoder/while/decoder_cell/scores_attention/Tensordot/GatherV2/axis", "shape": [], "dtype": "int32"}, {"name": "__inference_decoder_while_body_13385_frozen_26231/decoder/while/decoder_cell/scores_attention/Tensordot/Const_2", "shape": [1], "dtype": "int32"}, {"name": "__inference_decoder_while_body_13385_frozen_26231/decoder/while/decoder_cell/scores_attention/Tensordot/concat_1/axis", "shape": [], "dtype": "int32"}, {"name": "__inference_decoder_while_body_13385_frozen_26231/decoder/while/decoder_cell/ones_like/Const", "shape": [], "dtype": "float32"}, {"name": "__inference_decoder_while_body_13385_frozen_26231/decoder/while/decoder_cell/ExpandDims_2/dim", "shape": [], "dtype": "int32"}, {"name": "__inference_decoder_while_body_13385_frozen_26231/decoder/while/decoder_cell/Sum/reduction_indices", "shape": [], "dtype": "int32"}, {"name": "__inference_decoder_while_body_13385_frozen_26231/decoder/while/decoder_cell/concat_1/axis", "shape": [], "dtype": "int32"}, {"name": "__inference_decoder_while_body_13385_frozen_26231/decoder/while/add_2/y", "shape": [], "dtype": "int32"}, {"name": "__inference_decoder_while_body_13385_frozen_26231/decoder/while/decoder_cell/SequenceMask/Const", "shape": [], "dtype": "int32"}, {"name": "__inference_decoder_while_body_13385_frozen_26231/decoder/while/decoder_cell/strided_slice/stack", "shape": [1], "dtype": "int32"}, {"name": "__inference_decoder_while_body_13385_frozen_26231/decoder/while/decoder_cell/strided_slice/stack_1", "shape": [1], "dtype": "int32"}, {"name": "__inference_decoder_while_body_13385_frozen_26231/decoder/while/decoder_cell/strided_slice/stack_2", "shape": [1], "dtype": "int32"}, {"name": "__inference_decoder_while_body_13385_frozen_26231/decoder/while/decoder_cell/SequenceMask/Const_1", "shape": [], "dtype": "int32"}, {"name": "__inference_decoder_while_body_13385_frozen_26231/decoder/while/decoder_cell/SequenceMask/ExpandDims/dim", "shape": [], "dtype": "int32"}, {"name": "__inference_decoder_while_decoder_cell_TensorArrayV2Write_cond_true_13637_4188/decoder/while/decoder_cell/TensorArrayV2Write/cond/add/y", "shape": [], "dtype": "int32"}, {"name": "__inference_decoder_while_cond_13384_frozen_26225/decoder/while/Const", "shape": [1], "dtype": "int32"}, {"name": "__inference_while_body_11580_13918/while/add_2/y", "shape": [], "dtype": "int32"}, {"name": "__inference_while_body_11580_13918/while/TensorArrayV2Read_1/TensorListGetItem/element_shape", "shape": [2], "dtype": "int32"}, {"name": "__inference_while_body_11580_13918/while/split/split_dim", "shape": [], "dtype": "int32"}, {"name": "__inference_while_body_11580_13918/while/TensorArrayV2Read/TensorListGetItem/element_shape", "shape": [2], "dtype": "int32"}, {"name": "__inference_while_body_11580_13918/while/add_3/y", "shape": [], "dtype": "int32"}, {"name": "__inference_decoder_while_TensorArrayV2Write_1_cond_true_13697_9/decoder/while/TensorArrayV2Write_1/cond/add/y", "shape": [], "dtype": "int32"}]}]}