{"format": "graph-model", "generatedBy": "2.6.0", "convertedBy": "TensorFlow.js Converter v3.20.0", "signature": {"inputs": {"mels": {"name": "mels:0", "dtype": "DT_FLOAT", "tensorShape": {"dim": [{"size": "-1"}, {"size": "-1"}, {"size": "80"}]}}}, "outputs": {"output_0": {"name": "Identity:0", "dtype": "DT_FLOAT", "tensorShape": {"dim": [{"size": "-1"}, {"size": "-1"}, {"size": "1"}]}}}}, "modelTopology": {"node": [{"name": "StatefulPartitionedCall/PartitionedCall/strided_slice/stack", "op": "Const", "attr": {"dtype": {"type": "DT_INT32"}, "value": {"tensor": {"dtype": "DT_INT32", "tensorShape": {"dim": [{"size": "1"}]}}}}}, {"name": "StatefulPartitionedCall/PartitionedCall/strided_slice/stack_1", "op": "Const", "attr": {"dtype": {"type": "DT_INT32"}, "value": {"tensor": {"dtype": "DT_INT32", "tensorShape": {"dim": [{"size": "1"}]}}}}}, {"name": "StatefulPartitionedCall/PartitionedCall/strided_slice/stack_2", "op": "Const", "attr": {"dtype": {"type": "DT_INT32"}, "value": {"tensor": {"dtype": "DT_INT32", "tensorShape": {"dim": [{"size": "1"}]}}}}}, {"name": "StatefulPartitionedCall/PartitionedCall/conv1d_transpose/concat/values_1", "op": "Const", "attr": {"dtype": {"type": "DT_INT32"}, "value": {"tensor": {"dtype": "DT_INT32", "tensorShape": {"dim": [{"size": "1"}]}}}}}, {"name": "StatefulPartitionedCall/PartitionedCall/strided_slice_1/stack", "op": "Const", "attr": {"value": {"tensor": {"dtype": "DT_INT32", "tensorShape": {"dim": [{"size": "1"}]}}}, "dtype": {"type": "DT_INT32"}}}, {"name": "StatefulPartitionedCall/PartitionedCall/strided_slice_1/stack_1", "op": "Const", "attr": {"dtype": {"type": "DT_INT32"}, "value": {"tensor": {"dtype": "DT_INT32", "tensorShape": {"dim": [{"size": "1"}]}}}}}, {"name": "StatefulPartitionedCall/PartitionedCall/strided_slice_1/stack_2", "op": "Const", "attr": {"dtype": {"type": "DT_INT32"}, "value": {"tensor": {"dtype": "DT_INT32", "tensorShape": {"dim": [{"size": "1"}]}}}}}, {"name": "StatefulPartitionedCall/PartitionedCall/mul/y", "op": "Const", "attr": {"dtype": {"type": "DT_INT32"}, "value": {"tensor": {"dtype": "DT_INT32", "tensorShape": {}}}}}, {"name": "StatefulPartitionedCall/PartitionedCall/conv1d_transpose/concat/values_2/1", "op": "Const", "attr": {"dtype": {"type": "DT_INT32"}, "value": {"tensor": {"dtype": "DT_INT32", "tensorShape": {}}}}}, {"name": "StatefulPartitionedCall/PartitionedCall/conv1d_transpose/concat/axis", "op": "Const", "attr": {"dtype": {"type": "DT_INT32"}, "value": {"tensor": {"dtype": "DT_INT32", "tensorShape": {}}}}}, {"name": "StatefulPartitionedCall/PartitionedCall/conv1d_transpose/ExpandDims_1", "op": "Const", "attr": {"value": {"tensor": {"dtype": "DT_FLOAT", "tensorShape": {"dim": [{"size": "1"}, {"size": "4"}, {"size": "4"}, {"size": "4"}]}}}, "dtype": {"type": "DT_FLOAT"}}}, {"name": "StatefulPartitionedCall/sequential_5/residual_stack_._2._._3/shortcut/conv1d/ExpandDims/dim", "op": "Const", "attr": {"value": {"tensor": {"dtype": "DT_INT32", "tensorShape": {}}}, "dtype": {"type": "DT_INT32"}}}, {"name": "StatefulPartitionedCall/sequential_5/residual_stack_._2._._3/shortcut/conv1d/ExpandDims_1", "op": "Const", "attr": {"dtype": {"type": "DT_FLOAT"}, "value": {"tensor": {"dtype": "DT_FLOAT", "tensorShape": {"dim": [{"size": "1"}, {"size": "1"}, {"size": "48"}, {"size": "48"}]}}}}}, {"name": "StatefulPartitionedCall/sequential_5/residual_stack_._2._._3/shortcut/BiasAdd/ReadVariableOp", "op": "Const", "attr": {"dtype": {"type": "DT_FLOAT"}, "value": {"tensor": {"dtype": "DT_FLOAT", "tensorShape": {"dim": [{"size": "48"}]}}}}}, {"name": "StatefulPartitionedCall/sequential_5/residual_stack_._2._._3/conv1d_49/conv1d/SpaceToBatchND/block_shape", "op": "Const", "attr": {"dtype": {"type": "DT_INT32"}, "value": {"tensor": {"dtype": "DT_INT32", "tensorShape": {"dim": [{"size": "1"}]}}}}}, {"name": "StatefulPartitionedCall/sequential_5/residual_stack_._2._._3/conv1d_49/conv1d/required_space_to_batch_paddings/strided_slice_2", "op": "Const", "attr": {"value": {"tensor": {"dtype": "DT_INT32", "tensorShape": {}}}, "dtype": {"type": "DT_INT32"}}}, {"name": "StatefulPartitionedCall/sequential_5/residual_stack_._2._._3/conv1d_49/conv1d/required_space_to_batch_paddings/strided_slice_3/stack", "op": "Const", "attr": {"value": {"tensor": {"dtype": "DT_INT32", "tensorShape": {"dim": [{"size": "1"}]}}}, "dtype": {"type": "DT_INT32"}}}, {"name": "StatefulPartitionedCall/sequential_5/residual_stack_._2._._3/conv1d_49/conv1d/required_space_to_batch_paddings/strided_slice_3/stack_1", "op": "Const", "attr": {"dtype": {"type": "DT_INT32"}, "value": {"tensor": {"dtype": "DT_INT32", "tensorShape": {"dim": [{"size": "1"}]}}}}}, {"name": "StatefulPartitionedCall/sequential_5/residual_stack_._2._._3/conv1d_49/conv1d/required_space_to_batch_paddings/strided_slice_3/stack_2", "op": "Const", "attr": {"value": {"tensor": {"dtype": "DT_INT32", "tensorShape": {"dim": [{"size": "1"}]}}}, "dtype": {"type": "DT_INT32"}}}, {"name": "StatefulPartitionedCall/sequential_5/residual_stack_._2._._3/conv1d_49/conv1d/ExpandDims/dim", "op": "Const", "attr": {"dtype": {"type": "DT_INT32"}, "value": {"tensor": {"dtype": "DT_INT32", "tensorShape": {}}}}}, {"name": "StatefulPartitionedCall/sequential_5/residual_stack_._2._._3/conv1d_49/conv1d/ExpandDims_1", "op": "Const", "attr": {"value": {"tensor": {"dtype": "DT_FLOAT", "tensorShape": {"dim": [{"size": "1"}, {"size": "3"}, {"size": "48"}, {"size": "48"}]}}}, "dtype": {"type": "DT_FLOAT"}}}, {"name": "StatefulPartitionedCall/sequential_5/residual_stack_._2._._3/conv1d_49/conv1d/BatchToSpaceND/block_shape", "op": "Const", "attr": {"value": {"tensor": {"dtype": "DT_INT32", "tensorShape": {"dim": [{"size": "1"}]}}}, "dtype": {"type": "DT_INT32"}}}, {"name": "StatefulPartitionedCall/sequential_5/residual_stack_._2._._3/conv1d_49/conv1d/required_space_to_batch_paddings/crops/0/0", "op": "Const", "attr": {"dtype": {"type": "DT_INT32"}, "value": {"tensor": {"dtype": "DT_INT32", "tensorShape": {}}}}}, {"name": "StatefulPartitionedCall/sequential_5/residual_stack_._2._._2/shortcut/conv1d/ExpandDims/dim", "op": "Const", "attr": {"value": {"tensor": {"dtype": "DT_INT32", "tensorShape": {}}}, "dtype": {"type": "DT_INT32"}}}, {"name": "StatefulPartitionedCall/sequential_5/residual_stack_._2._._2/shortcut/conv1d/ExpandDims_1", "op": "Const", "attr": {"dtype": {"type": "DT_FLOAT"}, "value": {"tensor": {"dtype": "DT_FLOAT", "tensorShape": {"dim": [{"size": "1"}, {"size": "1"}, {"size": "48"}, {"size": "48"}]}}}}}, {"name": "StatefulPartitionedCall/sequential_5/residual_stack_._2._._2/shortcut/BiasAdd/ReadVariableOp", "op": "Const", "attr": {"dtype": {"type": "DT_FLOAT"}, "value": {"tensor": {"dtype": "DT_FLOAT", "tensorShape": {"dim": [{"size": "48"}]}}}}}, {"name": "StatefulPartitionedCall/sequential_5/residual_stack_._2._._2/conv1d_47/conv1d/SpaceToBatchND/block_shape", "op": "Const", "attr": {"dtype": {"type": "DT_INT32"}, "value": {"tensor": {"dtype": "DT_INT32", "tensorShape": {"dim": [{"size": "1"}]}}}}}, {"name": "StatefulPartitionedCall/sequential_5/residual_stack_._2._._2/conv1d_47/conv1d/required_space_to_batch_paddings/strided_slice_2", "op": "Const", "attr": {"dtype": {"type": "DT_INT32"}, "value": {"tensor": {"dtype": "DT_INT32", "tensorShape": {}}}}}, {"name": "StatefulPartitionedCall/sequential_5/residual_stack_._2._._2/conv1d_47/conv1d/required_space_to_batch_paddings/strided_slice_3/stack", "op": "Const", "attr": {"dtype": {"type": "DT_INT32"}, "value": {"tensor": {"dtype": "DT_INT32", "tensorShape": {"dim": [{"size": "1"}]}}}}}, {"name": "StatefulPartitionedCall/sequential_5/residual_stack_._2._._2/conv1d_47/conv1d/required_space_to_batch_paddings/strided_slice_3/stack_1", "op": "Const", "attr": {"dtype": {"type": "DT_INT32"}, "value": {"tensor": {"dtype": "DT_INT32", "tensorShape": {"dim": [{"size": "1"}]}}}}}, {"name": "StatefulPartitionedCall/sequential_5/residual_stack_._2._._2/conv1d_47/conv1d/required_space_to_batch_paddings/strided_slice_3/stack_2", "op": "Const", "attr": {"value": {"tensor": {"dtype": "DT_INT32", "tensorShape": {"dim": [{"size": "1"}]}}}, "dtype": {"type": "DT_INT32"}}}, {"name": "StatefulPartitionedCall/sequential_5/residual_stack_._2._._2/conv1d_47/conv1d/ExpandDims/dim", "op": "Const", "attr": {"dtype": {"type": "DT_INT32"}, "value": {"tensor": {"dtype": "DT_INT32", "tensorShape": {}}}}}, {"name": "StatefulPartitionedCall/sequential_5/residual_stack_._2._._2/conv1d_47/conv1d/ExpandDims_1", "op": "Const", "attr": {"value": {"tensor": {"dtype": "DT_FLOAT", "tensorShape": {"dim": [{"size": "1"}, {"size": "3"}, {"size": "48"}, {"size": "48"}]}}}, "dtype": {"type": "DT_FLOAT"}}}, {"name": "StatefulPartitionedCall/sequential_5/residual_stack_._2._._2/conv1d_47/conv1d/BatchToSpaceND/block_shape", "op": "Const", "attr": {"value": {"tensor": {"dtype": "DT_INT32", "tensorShape": {"dim": [{"size": "1"}]}}}, "dtype": {"type": "DT_INT32"}}}, {"name": "StatefulPartitionedCall/sequential_5/residual_stack_._2._._2/conv1d_47/conv1d/required_space_to_batch_paddings/crops/0/0", "op": "Const", "attr": {"value": {"tensor": {"dtype": "DT_INT32", "tensorShape": {}}}, "dtype": {"type": "DT_INT32"}}}, {"name": "StatefulPartitionedCall/sequential_5/residual_stack_._2._._1/shortcut/conv1d/ExpandDims/dim", "op": "Const", "attr": {"dtype": {"type": "DT_INT32"}, "value": {"tensor": {"dtype": "DT_INT32", "tensorShape": {}}}}}, {"name": "StatefulPartitionedCall/sequential_5/residual_stack_._2._._1/shortcut/conv1d/ExpandDims_1", "op": "Const", "attr": {"value": {"tensor": {"dtype": "DT_FLOAT", "tensorShape": {"dim": [{"size": "1"}, {"size": "1"}, {"size": "48"}, {"size": "48"}]}}}, "dtype": {"type": "DT_FLOAT"}}}, {"name": "StatefulPartitionedCall/sequential_5/residual_stack_._2._._1/shortcut/BiasAdd/ReadVariableOp", "op": "Const", "attr": {"dtype": {"type": "DT_FLOAT"}, "value": {"tensor": {"dtype": "DT_FLOAT", "tensorShape": {"dim": [{"size": "48"}]}}}}}, {"name": "StatefulPartitionedCall/sequential_5/residual_stack_._2._._1/conv1d_45/conv1d/SpaceToBatchND/block_shape", "op": "Const", "attr": {"value": {"tensor": {"dtype": "DT_INT32", "tensorShape": {"dim": [{"size": "1"}]}}}, "dtype": {"type": "DT_INT32"}}}, {"name": "StatefulPartitionedCall/sequential_5/residual_stack_._2._._1/conv1d_45/conv1d/required_space_to_batch_paddings/strided_slice_2", "op": "Const", "attr": {"dtype": {"type": "DT_INT32"}, "value": {"tensor": {"dtype": "DT_INT32", "tensorShape": {}}}}}, {"name": "StatefulPartitionedCall/sequential_5/residual_stack_._2._._1/conv1d_45/conv1d/required_space_to_batch_paddings/strided_slice_3/stack", "op": "Const", "attr": {"dtype": {"type": "DT_INT32"}, "value": {"tensor": {"dtype": "DT_INT32", "tensorShape": {"dim": [{"size": "1"}]}}}}}, {"name": "StatefulPartitionedCall/sequential_5/residual_stack_._2._._1/conv1d_45/conv1d/required_space_to_batch_paddings/strided_slice_3/stack_1", "op": "Const", "attr": {"value": {"tensor": {"dtype": "DT_INT32", "tensorShape": {"dim": [{"size": "1"}]}}}, "dtype": {"type": "DT_INT32"}}}, {"name": "StatefulPartitionedCall/sequential_5/residual_stack_._2._._1/conv1d_45/conv1d/required_space_to_batch_paddings/strided_slice_3/stack_2", "op": "Const", "attr": {"value": {"tensor": {"dtype": "DT_INT32", "tensorShape": {"dim": [{"size": "1"}]}}}, "dtype": {"type": "DT_INT32"}}}, {"name": "StatefulPartitionedCall/sequential_5/residual_stack_._2._._1/conv1d_45/conv1d/ExpandDims/dim", "op": "Const", "attr": {"dtype": {"type": "DT_INT32"}, "value": {"tensor": {"dtype": "DT_INT32", "tensorShape": {}}}}}, {"name": "StatefulPartitionedCall/sequential_5/residual_stack_._2._._1/conv1d_45/conv1d/ExpandDims_1", "op": "Const", "attr": {"dtype": {"type": "DT_FLOAT"}, "value": {"tensor": {"dtype": "DT_FLOAT", "tensorShape": {"dim": [{"size": "1"}, {"size": "3"}, {"size": "48"}, {"size": "48"}]}}}}}, {"name": "StatefulPartitionedCall/sequential_5/residual_stack_._2._._1/conv1d_45/conv1d/BatchToSpaceND/block_shape", "op": "Const", "attr": {"value": {"tensor": {"dtype": "DT_INT32", "tensorShape": {"dim": [{"size": "1"}]}}}, "dtype": {"type": "DT_INT32"}}}, {"name": "StatefulPartitionedCall/sequential_5/residual_stack_._2._._1/conv1d_45/conv1d/required_space_to_batch_paddings/crops/0/0", "op": "Const", "attr": {"dtype": {"type": "DT_INT32"}, "value": {"tensor": {"dtype": "DT_INT32", "tensorShape": {}}}}}, {"name": "StatefulPartitionedCall/sequential_5/residual_stack_._2._._0/shortcut/conv1d/ExpandDims/dim", "op": "Const", "attr": {"value": {"tensor": {"dtype": "DT_INT32", "tensorShape": {}}}, "dtype": {"type": "DT_INT32"}}}, {"name": "StatefulPartitionedCall/sequential_5/residual_stack_._2._._0/shortcut/conv1d/ExpandDims_1", "op": "Const", "attr": {"dtype": {"type": "DT_FLOAT"}, "value": {"tensor": {"dtype": "DT_FLOAT", "tensorShape": {"dim": [{"size": "1"}, {"size": "1"}, {"size": "48"}, {"size": "48"}]}}}}}, {"name": "StatefulPartitionedCall/sequential_5/residual_stack_._2._._0/shortcut/BiasAdd/ReadVariableOp", "op": "Const", "attr": {"value": {"tensor": {"dtype": "DT_FLOAT", "tensorShape": {"dim": [{"size": "48"}]}}}, "dtype": {"type": "DT_FLOAT"}}}, {"name": "StatefulPartitionedCall/sequential_5/conv_transpose_._2/conv2d_transpose_5/strided_slice/stack", "op": "Const", "attr": {"dtype": {"type": "DT_INT32"}, "value": {"tensor": {"dtype": "DT_INT32", "tensorShape": {"dim": [{"size": "1"}]}}}}}, {"name": "StatefulPartitionedCall/sequential_5/conv_transpose_._2/conv2d_transpose_5/strided_slice/stack_1", "op": "Const", "attr": {"value": {"tensor": {"dtype": "DT_INT32", "tensorShape": {"dim": [{"size": "1"}]}}}, "dtype": {"type": "DT_INT32"}}}, {"name": "StatefulPartitionedCall/sequential_5/conv_transpose_._2/conv2d_transpose_5/strided_slice/stack_2", "op": "Const", "attr": {"dtype": {"type": "DT_INT32"}, "value": {"tensor": {"dtype": "DT_INT32", "tensorShape": {"dim": [{"size": "1"}]}}}}}, {"name": "StatefulPartitionedCall/sequential_5/conv_transpose_._2/conv2d_transpose_5/strided_slice_1/stack", "op": "Const", "attr": {"dtype": {"type": "DT_INT32"}, "value": {"tensor": {"dtype": "DT_INT32", "tensorShape": {"dim": [{"size": "1"}]}}}}}, {"name": "StatefulPartitionedCall/sequential_5/conv_transpose_._2/conv2d_transpose_5/strided_slice_1/stack_1", "op": "Const", "attr": {"dtype": {"type": "DT_INT32"}, "value": {"tensor": {"dtype": "DT_INT32", "tensorShape": {"dim": [{"size": "1"}]}}}}}, {"name": "StatefulPartitionedCall/sequential_5/conv_transpose_._2/conv2d_transpose_5/strided_slice_1/stack_2", "op": "Const", "attr": {"value": {"tensor": {"dtype": "DT_INT32", "tensorShape": {"dim": [{"size": "1"}]}}}, "dtype": {"type": "DT_INT32"}}}, {"name": "StatefulPartitionedCall/sequential_5/conv_transpose_._2/conv2d_transpose_5/mul/y", "op": "Const", "attr": {"dtype": {"type": "DT_INT32"}, "value": {"tensor": {"dtype": "DT_INT32", "tensorShape": {}}}}}, {"name": "StatefulPartitionedCall/sequential_5/conv_transpose_._2/conv2d_transpose_5/stack/2", "op": "Const", "attr": {"dtype": {"type": "DT_INT32"}, "value": {"tensor": {"dtype": "DT_INT32", "tensorShape": {}}}}}, {"name": "StatefulPartitionedCall/sequential_5/conv_transpose_._2/conv2d_transpose_5/stack/3", "op": "Const", "attr": {"dtype": {"type": "DT_INT32"}, "value": {"tensor": {"dtype": "DT_INT32", "tensorShape": {}}}}}, {"name": "StatefulPartitionedCall/sequential_5/conv_transpose_._2/conv2d_transpose_5/conv2d_transpose/ReadVariableOp", "op": "Const", "attr": {"value": {"tensor": {"dtype": "DT_FLOAT", "tensorShape": {"dim": [{"size": "4"}, {"size": "1"}, {"size": "48"}, {"size": "96"}]}}}, "dtype": {"type": "DT_FLOAT"}}}, {"name": "StatefulPartitionedCall/sequential_5/residual_stack_._1._._3/shortcut/conv1d/ExpandDims/dim", "op": "Const", "attr": {"value": {"tensor": {"dtype": "DT_INT32", "tensorShape": {}}}, "dtype": {"type": "DT_INT32"}}}, {"name": "StatefulPartitionedCall/sequential_5/residual_stack_._1._._3/shortcut/conv1d/ExpandDims_1", "op": "Const", "attr": {"value": {"tensor": {"dtype": "DT_FLOAT", "tensorShape": {"dim": [{"size": "1"}, {"size": "1"}, {"size": "96"}, {"size": "96"}]}}}, "dtype": {"type": "DT_FLOAT"}}}, {"name": "StatefulPartitionedCall/sequential_5/residual_stack_._1._._3/shortcut/BiasAdd/ReadVariableOp", "op": "Const", "attr": {"value": {"tensor": {"dtype": "DT_FLOAT", "tensorShape": {"dim": [{"size": "96"}]}}}, "dtype": {"type": "DT_FLOAT"}}}, {"name": "StatefulPartitionedCall/sequential_5/residual_stack_._1._._3/conv1d_41/conv1d/SpaceToBatchND/block_shape", "op": "Const", "attr": {"dtype": {"type": "DT_INT32"}, "value": {"tensor": {"dtype": "DT_INT32", "tensorShape": {"dim": [{"size": "1"}]}}}}}, {"name": "StatefulPartitionedCall/sequential_5/residual_stack_._1._._3/conv1d_41/conv1d/required_space_to_batch_paddings/strided_slice_2", "op": "Const", "attr": {"dtype": {"type": "DT_INT32"}, "value": {"tensor": {"dtype": "DT_INT32", "tensorShape": {}}}}}, {"name": "StatefulPartitionedCall/sequential_5/residual_stack_._1._._3/conv1d_41/conv1d/required_space_to_batch_paddings/strided_slice_3/stack", "op": "Const", "attr": {"dtype": {"type": "DT_INT32"}, "value": {"tensor": {"dtype": "DT_INT32", "tensorShape": {"dim": [{"size": "1"}]}}}}}, {"name": "StatefulPartitionedCall/sequential_5/residual_stack_._1._._3/conv1d_41/conv1d/required_space_to_batch_paddings/strided_slice_3/stack_1", "op": "Const", "attr": {"value": {"tensor": {"dtype": "DT_INT32", "tensorShape": {"dim": [{"size": "1"}]}}}, "dtype": {"type": "DT_INT32"}}}, {"name": "StatefulPartitionedCall/sequential_5/residual_stack_._1._._3/conv1d_41/conv1d/required_space_to_batch_paddings/strided_slice_3/stack_2", "op": "Const", "attr": {"dtype": {"type": "DT_INT32"}, "value": {"tensor": {"dtype": "DT_INT32", "tensorShape": {"dim": [{"size": "1"}]}}}}}, {"name": "StatefulPartitionedCall/sequential_5/residual_stack_._1._._3/conv1d_41/conv1d/ExpandDims/dim", "op": "Const", "attr": {"value": {"tensor": {"dtype": "DT_INT32", "tensorShape": {}}}, "dtype": {"type": "DT_INT32"}}}, {"name": "StatefulPartitionedCall/sequential_5/residual_stack_._1._._3/conv1d_41/conv1d/ExpandDims_1", "op": "Const", "attr": {"value": {"tensor": {"dtype": "DT_FLOAT", "tensorShape": {"dim": [{"size": "1"}, {"size": "3"}, {"size": "96"}, {"size": "96"}]}}}, "dtype": {"type": "DT_FLOAT"}}}, {"name": "StatefulPartitionedCall/sequential_5/residual_stack_._1._._3/conv1d_41/conv1d/BatchToSpaceND/block_shape", "op": "Const", "attr": {"value": {"tensor": {"dtype": "DT_INT32", "tensorShape": {"dim": [{"size": "1"}]}}}, "dtype": {"type": "DT_INT32"}}}, {"name": "StatefulPartitionedCall/sequential_5/residual_stack_._1._._3/conv1d_41/conv1d/required_space_to_batch_paddings/crops/0/0", "op": "Const", "attr": {"dtype": {"type": "DT_INT32"}, "value": {"tensor": {"dtype": "DT_INT32", "tensorShape": {}}}}}, {"name": "StatefulPartitionedCall/sequential_5/residual_stack_._1._._2/shortcut/conv1d/ExpandDims/dim", "op": "Const", "attr": {"value": {"tensor": {"dtype": "DT_INT32", "tensorShape": {}}}, "dtype": {"type": "DT_INT32"}}}, {"name": "StatefulPartitionedCall/sequential_5/residual_stack_._1._._2/shortcut/conv1d/ExpandDims_1", "op": "Const", "attr": {"value": {"tensor": {"dtype": "DT_FLOAT", "tensorShape": {"dim": [{"size": "1"}, {"size": "1"}, {"size": "96"}, {"size": "96"}]}}}, "dtype": {"type": "DT_FLOAT"}}}, {"name": "StatefulPartitionedCall/sequential_5/residual_stack_._1._._2/shortcut/BiasAdd/ReadVariableOp", "op": "Const", "attr": {"dtype": {"type": "DT_FLOAT"}, "value": {"tensor": {"dtype": "DT_FLOAT", "tensorShape": {"dim": [{"size": "96"}]}}}}}, {"name": "StatefulPartitionedCall/sequential_5/residual_stack_._1._._2/conv1d_39/conv1d/SpaceToBatchND/block_shape", "op": "Const", "attr": {"dtype": {"type": "DT_INT32"}, "value": {"tensor": {"dtype": "DT_INT32", "tensorShape": {"dim": [{"size": "1"}]}}}}}, {"name": "StatefulPartitionedCall/sequential_5/residual_stack_._1._._2/conv1d_39/conv1d/required_space_to_batch_paddings/strided_slice_2", "op": "Const", "attr": {"dtype": {"type": "DT_INT32"}, "value": {"tensor": {"dtype": "DT_INT32", "tensorShape": {}}}}}, {"name": "StatefulPartitionedCall/sequential_5/residual_stack_._1._._2/conv1d_39/conv1d/required_space_to_batch_paddings/strided_slice_3/stack", "op": "Const", "attr": {"value": {"tensor": {"dtype": "DT_INT32", "tensorShape": {"dim": [{"size": "1"}]}}}, "dtype": {"type": "DT_INT32"}}}, {"name": "StatefulPartitionedCall/sequential_5/residual_stack_._1._._2/conv1d_39/conv1d/required_space_to_batch_paddings/strided_slice_3/stack_1", "op": "Const", "attr": {"value": {"tensor": {"dtype": "DT_INT32", "tensorShape": {"dim": [{"size": "1"}]}}}, "dtype": {"type": "DT_INT32"}}}, {"name": "StatefulPartitionedCall/sequential_5/residual_stack_._1._._2/conv1d_39/conv1d/required_space_to_batch_paddings/strided_slice_3/stack_2", "op": "Const", "attr": {"dtype": {"type": "DT_INT32"}, "value": {"tensor": {"dtype": "DT_INT32", "tensorShape": {"dim": [{"size": "1"}]}}}}}, {"name": "StatefulPartitionedCall/sequential_5/residual_stack_._1._._2/conv1d_39/conv1d/ExpandDims/dim", "op": "Const", "attr": {"value": {"tensor": {"dtype": "DT_INT32", "tensorShape": {}}}, "dtype": {"type": "DT_INT32"}}}, {"name": "StatefulPartitionedCall/sequential_5/residual_stack_._1._._2/conv1d_39/conv1d/ExpandDims_1", "op": "Const", "attr": {"value": {"tensor": {"dtype": "DT_FLOAT", "tensorShape": {"dim": [{"size": "1"}, {"size": "3"}, {"size": "96"}, {"size": "96"}]}}}, "dtype": {"type": "DT_FLOAT"}}}, {"name": "StatefulPartitionedCall/sequential_5/residual_stack_._1._._2/conv1d_39/conv1d/BatchToSpaceND/block_shape", "op": "Const", "attr": {"value": {"tensor": {"dtype": "DT_INT32", "tensorShape": {"dim": [{"size": "1"}]}}}, "dtype": {"type": "DT_INT32"}}}, {"name": "StatefulPartitionedCall/sequential_5/residual_stack_._1._._2/conv1d_39/conv1d/required_space_to_batch_paddings/crops/0/0", "op": "Const", "attr": {"value": {"tensor": {"dtype": "DT_INT32", "tensorShape": {}}}, "dtype": {"type": "DT_INT32"}}}, {"name": "StatefulPartitionedCall/sequential_5/residual_stack_._1._._1/shortcut/conv1d/ExpandDims/dim", "op": "Const", "attr": {"dtype": {"type": "DT_INT32"}, "value": {"tensor": {"dtype": "DT_INT32", "tensorShape": {}}}}}, {"name": "StatefulPartitionedCall/sequential_5/residual_stack_._1._._1/shortcut/conv1d/ExpandDims_1", "op": "Const", "attr": {"value": {"tensor": {"dtype": "DT_FLOAT", "tensorShape": {"dim": [{"size": "1"}, {"size": "1"}, {"size": "96"}, {"size": "96"}]}}}, "dtype": {"type": "DT_FLOAT"}}}, {"name": "StatefulPartitionedCall/sequential_5/residual_stack_._1._._1/shortcut/BiasAdd/ReadVariableOp", "op": "Const", "attr": {"dtype": {"type": "DT_FLOAT"}, "value": {"tensor": {"dtype": "DT_FLOAT", "tensorShape": {"dim": [{"size": "96"}]}}}}}, {"name": "StatefulPartitionedCall/sequential_5/residual_stack_._1._._1/conv1d_37/conv1d/SpaceToBatchND/block_shape", "op": "Const", "attr": {"dtype": {"type": "DT_INT32"}, "value": {"tensor": {"dtype": "DT_INT32", "tensorShape": {"dim": [{"size": "1"}]}}}}}, {"name": "StatefulPartitionedCall/sequential_5/residual_stack_._1._._1/conv1d_37/conv1d/required_space_to_batch_paddings/strided_slice_2", "op": "Const", "attr": {"dtype": {"type": "DT_INT32"}, "value": {"tensor": {"dtype": "DT_INT32", "tensorShape": {}}}}}, {"name": "StatefulPartitionedCall/sequential_5/residual_stack_._1._._1/conv1d_37/conv1d/required_space_to_batch_paddings/strided_slice_3/stack", "op": "Const", "attr": {"dtype": {"type": "DT_INT32"}, "value": {"tensor": {"dtype": "DT_INT32", "tensorShape": {"dim": [{"size": "1"}]}}}}}, {"name": "StatefulPartitionedCall/sequential_5/residual_stack_._1._._1/conv1d_37/conv1d/required_space_to_batch_paddings/strided_slice_3/stack_1", "op": "Const", "attr": {"dtype": {"type": "DT_INT32"}, "value": {"tensor": {"dtype": "DT_INT32", "tensorShape": {"dim": [{"size": "1"}]}}}}}, {"name": "StatefulPartitionedCall/sequential_5/residual_stack_._1._._1/conv1d_37/conv1d/required_space_to_batch_paddings/strided_slice_3/stack_2", "op": "Const", "attr": {"dtype": {"type": "DT_INT32"}, "value": {"tensor": {"dtype": "DT_INT32", "tensorShape": {"dim": [{"size": "1"}]}}}}}, {"name": "StatefulPartitionedCall/sequential_5/residual_stack_._1._._1/conv1d_37/conv1d/ExpandDims/dim", "op": "Const", "attr": {"dtype": {"type": "DT_INT32"}, "value": {"tensor": {"dtype": "DT_INT32", "tensorShape": {}}}}}, {"name": "StatefulPartitionedCall/sequential_5/residual_stack_._1._._1/conv1d_37/conv1d/ExpandDims_1", "op": "Const", "attr": {"dtype": {"type": "DT_FLOAT"}, "value": {"tensor": {"dtype": "DT_FLOAT", "tensorShape": {"dim": [{"size": "1"}, {"size": "3"}, {"size": "96"}, {"size": "96"}]}}}}}, {"name": "StatefulPartitionedCall/sequential_5/residual_stack_._1._._1/conv1d_37/conv1d/BatchToSpaceND/block_shape", "op": "Const", "attr": {"dtype": {"type": "DT_INT32"}, "value": {"tensor": {"dtype": "DT_INT32", "tensorShape": {"dim": [{"size": "1"}]}}}}}, {"name": "StatefulPartitionedCall/sequential_5/residual_stack_._1._._1/conv1d_37/conv1d/required_space_to_batch_paddings/crops/0/0", "op": "Const", "attr": {"value": {"tensor": {"dtype": "DT_INT32", "tensorShape": {}}}, "dtype": {"type": "DT_INT32"}}}, {"name": "StatefulPartitionedCall/sequential_5/residual_stack_._1._._0/shortcut/conv1d/ExpandDims/dim", "op": "Const", "attr": {"dtype": {"type": "DT_INT32"}, "value": {"tensor": {"dtype": "DT_INT32", "tensorShape": {}}}}}, {"name": "StatefulPartitionedCall/sequential_5/residual_stack_._1._._0/shortcut/conv1d/ExpandDims_1", "op": "Const", "attr": {"value": {"tensor": {"dtype": "DT_FLOAT", "tensorShape": {"dim": [{"size": "1"}, {"size": "1"}, {"size": "96"}, {"size": "96"}]}}}, "dtype": {"type": "DT_FLOAT"}}}, {"name": "StatefulPartitionedCall/sequential_5/residual_stack_._1._._0/shortcut/BiasAdd/ReadVariableOp", "op": "Const", "attr": {"value": {"tensor": {"dtype": "DT_FLOAT", "tensorShape": {"dim": [{"size": "96"}]}}}, "dtype": {"type": "DT_FLOAT"}}}, {"name": "StatefulPartitionedCall/sequential_5/conv_transpose_._1/conv2d_transpose_4/strided_slice/stack", "op": "Const", "attr": {"dtype": {"type": "DT_INT32"}, "value": {"tensor": {"dtype": "DT_INT32", "tensorShape": {"dim": [{"size": "1"}]}}}}}, {"name": "StatefulPartitionedCall/sequential_5/conv_transpose_._1/conv2d_transpose_4/strided_slice/stack_1", "op": "Const", "attr": {"dtype": {"type": "DT_INT32"}, "value": {"tensor": {"dtype": "DT_INT32", "tensorShape": {"dim": [{"size": "1"}]}}}}}, {"name": "StatefulPartitionedCall/sequential_5/conv_transpose_._1/conv2d_transpose_4/strided_slice/stack_2", "op": "Const", "attr": {"value": {"tensor": {"dtype": "DT_INT32", "tensorShape": {"dim": [{"size": "1"}]}}}, "dtype": {"type": "DT_INT32"}}}, {"name": "StatefulPartitionedCall/sequential_5/conv_transpose_._1/conv2d_transpose_4/strided_slice_1/stack", "op": "Const", "attr": {"dtype": {"type": "DT_INT32"}, "value": {"tensor": {"dtype": "DT_INT32", "tensorShape": {"dim": [{"size": "1"}]}}}}}, {"name": "StatefulPartitionedCall/sequential_5/conv_transpose_._1/conv2d_transpose_4/strided_slice_1/stack_1", "op": "Const", "attr": {"value": {"tensor": {"dtype": "DT_INT32", "tensorShape": {"dim": [{"size": "1"}]}}}, "dtype": {"type": "DT_INT32"}}}, {"name": "StatefulPartitionedCall/sequential_5/conv_transpose_._1/conv2d_transpose_4/strided_slice_1/stack_2", "op": "Const", "attr": {"value": {"tensor": {"dtype": "DT_INT32", "tensorShape": {"dim": [{"size": "1"}]}}}, "dtype": {"type": "DT_INT32"}}}, {"name": "StatefulPartitionedCall/sequential_5/conv_transpose_._1/conv2d_transpose_4/mul/y", "op": "Const", "attr": {"value": {"tensor": {"dtype": "DT_INT32", "tensorShape": {}}}, "dtype": {"type": "DT_INT32"}}}, {"name": "StatefulPartitionedCall/sequential_5/conv_transpose_._1/conv2d_transpose_4/stack/2", "op": "Const", "attr": {"dtype": {"type": "DT_INT32"}, "value": {"tensor": {"dtype": "DT_INT32", "tensorShape": {}}}}}, {"name": "StatefulPartitionedCall/sequential_5/conv_transpose_._1/conv2d_transpose_4/stack/3", "op": "Const", "attr": {"value": {"tensor": {"dtype": "DT_INT32", "tensorShape": {}}}, "dtype": {"type": "DT_INT32"}}}, {"name": "StatefulPartitionedCall/sequential_5/conv_transpose_._1/conv2d_transpose_4/conv2d_transpose/ReadVariableOp", "op": "Const", "attr": {"value": {"tensor": {"dtype": "DT_FLOAT", "tensorShape": {"dim": [{"size": "8"}, {"size": "1"}, {"size": "96"}, {"size": "192"}]}}}, "dtype": {"type": "DT_FLOAT"}}}, {"name": "StatefulPartitionedCall/sequential_5/residual_stack_._0._._3/shortcut/conv1d/ExpandDims/dim", "op": "Const", "attr": {"dtype": {"type": "DT_INT32"}, "value": {"tensor": {"dtype": "DT_INT32", "tensorShape": {}}}}}, {"name": "StatefulPartitionedCall/sequential_5/residual_stack_._0._._3/shortcut/conv1d/ExpandDims_1", "op": "Const", "attr": {"value": {"tensor": {"dtype": "DT_FLOAT", "tensorShape": {"dim": [{"size": "1"}, {"size": "1"}, {"size": "192"}, {"size": "192"}]}}}, "dtype": {"type": "DT_FLOAT"}}}, {"name": "StatefulPartitionedCall/sequential_5/residual_stack_._0._._3/shortcut/BiasAdd/ReadVariableOp", "op": "Const", "attr": {"dtype": {"type": "DT_FLOAT"}, "value": {"tensor": {"dtype": "DT_FLOAT", "tensorShape": {"dim": [{"size": "192"}]}}}}}, {"name": "StatefulPartitionedCall/sequential_5/residual_stack_._0._._3/conv1d_33/conv1d/SpaceToBatchND/block_shape", "op": "Const", "attr": {"value": {"tensor": {"dtype": "DT_INT32", "tensorShape": {"dim": [{"size": "1"}]}}}, "dtype": {"type": "DT_INT32"}}}, {"name": "StatefulPartitionedCall/sequential_5/residual_stack_._0._._3/conv1d_33/conv1d/required_space_to_batch_paddings/strided_slice_2", "op": "Const", "attr": {"dtype": {"type": "DT_INT32"}, "value": {"tensor": {"dtype": "DT_INT32", "tensorShape": {}}}}}, {"name": "StatefulPartitionedCall/sequential_5/residual_stack_._0._._3/conv1d_33/conv1d/required_space_to_batch_paddings/strided_slice_3/stack", "op": "Const", "attr": {"value": {"tensor": {"dtype": "DT_INT32", "tensorShape": {"dim": [{"size": "1"}]}}}, "dtype": {"type": "DT_INT32"}}}, {"name": "StatefulPartitionedCall/sequential_5/residual_stack_._0._._3/conv1d_33/conv1d/required_space_to_batch_paddings/strided_slice_3/stack_1", "op": "Const", "attr": {"value": {"tensor": {"dtype": "DT_INT32", "tensorShape": {"dim": [{"size": "1"}]}}}, "dtype": {"type": "DT_INT32"}}}, {"name": "StatefulPartitionedCall/sequential_5/residual_stack_._0._._3/conv1d_33/conv1d/required_space_to_batch_paddings/strided_slice_3/stack_2", "op": "Const", "attr": {"dtype": {"type": "DT_INT32"}, "value": {"tensor": {"dtype": "DT_INT32", "tensorShape": {"dim": [{"size": "1"}]}}}}}, {"name": "StatefulPartitionedCall/sequential_5/residual_stack_._0._._3/conv1d_33/conv1d/ExpandDims/dim", "op": "Const", "attr": {"value": {"tensor": {"dtype": "DT_INT32", "tensorShape": {}}}, "dtype": {"type": "DT_INT32"}}}, {"name": "StatefulPartitionedCall/sequential_5/residual_stack_._0._._3/conv1d_33/conv1d/ExpandDims_1", "op": "Const", "attr": {"value": {"tensor": {"dtype": "DT_FLOAT", "tensorShape": {"dim": [{"size": "1"}, {"size": "3"}, {"size": "192"}, {"size": "192"}]}}}, "dtype": {"type": "DT_FLOAT"}}}, {"name": "StatefulPartitionedCall/sequential_5/residual_stack_._0._._3/conv1d_33/conv1d/BatchToSpaceND/block_shape", "op": "Const", "attr": {"value": {"tensor": {"dtype": "DT_INT32", "tensorShape": {"dim": [{"size": "1"}]}}}, "dtype": {"type": "DT_INT32"}}}, {"name": "StatefulPartitionedCall/sequential_5/residual_stack_._0._._3/conv1d_33/conv1d/required_space_to_batch_paddings/crops/0/0", "op": "Const", "attr": {"value": {"tensor": {"dtype": "DT_INT32", "tensorShape": {}}}, "dtype": {"type": "DT_INT32"}}}, {"name": "StatefulPartitionedCall/sequential_5/residual_stack_._0._._2/shortcut/conv1d/ExpandDims/dim", "op": "Const", "attr": {"value": {"tensor": {"dtype": "DT_INT32", "tensorShape": {}}}, "dtype": {"type": "DT_INT32"}}}, {"name": "StatefulPartitionedCall/sequential_5/residual_stack_._0._._2/shortcut/conv1d/ExpandDims_1", "op": "Const", "attr": {"value": {"tensor": {"dtype": "DT_FLOAT", "tensorShape": {"dim": [{"size": "1"}, {"size": "1"}, {"size": "192"}, {"size": "192"}]}}}, "dtype": {"type": "DT_FLOAT"}}}, {"name": "StatefulPartitionedCall/sequential_5/residual_stack_._0._._2/shortcut/BiasAdd/ReadVariableOp", "op": "Const", "attr": {"dtype": {"type": "DT_FLOAT"}, "value": {"tensor": {"dtype": "DT_FLOAT", "tensorShape": {"dim": [{"size": "192"}]}}}}}, {"name": "StatefulPartitionedCall/sequential_5/residual_stack_._0._._2/conv1d_31/conv1d/SpaceToBatchND/block_shape", "op": "Const", "attr": {"dtype": {"type": "DT_INT32"}, "value": {"tensor": {"dtype": "DT_INT32", "tensorShape": {"dim": [{"size": "1"}]}}}}}, {"name": "StatefulPartitionedCall/sequential_5/residual_stack_._0._._2/conv1d_31/conv1d/required_space_to_batch_paddings/strided_slice_2", "op": "Const", "attr": {"dtype": {"type": "DT_INT32"}, "value": {"tensor": {"dtype": "DT_INT32", "tensorShape": {}}}}}, {"name": "StatefulPartitionedCall/sequential_5/residual_stack_._0._._2/conv1d_31/conv1d/required_space_to_batch_paddings/strided_slice_3/stack", "op": "Const", "attr": {"value": {"tensor": {"dtype": "DT_INT32", "tensorShape": {"dim": [{"size": "1"}]}}}, "dtype": {"type": "DT_INT32"}}}, {"name": "StatefulPartitionedCall/sequential_5/residual_stack_._0._._2/conv1d_31/conv1d/required_space_to_batch_paddings/strided_slice_3/stack_1", "op": "Const", "attr": {"value": {"tensor": {"dtype": "DT_INT32", "tensorShape": {"dim": [{"size": "1"}]}}}, "dtype": {"type": "DT_INT32"}}}, {"name": "StatefulPartitionedCall/sequential_5/residual_stack_._0._._2/conv1d_31/conv1d/required_space_to_batch_paddings/strided_slice_3/stack_2", "op": "Const", "attr": {"dtype": {"type": "DT_INT32"}, "value": {"tensor": {"dtype": "DT_INT32", "tensorShape": {"dim": [{"size": "1"}]}}}}}, {"name": "StatefulPartitionedCall/sequential_5/residual_stack_._0._._2/conv1d_31/conv1d/ExpandDims/dim", "op": "Const", "attr": {"value": {"tensor": {"dtype": "DT_INT32", "tensorShape": {}}}, "dtype": {"type": "DT_INT32"}}}, {"name": "StatefulPartitionedCall/sequential_5/residual_stack_._0._._2/conv1d_31/conv1d/ExpandDims_1", "op": "Const", "attr": {"value": {"tensor": {"dtype": "DT_FLOAT", "tensorShape": {"dim": [{"size": "1"}, {"size": "3"}, {"size": "192"}, {"size": "192"}]}}}, "dtype": {"type": "DT_FLOAT"}}}, {"name": "StatefulPartitionedCall/sequential_5/residual_stack_._0._._2/conv1d_31/conv1d/BatchToSpaceND/block_shape", "op": "Const", "attr": {"dtype": {"type": "DT_INT32"}, "value": {"tensor": {"dtype": "DT_INT32", "tensorShape": {"dim": [{"size": "1"}]}}}}}, {"name": "StatefulPartitionedCall/sequential_5/residual_stack_._0._._2/conv1d_31/conv1d/required_space_to_batch_paddings/crops/0/0", "op": "Const", "attr": {"value": {"tensor": {"dtype": "DT_INT32", "tensorShape": {}}}, "dtype": {"type": "DT_INT32"}}}, {"name": "StatefulPartitionedCall/sequential_5/residual_stack_._0._._1/shortcut/conv1d/ExpandDims/dim", "op": "Const", "attr": {"value": {"tensor": {"dtype": "DT_INT32", "tensorShape": {}}}, "dtype": {"type": "DT_INT32"}}}, {"name": "StatefulPartitionedCall/sequential_5/residual_stack_._0._._1/shortcut/conv1d/ExpandDims_1", "op": "Const", "attr": {"value": {"tensor": {"dtype": "DT_FLOAT", "tensorShape": {"dim": [{"size": "1"}, {"size": "1"}, {"size": "192"}, {"size": "192"}]}}}, "dtype": {"type": "DT_FLOAT"}}}, {"name": "StatefulPartitionedCall/sequential_5/residual_stack_._0._._1/shortcut/BiasAdd/ReadVariableOp", "op": "Const", "attr": {"dtype": {"type": "DT_FLOAT"}, "value": {"tensor": {"dtype": "DT_FLOAT", "tensorShape": {"dim": [{"size": "192"}]}}}}}, {"name": "StatefulPartitionedCall/sequential_5/residual_stack_._0._._1/conv1d_29/conv1d/SpaceToBatchND/block_shape", "op": "Const", "attr": {"value": {"tensor": {"dtype": "DT_INT32", "tensorShape": {"dim": [{"size": "1"}]}}}, "dtype": {"type": "DT_INT32"}}}, {"name": "StatefulPartitionedCall/sequential_5/residual_stack_._0._._1/conv1d_29/conv1d/required_space_to_batch_paddings/strided_slice_2", "op": "Const", "attr": {"value": {"tensor": {"dtype": "DT_INT32", "tensorShape": {}}}, "dtype": {"type": "DT_INT32"}}}, {"name": "StatefulPartitionedCall/sequential_5/residual_stack_._0._._1/conv1d_29/conv1d/required_space_to_batch_paddings/strided_slice_3/stack", "op": "Const", "attr": {"dtype": {"type": "DT_INT32"}, "value": {"tensor": {"dtype": "DT_INT32", "tensorShape": {"dim": [{"size": "1"}]}}}}}, {"name": "StatefulPartitionedCall/sequential_5/residual_stack_._0._._1/conv1d_29/conv1d/required_space_to_batch_paddings/strided_slice_3/stack_1", "op": "Const", "attr": {"dtype": {"type": "DT_INT32"}, "value": {"tensor": {"dtype": "DT_INT32", "tensorShape": {"dim": [{"size": "1"}]}}}}}, {"name": "StatefulPartitionedCall/sequential_5/residual_stack_._0._._1/conv1d_29/conv1d/required_space_to_batch_paddings/strided_slice_3/stack_2", "op": "Const", "attr": {"dtype": {"type": "DT_INT32"}, "value": {"tensor": {"dtype": "DT_INT32", "tensorShape": {"dim": [{"size": "1"}]}}}}}, {"name": "StatefulPartitionedCall/sequential_5/residual_stack_._0._._1/conv1d_29/conv1d/ExpandDims/dim", "op": "Const", "attr": {"dtype": {"type": "DT_INT32"}, "value": {"tensor": {"dtype": "DT_INT32", "tensorShape": {}}}}}, {"name": "StatefulPartitionedCall/sequential_5/residual_stack_._0._._1/conv1d_29/conv1d/ExpandDims_1", "op": "Const", "attr": {"dtype": {"type": "DT_FLOAT"}, "value": {"tensor": {"dtype": "DT_FLOAT", "tensorShape": {"dim": [{"size": "1"}, {"size": "3"}, {"size": "192"}, {"size": "192"}]}}}}}, {"name": "StatefulPartitionedCall/sequential_5/residual_stack_._0._._1/conv1d_29/conv1d/BatchToSpaceND/block_shape", "op": "Const", "attr": {"dtype": {"type": "DT_INT32"}, "value": {"tensor": {"dtype": "DT_INT32", "tensorShape": {"dim": [{"size": "1"}]}}}}}, {"name": "StatefulPartitionedCall/sequential_5/residual_stack_._0._._1/conv1d_29/conv1d/required_space_to_batch_paddings/crops/0/0", "op": "Const", "attr": {"value": {"tensor": {"dtype": "DT_INT32", "tensorShape": {}}}, "dtype": {"type": "DT_INT32"}}}, {"name": "StatefulPartitionedCall/sequential_5/residual_stack_._0._._0/shortcut/conv1d/ExpandDims/dim", "op": "Const", "attr": {"dtype": {"type": "DT_INT32"}, "value": {"tensor": {"dtype": "DT_INT32", "tensorShape": {}}}}}, {"name": "StatefulPartitionedCall/sequential_5/residual_stack_._0._._0/shortcut/conv1d/ExpandDims_1", "op": "Const", "attr": {"dtype": {"type": "DT_FLOAT"}, "value": {"tensor": {"dtype": "DT_FLOAT", "tensorShape": {"dim": [{"size": "1"}, {"size": "1"}, {"size": "192"}, {"size": "192"}]}}}}}, {"name": "StatefulPartitionedCall/sequential_5/residual_stack_._0._._0/shortcut/BiasAdd/ReadVariableOp", "op": "Const", "attr": {"dtype": {"type": "DT_FLOAT"}, "value": {"tensor": {"dtype": "DT_FLOAT", "tensorShape": {"dim": [{"size": "192"}]}}}}}, {"name": "StatefulPartitionedCall/sequential_5/conv_transpose_._0/conv2d_transpose_3/strided_slice/stack", "op": "Const", "attr": {"dtype": {"type": "DT_INT32"}, "value": {"tensor": {"dtype": "DT_INT32", "tensorShape": {"dim": [{"size": "1"}]}}}}}, {"name": "StatefulPartitionedCall/sequential_5/conv_transpose_._0/conv2d_transpose_3/strided_slice/stack_1", "op": "Const", "attr": {"dtype": {"type": "DT_INT32"}, "value": {"tensor": {"dtype": "DT_INT32", "tensorShape": {"dim": [{"size": "1"}]}}}}}, {"name": "StatefulPartitionedCall/sequential_5/conv_transpose_._0/conv2d_transpose_3/strided_slice/stack_2", "op": "Const", "attr": {"value": {"tensor": {"dtype": "DT_INT32", "tensorShape": {"dim": [{"size": "1"}]}}}, "dtype": {"type": "DT_INT32"}}}, {"name": "StatefulPartitionedCall/sequential_5/conv_transpose_._0/conv2d_transpose_3/strided_slice_1/stack", "op": "Const", "attr": {"value": {"tensor": {"dtype": "DT_INT32", "tensorShape": {"dim": [{"size": "1"}]}}}, "dtype": {"type": "DT_INT32"}}}, {"name": "StatefulPartitionedCall/sequential_5/conv_transpose_._0/conv2d_transpose_3/strided_slice_1/stack_1", "op": "Const", "attr": {"value": {"tensor": {"dtype": "DT_INT32", "tensorShape": {"dim": [{"size": "1"}]}}}, "dtype": {"type": "DT_INT32"}}}, {"name": "StatefulPartitionedCall/sequential_5/conv_transpose_._0/conv2d_transpose_3/strided_slice_1/stack_2", "op": "Const", "attr": {"value": {"tensor": {"dtype": "DT_INT32", "tensorShape": {"dim": [{"size": "1"}]}}}, "dtype": {"type": "DT_INT32"}}}, {"name": "StatefulPartitionedCall/sequential_5/conv_transpose_._0/conv2d_transpose_3/mul/y", "op": "Const", "attr": {"dtype": {"type": "DT_INT32"}, "value": {"tensor": {"dtype": "DT_INT32", "tensorShape": {}}}}}, {"name": "StatefulPartitionedCall/sequential_5/conv_transpose_._0/conv2d_transpose_3/stack/2", "op": "Const", "attr": {"dtype": {"type": "DT_INT32"}, "value": {"tensor": {"dtype": "DT_INT32", "tensorShape": {}}}}}, {"name": "StatefulPartitionedCall/sequential_5/conv_transpose_._0/conv2d_transpose_3/stack/3", "op": "Const", "attr": {"value": {"tensor": {"dtype": "DT_INT32", "tensorShape": {}}}, "dtype": {"type": "DT_INT32"}}}, {"name": "StatefulPartitionedCall/sequential_5/conv_transpose_._0/conv2d_transpose_3/conv2d_transpose/ReadVariableOp", "op": "Const", "attr": {"value": {"tensor": {"dtype": "DT_FLOAT", "tensorShape": {"dim": [{"size": "16"}, {"size": "1"}, {"size": "192"}, {"size": "384"}]}}}, "dtype": {"type": "DT_FLOAT"}}}, {"name": "StatefulPartitionedCall/sequential_5/first_reflect_padding/MirrorPad/paddings", "op": "Const", "attr": {"value": {"tensor": {"dtype": "DT_INT32", "tensorShape": {"dim": [{"size": "3"}, {"size": "2"}]}}}, "dtype": {"type": "DT_INT32"}}}, {"name": "StatefulPartitionedCall/sequential_5/conv1d_26/conv1d/ExpandDims/dim", "op": "Const", "attr": {"dtype": {"type": "DT_INT32"}, "value": {"tensor": {"dtype": "DT_INT32", "tensorShape": {}}}}}, {"name": "StatefulPartitionedCall/sequential_5/conv1d_26/conv1d/ExpandDims_1", "op": "Const", "attr": {"value": {"tensor": {"dtype": "DT_FLOAT", "tensorShape": {"dim": [{"size": "1"}, {"size": "7"}, {"size": "80"}, {"size": "384"}]}}}, "dtype": {"type": "DT_FLOAT"}}}, {"name": "StatefulPartitionedCall/sequential_5/conv1d_26/BiasAdd/ReadVariableOp", "op": "Const", "attr": {"value": {"tensor": {"dtype": "DT_FLOAT", "tensorShape": {"dim": [{"size": "384"}]}}}, "dtype": {"type": "DT_FLOAT"}}}, {"name": "StatefulPartitionedCall/sequential_5/conv_transpose_._0/ExpandDims/dim", "op": "Const", "attr": {"dtype": {"type": "DT_INT32"}, "value": {"tensor": {"dtype": "DT_INT32", "tensorShape": {}}}}}, {"name": "StatefulPartitionedCall/sequential_5/conv_transpose_._0/conv2d_transpose_3/BiasAdd/ReadVariableOp", "op": "Const", "attr": {"dtype": {"type": "DT_FLOAT"}, "value": {"tensor": {"dtype": "DT_FLOAT", "tensorShape": {"dim": [{"size": "192"}]}}}}}, {"name": "StatefulPartitionedCall/sequential_5/residual_stack_._0._._0/tf_reflection_pad1d_12/MirrorPad/paddings", "op": "Const", "attr": {"dtype": {"type": "DT_INT32"}, "value": {"tensor": {"dtype": "DT_INT32", "tensorShape": {"dim": [{"size": "3"}, {"size": "2"}]}}}}}, {"name": "StatefulPartitionedCall/sequential_5/residual_stack_._0._._0/conv1d_27/conv1d/ExpandDims/dim", "op": "Const", "attr": {"dtype": {"type": "DT_INT32"}, "value": {"tensor": {"dtype": "DT_INT32", "tensorShape": {}}}}}, {"name": "StatefulPartitionedCall/sequential_5/residual_stack_._0._._0/conv1d_27/conv1d/ExpandDims_1", "op": "Const", "attr": {"dtype": {"type": "DT_FLOAT"}, "value": {"tensor": {"dtype": "DT_FLOAT", "tensorShape": {"dim": [{"size": "1"}, {"size": "3"}, {"size": "192"}, {"size": "192"}]}}}}}, {"name": "StatefulPartitionedCall/sequential_5/residual_stack_._0._._0/conv1d_27/BiasAdd/ReadVariableOp", "op": "Const", "attr": {"dtype": {"type": "DT_FLOAT"}, "value": {"tensor": {"dtype": "DT_FLOAT", "tensorShape": {"dim": [{"size": "192"}]}}}}}, {"name": "StatefulPartitionedCall/sequential_5/residual_stack_._0._._0/conv1d_28/conv1d/ExpandDims/dim", "op": "Const", "attr": {"dtype": {"type": "DT_INT32"}, "value": {"tensor": {"dtype": "DT_INT32", "tensorShape": {}}}}}, {"name": "StatefulPartitionedCall/sequential_5/residual_stack_._0._._0/conv1d_28/conv1d/ExpandDims_1", "op": "Const", "attr": {"value": {"tensor": {"dtype": "DT_FLOAT", "tensorShape": {"dim": [{"size": "1"}, {"size": "1"}, {"size": "192"}, {"size": "192"}]}}}, "dtype": {"type": "DT_FLOAT"}}}, {"name": "StatefulPartitionedCall/sequential_5/residual_stack_._0._._0/conv1d_28/BiasAdd/ReadVariableOp", "op": "Const", "attr": {"value": {"tensor": {"dtype": "DT_FLOAT", "tensorShape": {"dim": [{"size": "192"}]}}}, "dtype": {"type": "DT_FLOAT"}}}, {"name": "StatefulPartitionedCall/sequential_5/residual_stack_._0._._1/tf_reflection_pad1d_13/MirrorPad/paddings", "op": "Const", "attr": {"dtype": {"type": "DT_INT32"}, "value": {"tensor": {"dtype": "DT_INT32", "tensorShape": {"dim": [{"size": "3"}, {"size": "2"}]}}}}}, {"name": "StatefulPartitionedCall/sequential_5/residual_stack_._0._._1/conv1d_29/conv1d/strided_slice/stack", "op": "Const", "attr": {"value": {"tensor": {"dtype": "DT_INT32", "tensorShape": {"dim": [{"size": "1"}]}}}, "dtype": {"type": "DT_INT32"}}}, {"name": "StatefulPartitionedCall/sequential_5/residual_stack_._0._._1/conv1d_29/conv1d/strided_slice/stack_1", "op": "Const", "attr": {"value": {"tensor": {"dtype": "DT_INT32", "tensorShape": {"dim": [{"size": "1"}]}}}, "dtype": {"type": "DT_INT32"}}}, {"name": "StatefulPartitionedCall/sequential_5/residual_stack_._0._._1/conv1d_29/conv1d/strided_slice/stack_2", "op": "Const", "attr": {"value": {"tensor": {"dtype": "DT_INT32", "tensorShape": {"dim": [{"size": "1"}]}}}, "dtype": {"type": "DT_INT32"}}}, {"name": "StatefulPartitionedCall/sequential_5/residual_stack_._0._._1/conv1d_29/conv1d/dilation_rate", "op": "Const", "attr": {"dtype": {"type": "DT_INT32"}, "value": {"tensor": {"dtype": "DT_INT32", "tensorShape": {"dim": [{"size": "1"}]}}}}}, {"name": "StatefulPartitionedCall/sequential_5/residual_stack_._0._._1/conv1d_29/conv1d/required_space_to_batch_paddings/strided_slice_4/stack", "op": "Const", "attr": {"dtype": {"type": "DT_INT32"}, "value": {"tensor": {"dtype": "DT_INT32", "tensorShape": {"dim": [{"size": "1"}]}}}}}, {"name": "StatefulPartitionedCall/sequential_5/residual_stack_._0._._1/conv1d_29/conv1d/required_space_to_batch_paddings/strided_slice_4/stack_1", "op": "Const", "attr": {"value": {"tensor": {"dtype": "DT_INT32", "tensorShape": {"dim": [{"size": "1"}]}}}, "dtype": {"type": "DT_INT32"}}}, {"name": "StatefulPartitionedCall/sequential_5/residual_stack_._0._._1/conv1d_29/conv1d/required_space_to_batch_paddings/strided_slice_4/stack_2", "op": "Const", "attr": {"value": {"tensor": {"dtype": "DT_INT32", "tensorShape": {"dim": [{"size": "1"}]}}}, "dtype": {"type": "DT_INT32"}}}, {"name": "StatefulPartitionedCall/sequential_5/residual_stack_._0._._1/conv1d_29/BiasAdd/ReadVariableOp", "op": "Const", "attr": {"value": {"tensor": {"dtype": "DT_FLOAT", "tensorShape": {"dim": [{"size": "192"}]}}}, "dtype": {"type": "DT_FLOAT"}}}, {"name": "StatefulPartitionedCall/sequential_5/residual_stack_._0._._1/conv1d_30/conv1d/ExpandDims/dim", "op": "Const", "attr": {"value": {"tensor": {"dtype": "DT_INT32", "tensorShape": {}}}, "dtype": {"type": "DT_INT32"}}}, {"name": "StatefulPartitionedCall/sequential_5/residual_stack_._0._._1/conv1d_30/conv1d/ExpandDims_1", "op": "Const", "attr": {"dtype": {"type": "DT_FLOAT"}, "value": {"tensor": {"dtype": "DT_FLOAT", "tensorShape": {"dim": [{"size": "1"}, {"size": "1"}, {"size": "192"}, {"size": "192"}]}}}}}, {"name": "StatefulPartitionedCall/sequential_5/residual_stack_._0._._1/conv1d_30/BiasAdd/ReadVariableOp", "op": "Const", "attr": {"dtype": {"type": "DT_FLOAT"}, "value": {"tensor": {"dtype": "DT_FLOAT", "tensorShape": {"dim": [{"size": "192"}]}}}}}, {"name": "StatefulPartitionedCall/sequential_5/residual_stack_._0._._2/tf_reflection_pad1d_14/MirrorPad/paddings", "op": "Const", "attr": {"value": {"tensor": {"dtype": "DT_INT32", "tensorShape": {"dim": [{"size": "3"}, {"size": "2"}]}}}, "dtype": {"type": "DT_INT32"}}}, {"name": "StatefulPartitionedCall/sequential_5/residual_stack_._0._._2/conv1d_31/conv1d/strided_slice/stack", "op": "Const", "attr": {"value": {"tensor": {"dtype": "DT_INT32", "tensorShape": {"dim": [{"size": "1"}]}}}, "dtype": {"type": "DT_INT32"}}}, {"name": "StatefulPartitionedCall/sequential_5/residual_stack_._0._._2/conv1d_31/conv1d/strided_slice/stack_1", "op": "Const", "attr": {"value": {"tensor": {"dtype": "DT_INT32", "tensorShape": {"dim": [{"size": "1"}]}}}, "dtype": {"type": "DT_INT32"}}}, {"name": "StatefulPartitionedCall/sequential_5/residual_stack_._0._._2/conv1d_31/conv1d/strided_slice/stack_2", "op": "Const", "attr": {"value": {"tensor": {"dtype": "DT_INT32", "tensorShape": {"dim": [{"size": "1"}]}}}, "dtype": {"type": "DT_INT32"}}}, {"name": "StatefulPartitionedCall/sequential_5/residual_stack_._0._._2/conv1d_31/conv1d/dilation_rate", "op": "Const", "attr": {"value": {"tensor": {"dtype": "DT_INT32", "tensorShape": {"dim": [{"size": "1"}]}}}, "dtype": {"type": "DT_INT32"}}}, {"name": "StatefulPartitionedCall/sequential_5/residual_stack_._0._._2/conv1d_31/conv1d/required_space_to_batch_paddings/strided_slice_4/stack", "op": "Const", "attr": {"value": {"tensor": {"dtype": "DT_INT32", "tensorShape": {"dim": [{"size": "1"}]}}}, "dtype": {"type": "DT_INT32"}}}, {"name": "StatefulPartitionedCall/sequential_5/residual_stack_._0._._2/conv1d_31/conv1d/required_space_to_batch_paddings/strided_slice_4/stack_1", "op": "Const", "attr": {"value": {"tensor": {"dtype": "DT_INT32", "tensorShape": {"dim": [{"size": "1"}]}}}, "dtype": {"type": "DT_INT32"}}}, {"name": "StatefulPartitionedCall/sequential_5/residual_stack_._0._._2/conv1d_31/conv1d/required_space_to_batch_paddings/strided_slice_4/stack_2", "op": "Const", "attr": {"dtype": {"type": "DT_INT32"}, "value": {"tensor": {"dtype": "DT_INT32", "tensorShape": {"dim": [{"size": "1"}]}}}}}, {"name": "StatefulPartitionedCall/sequential_5/residual_stack_._0._._2/conv1d_31/BiasAdd/ReadVariableOp", "op": "Const", "attr": {"value": {"tensor": {"dtype": "DT_FLOAT", "tensorShape": {"dim": [{"size": "192"}]}}}, "dtype": {"type": "DT_FLOAT"}}}, {"name": "StatefulPartitionedCall/sequential_5/residual_stack_._0._._2/conv1d_32/conv1d/ExpandDims/dim", "op": "Const", "attr": {"dtype": {"type": "DT_INT32"}, "value": {"tensor": {"dtype": "DT_INT32", "tensorShape": {}}}}}, {"name": "StatefulPartitionedCall/sequential_5/residual_stack_._0._._2/conv1d_32/conv1d/ExpandDims_1", "op": "Const", "attr": {"value": {"tensor": {"dtype": "DT_FLOAT", "tensorShape": {"dim": [{"size": "1"}, {"size": "1"}, {"size": "192"}, {"size": "192"}]}}}, "dtype": {"type": "DT_FLOAT"}}}, {"name": "StatefulPartitionedCall/sequential_5/residual_stack_._0._._2/conv1d_32/BiasAdd/ReadVariableOp", "op": "Const", "attr": {"dtype": {"type": "DT_FLOAT"}, "value": {"tensor": {"dtype": "DT_FLOAT", "tensorShape": {"dim": [{"size": "192"}]}}}}}, {"name": "StatefulPartitionedCall/sequential_5/residual_stack_._0._._3/tf_reflection_pad1d_15/MirrorPad/paddings", "op": "Const", "attr": {"value": {"tensor": {"dtype": "DT_INT32", "tensorShape": {"dim": [{"size": "3"}, {"size": "2"}]}}}, "dtype": {"type": "DT_INT32"}}}, {"name": "StatefulPartitionedCall/sequential_5/residual_stack_._0._._3/conv1d_33/conv1d/strided_slice/stack", "op": "Const", "attr": {"dtype": {"type": "DT_INT32"}, "value": {"tensor": {"dtype": "DT_INT32", "tensorShape": {"dim": [{"size": "1"}]}}}}}, {"name": "StatefulPartitionedCall/sequential_5/residual_stack_._0._._3/conv1d_33/conv1d/strided_slice/stack_1", "op": "Const", "attr": {"value": {"tensor": {"dtype": "DT_INT32", "tensorShape": {"dim": [{"size": "1"}]}}}, "dtype": {"type": "DT_INT32"}}}, {"name": "StatefulPartitionedCall/sequential_5/residual_stack_._0._._3/conv1d_33/conv1d/strided_slice/stack_2", "op": "Const", "attr": {"value": {"tensor": {"dtype": "DT_INT32", "tensorShape": {"dim": [{"size": "1"}]}}}, "dtype": {"type": "DT_INT32"}}}, {"name": "StatefulPartitionedCall/sequential_5/residual_stack_._0._._3/conv1d_33/conv1d/dilation_rate", "op": "Const", "attr": {"dtype": {"type": "DT_INT32"}, "value": {"tensor": {"dtype": "DT_INT32", "tensorShape": {"dim": [{"size": "1"}]}}}}}, {"name": "StatefulPartitionedCall/sequential_5/residual_stack_._0._._3/conv1d_33/conv1d/required_space_to_batch_paddings/strided_slice_4/stack", "op": "Const", "attr": {"value": {"tensor": {"dtype": "DT_INT32", "tensorShape": {"dim": [{"size": "1"}]}}}, "dtype": {"type": "DT_INT32"}}}, {"name": "StatefulPartitionedCall/sequential_5/residual_stack_._0._._3/conv1d_33/conv1d/required_space_to_batch_paddings/strided_slice_4/stack_1", "op": "Const", "attr": {"dtype": {"type": "DT_INT32"}, "value": {"tensor": {"dtype": "DT_INT32", "tensorShape": {"dim": [{"size": "1"}]}}}}}, {"name": "StatefulPartitionedCall/sequential_5/residual_stack_._0._._3/conv1d_33/conv1d/required_space_to_batch_paddings/strided_slice_4/stack_2", "op": "Const", "attr": {"dtype": {"type": "DT_INT32"}, "value": {"tensor": {"dtype": "DT_INT32", "tensorShape": {"dim": [{"size": "1"}]}}}}}, {"name": "StatefulPartitionedCall/sequential_5/residual_stack_._0._._3/conv1d_33/BiasAdd/ReadVariableOp", "op": "Const", "attr": {"value": {"tensor": {"dtype": "DT_FLOAT", "tensorShape": {"dim": [{"size": "192"}]}}}, "dtype": {"type": "DT_FLOAT"}}}, {"name": "StatefulPartitionedCall/sequential_5/residual_stack_._0._._3/conv1d_34/conv1d/ExpandDims/dim", "op": "Const", "attr": {"dtype": {"type": "DT_INT32"}, "value": {"tensor": {"dtype": "DT_INT32", "tensorShape": {}}}}}, {"name": "StatefulPartitionedCall/sequential_5/residual_stack_._0._._3/conv1d_34/conv1d/ExpandDims_1", "op": "Const", "attr": {"dtype": {"type": "DT_FLOAT"}, "value": {"tensor": {"dtype": "DT_FLOAT", "tensorShape": {"dim": [{"size": "1"}, {"size": "1"}, {"size": "192"}, {"size": "192"}]}}}}}, {"name": "StatefulPartitionedCall/sequential_5/residual_stack_._0._._3/conv1d_34/BiasAdd/ReadVariableOp", "op": "Const", "attr": {"dtype": {"type": "DT_FLOAT"}, "value": {"tensor": {"dtype": "DT_FLOAT", "tensorShape": {"dim": [{"size": "192"}]}}}}}, {"name": "StatefulPartitionedCall/sequential_5/conv_transpose_._1/ExpandDims/dim", "op": "Const", "attr": {"dtype": {"type": "DT_INT32"}, "value": {"tensor": {"dtype": "DT_INT32", "tensorShape": {}}}}}, {"name": "StatefulPartitionedCall/sequential_5/conv_transpose_._1/conv2d_transpose_4/BiasAdd/ReadVariableOp", "op": "Const", "attr": {"dtype": {"type": "DT_FLOAT"}, "value": {"tensor": {"dtype": "DT_FLOAT", "tensorShape": {"dim": [{"size": "96"}]}}}}}, {"name": "StatefulPartitionedCall/sequential_5/residual_stack_._1._._0/tf_reflection_pad1d_16/MirrorPad/paddings", "op": "Const", "attr": {"dtype": {"type": "DT_INT32"}, "value": {"tensor": {"dtype": "DT_INT32", "tensorShape": {"dim": [{"size": "3"}, {"size": "2"}]}}}}}, {"name": "StatefulPartitionedCall/sequential_5/residual_stack_._1._._0/conv1d_35/conv1d/ExpandDims/dim", "op": "Const", "attr": {"dtype": {"type": "DT_INT32"}, "value": {"tensor": {"dtype": "DT_INT32", "tensorShape": {}}}}}, {"name": "StatefulPartitionedCall/sequential_5/residual_stack_._1._._0/conv1d_35/conv1d/ExpandDims_1", "op": "Const", "attr": {"value": {"tensor": {"dtype": "DT_FLOAT", "tensorShape": {"dim": [{"size": "1"}, {"size": "3"}, {"size": "96"}, {"size": "96"}]}}}, "dtype": {"type": "DT_FLOAT"}}}, {"name": "StatefulPartitionedCall/sequential_5/residual_stack_._1._._0/conv1d_35/BiasAdd/ReadVariableOp", "op": "Const", "attr": {"value": {"tensor": {"dtype": "DT_FLOAT", "tensorShape": {"dim": [{"size": "96"}]}}}, "dtype": {"type": "DT_FLOAT"}}}, {"name": "StatefulPartitionedCall/sequential_5/residual_stack_._1._._0/conv1d_36/conv1d/ExpandDims/dim", "op": "Const", "attr": {"value": {"tensor": {"dtype": "DT_INT32", "tensorShape": {}}}, "dtype": {"type": "DT_INT32"}}}, {"name": "StatefulPartitionedCall/sequential_5/residual_stack_._1._._0/conv1d_36/conv1d/ExpandDims_1", "op": "Const", "attr": {"value": {"tensor": {"dtype": "DT_FLOAT", "tensorShape": {"dim": [{"size": "1"}, {"size": "1"}, {"size": "96"}, {"size": "96"}]}}}, "dtype": {"type": "DT_FLOAT"}}}, {"name": "StatefulPartitionedCall/sequential_5/residual_stack_._1._._0/conv1d_36/BiasAdd/ReadVariableOp", "op": "Const", "attr": {"dtype": {"type": "DT_FLOAT"}, "value": {"tensor": {"dtype": "DT_FLOAT", "tensorShape": {"dim": [{"size": "96"}]}}}}}, {"name": "StatefulPartitionedCall/sequential_5/residual_stack_._1._._1/tf_reflection_pad1d_17/MirrorPad/paddings", "op": "Const", "attr": {"value": {"tensor": {"dtype": "DT_INT32", "tensorShape": {"dim": [{"size": "3"}, {"size": "2"}]}}}, "dtype": {"type": "DT_INT32"}}}, {"name": "StatefulPartitionedCall/sequential_5/residual_stack_._1._._1/conv1d_37/conv1d/strided_slice/stack", "op": "Const", "attr": {"value": {"tensor": {"dtype": "DT_INT32", "tensorShape": {"dim": [{"size": "1"}]}}}, "dtype": {"type": "DT_INT32"}}}, {"name": "StatefulPartitionedCall/sequential_5/residual_stack_._1._._1/conv1d_37/conv1d/strided_slice/stack_1", "op": "Const", "attr": {"dtype": {"type": "DT_INT32"}, "value": {"tensor": {"dtype": "DT_INT32", "tensorShape": {"dim": [{"size": "1"}]}}}}}, {"name": "StatefulPartitionedCall/sequential_5/residual_stack_._1._._1/conv1d_37/conv1d/strided_slice/stack_2", "op": "Const", "attr": {"dtype": {"type": "DT_INT32"}, "value": {"tensor": {"dtype": "DT_INT32", "tensorShape": {"dim": [{"size": "1"}]}}}}}, {"name": "StatefulPartitionedCall/sequential_5/residual_stack_._1._._1/conv1d_37/conv1d/dilation_rate", "op": "Const", "attr": {"value": {"tensor": {"dtype": "DT_INT32", "tensorShape": {"dim": [{"size": "1"}]}}}, "dtype": {"type": "DT_INT32"}}}, {"name": "StatefulPartitionedCall/sequential_5/residual_stack_._1._._1/conv1d_37/conv1d/required_space_to_batch_paddings/strided_slice_4/stack", "op": "Const", "attr": {"value": {"tensor": {"dtype": "DT_INT32", "tensorShape": {"dim": [{"size": "1"}]}}}, "dtype": {"type": "DT_INT32"}}}, {"name": "StatefulPartitionedCall/sequential_5/residual_stack_._1._._1/conv1d_37/conv1d/required_space_to_batch_paddings/strided_slice_4/stack_1", "op": "Const", "attr": {"value": {"tensor": {"dtype": "DT_INT32", "tensorShape": {"dim": [{"size": "1"}]}}}, "dtype": {"type": "DT_INT32"}}}, {"name": "StatefulPartitionedCall/sequential_5/residual_stack_._1._._1/conv1d_37/conv1d/required_space_to_batch_paddings/strided_slice_4/stack_2", "op": "Const", "attr": {"dtype": {"type": "DT_INT32"}, "value": {"tensor": {"dtype": "DT_INT32", "tensorShape": {"dim": [{"size": "1"}]}}}}}, {"name": "StatefulPartitionedCall/sequential_5/residual_stack_._1._._1/conv1d_37/BiasAdd/ReadVariableOp", "op": "Const", "attr": {"dtype": {"type": "DT_FLOAT"}, "value": {"tensor": {"dtype": "DT_FLOAT", "tensorShape": {"dim": [{"size": "96"}]}}}}}, {"name": "StatefulPartitionedCall/sequential_5/residual_stack_._1._._1/conv1d_38/conv1d/ExpandDims/dim", "op": "Const", "attr": {"value": {"tensor": {"dtype": "DT_INT32", "tensorShape": {}}}, "dtype": {"type": "DT_INT32"}}}, {"name": "StatefulPartitionedCall/sequential_5/residual_stack_._1._._1/conv1d_38/conv1d/ExpandDims_1", "op": "Const", "attr": {"dtype": {"type": "DT_FLOAT"}, "value": {"tensor": {"dtype": "DT_FLOAT", "tensorShape": {"dim": [{"size": "1"}, {"size": "1"}, {"size": "96"}, {"size": "96"}]}}}}}, {"name": "StatefulPartitionedCall/sequential_5/residual_stack_._1._._1/conv1d_38/BiasAdd/ReadVariableOp", "op": "Const", "attr": {"value": {"tensor": {"dtype": "DT_FLOAT", "tensorShape": {"dim": [{"size": "96"}]}}}, "dtype": {"type": "DT_FLOAT"}}}, {"name": "StatefulPartitionedCall/sequential_5/residual_stack_._1._._2/tf_reflection_pad1d_18/MirrorPad/paddings", "op": "Const", "attr": {"dtype": {"type": "DT_INT32"}, "value": {"tensor": {"dtype": "DT_INT32", "tensorShape": {"dim": [{"size": "3"}, {"size": "2"}]}}}}}, {"name": "StatefulPartitionedCall/sequential_5/residual_stack_._1._._2/conv1d_39/conv1d/strided_slice/stack", "op": "Const", "attr": {"value": {"tensor": {"dtype": "DT_INT32", "tensorShape": {"dim": [{"size": "1"}]}}}, "dtype": {"type": "DT_INT32"}}}, {"name": "StatefulPartitionedCall/sequential_5/residual_stack_._1._._2/conv1d_39/conv1d/strided_slice/stack_1", "op": "Const", "attr": {"dtype": {"type": "DT_INT32"}, "value": {"tensor": {"dtype": "DT_INT32", "tensorShape": {"dim": [{"size": "1"}]}}}}}, {"name": "StatefulPartitionedCall/sequential_5/residual_stack_._1._._2/conv1d_39/conv1d/strided_slice/stack_2", "op": "Const", "attr": {"value": {"tensor": {"dtype": "DT_INT32", "tensorShape": {"dim": [{"size": "1"}]}}}, "dtype": {"type": "DT_INT32"}}}, {"name": "StatefulPartitionedCall/sequential_5/residual_stack_._1._._2/conv1d_39/conv1d/dilation_rate", "op": "Const", "attr": {"value": {"tensor": {"dtype": "DT_INT32", "tensorShape": {"dim": [{"size": "1"}]}}}, "dtype": {"type": "DT_INT32"}}}, {"name": "StatefulPartitionedCall/sequential_5/residual_stack_._1._._2/conv1d_39/conv1d/required_space_to_batch_paddings/strided_slice_4/stack", "op": "Const", "attr": {"value": {"tensor": {"dtype": "DT_INT32", "tensorShape": {"dim": [{"size": "1"}]}}}, "dtype": {"type": "DT_INT32"}}}, {"name": "StatefulPartitionedCall/sequential_5/residual_stack_._1._._2/conv1d_39/conv1d/required_space_to_batch_paddings/strided_slice_4/stack_1", "op": "Const", "attr": {"value": {"tensor": {"dtype": "DT_INT32", "tensorShape": {"dim": [{"size": "1"}]}}}, "dtype": {"type": "DT_INT32"}}}, {"name": "StatefulPartitionedCall/sequential_5/residual_stack_._1._._2/conv1d_39/conv1d/required_space_to_batch_paddings/strided_slice_4/stack_2", "op": "Const", "attr": {"dtype": {"type": "DT_INT32"}, "value": {"tensor": {"dtype": "DT_INT32", "tensorShape": {"dim": [{"size": "1"}]}}}}}, {"name": "StatefulPartitionedCall/sequential_5/residual_stack_._1._._2/conv1d_39/BiasAdd/ReadVariableOp", "op": "Const", "attr": {"dtype": {"type": "DT_FLOAT"}, "value": {"tensor": {"dtype": "DT_FLOAT", "tensorShape": {"dim": [{"size": "96"}]}}}}}, {"name": "StatefulPartitionedCall/sequential_5/residual_stack_._1._._2/conv1d_40/conv1d/ExpandDims/dim", "op": "Const", "attr": {"value": {"tensor": {"dtype": "DT_INT32", "tensorShape": {}}}, "dtype": {"type": "DT_INT32"}}}, {"name": "StatefulPartitionedCall/sequential_5/residual_stack_._1._._2/conv1d_40/conv1d/ExpandDims_1", "op": "Const", "attr": {"dtype": {"type": "DT_FLOAT"}, "value": {"tensor": {"dtype": "DT_FLOAT", "tensorShape": {"dim": [{"size": "1"}, {"size": "1"}, {"size": "96"}, {"size": "96"}]}}}}}, {"name": "StatefulPartitionedCall/sequential_5/residual_stack_._1._._2/conv1d_40/BiasAdd/ReadVariableOp", "op": "Const", "attr": {"value": {"tensor": {"dtype": "DT_FLOAT", "tensorShape": {"dim": [{"size": "96"}]}}}, "dtype": {"type": "DT_FLOAT"}}}, {"name": "StatefulPartitionedCall/sequential_5/residual_stack_._1._._3/tf_reflection_pad1d_19/MirrorPad/paddings", "op": "Const", "attr": {"value": {"tensor": {"dtype": "DT_INT32", "tensorShape": {"dim": [{"size": "3"}, {"size": "2"}]}}}, "dtype": {"type": "DT_INT32"}}}, {"name": "StatefulPartitionedCall/sequential_5/residual_stack_._1._._3/conv1d_41/conv1d/strided_slice/stack", "op": "Const", "attr": {"dtype": {"type": "DT_INT32"}, "value": {"tensor": {"dtype": "DT_INT32", "tensorShape": {"dim": [{"size": "1"}]}}}}}, {"name": "StatefulPartitionedCall/sequential_5/residual_stack_._1._._3/conv1d_41/conv1d/strided_slice/stack_1", "op": "Const", "attr": {"value": {"tensor": {"dtype": "DT_INT32", "tensorShape": {"dim": [{"size": "1"}]}}}, "dtype": {"type": "DT_INT32"}}}, {"name": "StatefulPartitionedCall/sequential_5/residual_stack_._1._._3/conv1d_41/conv1d/strided_slice/stack_2", "op": "Const", "attr": {"dtype": {"type": "DT_INT32"}, "value": {"tensor": {"dtype": "DT_INT32", "tensorShape": {"dim": [{"size": "1"}]}}}}}, {"name": "StatefulPartitionedCall/sequential_5/residual_stack_._1._._3/conv1d_41/conv1d/dilation_rate", "op": "Const", "attr": {"value": {"tensor": {"dtype": "DT_INT32", "tensorShape": {"dim": [{"size": "1"}]}}}, "dtype": {"type": "DT_INT32"}}}, {"name": "StatefulPartitionedCall/sequential_5/residual_stack_._1._._3/conv1d_41/conv1d/required_space_to_batch_paddings/strided_slice_4/stack", "op": "Const", "attr": {"dtype": {"type": "DT_INT32"}, "value": {"tensor": {"dtype": "DT_INT32", "tensorShape": {"dim": [{"size": "1"}]}}}}}, {"name": "StatefulPartitionedCall/sequential_5/residual_stack_._1._._3/conv1d_41/conv1d/required_space_to_batch_paddings/strided_slice_4/stack_1", "op": "Const", "attr": {"value": {"tensor": {"dtype": "DT_INT32", "tensorShape": {"dim": [{"size": "1"}]}}}, "dtype": {"type": "DT_INT32"}}}, {"name": "StatefulPartitionedCall/sequential_5/residual_stack_._1._._3/conv1d_41/conv1d/required_space_to_batch_paddings/strided_slice_4/stack_2", "op": "Const", "attr": {"dtype": {"type": "DT_INT32"}, "value": {"tensor": {"dtype": "DT_INT32", "tensorShape": {"dim": [{"size": "1"}]}}}}}, {"name": "StatefulPartitionedCall/sequential_5/residual_stack_._1._._3/conv1d_41/BiasAdd/ReadVariableOp", "op": "Const", "attr": {"value": {"tensor": {"dtype": "DT_FLOAT", "tensorShape": {"dim": [{"size": "96"}]}}}, "dtype": {"type": "DT_FLOAT"}}}, {"name": "StatefulPartitionedCall/sequential_5/residual_stack_._1._._3/conv1d_42/conv1d/ExpandDims/dim", "op": "Const", "attr": {"dtype": {"type": "DT_INT32"}, "value": {"tensor": {"dtype": "DT_INT32", "tensorShape": {}}}}}, {"name": "StatefulPartitionedCall/sequential_5/residual_stack_._1._._3/conv1d_42/conv1d/ExpandDims_1", "op": "Const", "attr": {"value": {"tensor": {"dtype": "DT_FLOAT", "tensorShape": {"dim": [{"size": "1"}, {"size": "1"}, {"size": "96"}, {"size": "96"}]}}}, "dtype": {"type": "DT_FLOAT"}}}, {"name": "StatefulPartitionedCall/sequential_5/residual_stack_._1._._3/conv1d_42/BiasAdd/ReadVariableOp", "op": "Const", "attr": {"dtype": {"type": "DT_FLOAT"}, "value": {"tensor": {"dtype": "DT_FLOAT", "tensorShape": {"dim": [{"size": "96"}]}}}}}, {"name": "StatefulPartitionedCall/sequential_5/conv_transpose_._2/ExpandDims/dim", "op": "Const", "attr": {"dtype": {"type": "DT_INT32"}, "value": {"tensor": {"dtype": "DT_INT32", "tensorShape": {}}}}}, {"name": "StatefulPartitionedCall/sequential_5/conv_transpose_._2/conv2d_transpose_5/BiasAdd/ReadVariableOp", "op": "Const", "attr": {"dtype": {"type": "DT_FLOAT"}, "value": {"tensor": {"dtype": "DT_FLOAT", "tensorShape": {"dim": [{"size": "48"}]}}}}}, {"name": "StatefulPartitionedCall/sequential_5/residual_stack_._2._._0/tf_reflection_pad1d_20/MirrorPad/paddings", "op": "Const", "attr": {"value": {"tensor": {"dtype": "DT_INT32", "tensorShape": {"dim": [{"size": "3"}, {"size": "2"}]}}}, "dtype": {"type": "DT_INT32"}}}, {"name": "StatefulPartitionedCall/sequential_5/residual_stack_._2._._0/conv1d_43/conv1d/ExpandDims/dim", "op": "Const", "attr": {"dtype": {"type": "DT_INT32"}, "value": {"tensor": {"dtype": "DT_INT32", "tensorShape": {}}}}}, {"name": "StatefulPartitionedCall/sequential_5/residual_stack_._2._._0/conv1d_43/conv1d/ExpandDims_1", "op": "Const", "attr": {"dtype": {"type": "DT_FLOAT"}, "value": {"tensor": {"dtype": "DT_FLOAT", "tensorShape": {"dim": [{"size": "1"}, {"size": "3"}, {"size": "48"}, {"size": "48"}]}}}}}, {"name": "StatefulPartitionedCall/sequential_5/residual_stack_._2._._0/conv1d_43/BiasAdd/ReadVariableOp", "op": "Const", "attr": {"value": {"tensor": {"dtype": "DT_FLOAT", "tensorShape": {"dim": [{"size": "48"}]}}}, "dtype": {"type": "DT_FLOAT"}}}, {"name": "StatefulPartitionedCall/sequential_5/residual_stack_._2._._0/conv1d_44/conv1d/ExpandDims/dim", "op": "Const", "attr": {"dtype": {"type": "DT_INT32"}, "value": {"tensor": {"dtype": "DT_INT32", "tensorShape": {}}}}}, {"name": "StatefulPartitionedCall/sequential_5/residual_stack_._2._._0/conv1d_44/conv1d/ExpandDims_1", "op": "Const", "attr": {"dtype": {"type": "DT_FLOAT"}, "value": {"tensor": {"dtype": "DT_FLOAT", "tensorShape": {"dim": [{"size": "1"}, {"size": "1"}, {"size": "48"}, {"size": "48"}]}}}}}, {"name": "StatefulPartitionedCall/sequential_5/residual_stack_._2._._0/conv1d_44/BiasAdd/ReadVariableOp", "op": "Const", "attr": {"value": {"tensor": {"dtype": "DT_FLOAT", "tensorShape": {"dim": [{"size": "48"}]}}}, "dtype": {"type": "DT_FLOAT"}}}, {"name": "StatefulPartitionedCall/sequential_5/residual_stack_._2._._1/tf_reflection_pad1d_21/MirrorPad/paddings", "op": "Const", "attr": {"dtype": {"type": "DT_INT32"}, "value": {"tensor": {"dtype": "DT_INT32", "tensorShape": {"dim": [{"size": "3"}, {"size": "2"}]}}}}}, {"name": "StatefulPartitionedCall/sequential_5/residual_stack_._2._._1/conv1d_45/conv1d/strided_slice/stack", "op": "Const", "attr": {"dtype": {"type": "DT_INT32"}, "value": {"tensor": {"dtype": "DT_INT32", "tensorShape": {"dim": [{"size": "1"}]}}}}}, {"name": "StatefulPartitionedCall/sequential_5/residual_stack_._2._._1/conv1d_45/conv1d/strided_slice/stack_1", "op": "Const", "attr": {"dtype": {"type": "DT_INT32"}, "value": {"tensor": {"dtype": "DT_INT32", "tensorShape": {"dim": [{"size": "1"}]}}}}}, {"name": "StatefulPartitionedCall/sequential_5/residual_stack_._2._._1/conv1d_45/conv1d/strided_slice/stack_2", "op": "Const", "attr": {"dtype": {"type": "DT_INT32"}, "value": {"tensor": {"dtype": "DT_INT32", "tensorShape": {"dim": [{"size": "1"}]}}}}}, {"name": "StatefulPartitionedCall/sequential_5/residual_stack_._2._._1/conv1d_45/conv1d/dilation_rate", "op": "Const", "attr": {"value": {"tensor": {"dtype": "DT_INT32", "tensorShape": {"dim": [{"size": "1"}]}}}, "dtype": {"type": "DT_INT32"}}}, {"name": "StatefulPartitionedCall/sequential_5/residual_stack_._2._._1/conv1d_45/conv1d/required_space_to_batch_paddings/strided_slice_4/stack", "op": "Const", "attr": {"value": {"tensor": {"dtype": "DT_INT32", "tensorShape": {"dim": [{"size": "1"}]}}}, "dtype": {"type": "DT_INT32"}}}, {"name": "StatefulPartitionedCall/sequential_5/residual_stack_._2._._1/conv1d_45/conv1d/required_space_to_batch_paddings/strided_slice_4/stack_1", "op": "Const", "attr": {"value": {"tensor": {"dtype": "DT_INT32", "tensorShape": {"dim": [{"size": "1"}]}}}, "dtype": {"type": "DT_INT32"}}}, {"name": "StatefulPartitionedCall/sequential_5/residual_stack_._2._._1/conv1d_45/conv1d/required_space_to_batch_paddings/strided_slice_4/stack_2", "op": "Const", "attr": {"value": {"tensor": {"dtype": "DT_INT32", "tensorShape": {"dim": [{"size": "1"}]}}}, "dtype": {"type": "DT_INT32"}}}, {"name": "StatefulPartitionedCall/sequential_5/residual_stack_._2._._1/conv1d_45/BiasAdd/ReadVariableOp", "op": "Const", "attr": {"value": {"tensor": {"dtype": "DT_FLOAT", "tensorShape": {"dim": [{"size": "48"}]}}}, "dtype": {"type": "DT_FLOAT"}}}, {"name": "StatefulPartitionedCall/sequential_5/residual_stack_._2._._1/conv1d_46/conv1d/ExpandDims/dim", "op": "Const", "attr": {"value": {"tensor": {"dtype": "DT_INT32", "tensorShape": {}}}, "dtype": {"type": "DT_INT32"}}}, {"name": "StatefulPartitionedCall/sequential_5/residual_stack_._2._._1/conv1d_46/conv1d/ExpandDims_1", "op": "Const", "attr": {"dtype": {"type": "DT_FLOAT"}, "value": {"tensor": {"dtype": "DT_FLOAT", "tensorShape": {"dim": [{"size": "1"}, {"size": "1"}, {"size": "48"}, {"size": "48"}]}}}}}, {"name": "StatefulPartitionedCall/sequential_5/residual_stack_._2._._1/conv1d_46/BiasAdd/ReadVariableOp", "op": "Const", "attr": {"value": {"tensor": {"dtype": "DT_FLOAT", "tensorShape": {"dim": [{"size": "48"}]}}}, "dtype": {"type": "DT_FLOAT"}}}, {"name": "StatefulPartitionedCall/sequential_5/residual_stack_._2._._2/tf_reflection_pad1d_22/MirrorPad/paddings", "op": "Const", "attr": {"dtype": {"type": "DT_INT32"}, "value": {"tensor": {"dtype": "DT_INT32", "tensorShape": {"dim": [{"size": "3"}, {"size": "2"}]}}}}}, {"name": "StatefulPartitionedCall/sequential_5/residual_stack_._2._._2/conv1d_47/conv1d/strided_slice/stack", "op": "Const", "attr": {"dtype": {"type": "DT_INT32"}, "value": {"tensor": {"dtype": "DT_INT32", "tensorShape": {"dim": [{"size": "1"}]}}}}}, {"name": "StatefulPartitionedCall/sequential_5/residual_stack_._2._._2/conv1d_47/conv1d/strided_slice/stack_1", "op": "Const", "attr": {"value": {"tensor": {"dtype": "DT_INT32", "tensorShape": {"dim": [{"size": "1"}]}}}, "dtype": {"type": "DT_INT32"}}}, {"name": "StatefulPartitionedCall/sequential_5/residual_stack_._2._._2/conv1d_47/conv1d/strided_slice/stack_2", "op": "Const", "attr": {"dtype": {"type": "DT_INT32"}, "value": {"tensor": {"dtype": "DT_INT32", "tensorShape": {"dim": [{"size": "1"}]}}}}}, {"name": "StatefulPartitionedCall/sequential_5/residual_stack_._2._._2/conv1d_47/conv1d/dilation_rate", "op": "Const", "attr": {"value": {"tensor": {"dtype": "DT_INT32", "tensorShape": {"dim": [{"size": "1"}]}}}, "dtype": {"type": "DT_INT32"}}}, {"name": "StatefulPartitionedCall/sequential_5/residual_stack_._2._._2/conv1d_47/conv1d/required_space_to_batch_paddings/strided_slice_4/stack", "op": "Const", "attr": {"dtype": {"type": "DT_INT32"}, "value": {"tensor": {"dtype": "DT_INT32", "tensorShape": {"dim": [{"size": "1"}]}}}}}, {"name": "StatefulPartitionedCall/sequential_5/residual_stack_._2._._2/conv1d_47/conv1d/required_space_to_batch_paddings/strided_slice_4/stack_1", "op": "Const", "attr": {"value": {"tensor": {"dtype": "DT_INT32", "tensorShape": {"dim": [{"size": "1"}]}}}, "dtype": {"type": "DT_INT32"}}}, {"name": "StatefulPartitionedCall/sequential_5/residual_stack_._2._._2/conv1d_47/conv1d/required_space_to_batch_paddings/strided_slice_4/stack_2", "op": "Const", "attr": {"value": {"tensor": {"dtype": "DT_INT32", "tensorShape": {"dim": [{"size": "1"}]}}}, "dtype": {"type": "DT_INT32"}}}, {"name": "StatefulPartitionedCall/sequential_5/residual_stack_._2._._2/conv1d_47/BiasAdd/ReadVariableOp", "op": "Const", "attr": {"value": {"tensor": {"dtype": "DT_FLOAT", "tensorShape": {"dim": [{"size": "48"}]}}}, "dtype": {"type": "DT_FLOAT"}}}, {"name": "StatefulPartitionedCall/sequential_5/residual_stack_._2._._2/conv1d_48/conv1d/ExpandDims/dim", "op": "Const", "attr": {"value": {"tensor": {"dtype": "DT_INT32", "tensorShape": {}}}, "dtype": {"type": "DT_INT32"}}}, {"name": "StatefulPartitionedCall/sequential_5/residual_stack_._2._._2/conv1d_48/conv1d/ExpandDims_1", "op": "Const", "attr": {"dtype": {"type": "DT_FLOAT"}, "value": {"tensor": {"dtype": "DT_FLOAT", "tensorShape": {"dim": [{"size": "1"}, {"size": "1"}, {"size": "48"}, {"size": "48"}]}}}}}, {"name": "StatefulPartitionedCall/sequential_5/residual_stack_._2._._2/conv1d_48/BiasAdd/ReadVariableOp", "op": "Const", "attr": {"value": {"tensor": {"dtype": "DT_FLOAT", "tensorShape": {"dim": [{"size": "48"}]}}}, "dtype": {"type": "DT_FLOAT"}}}, {"name": "StatefulPartitionedCall/sequential_5/residual_stack_._2._._3/tf_reflection_pad1d_23/MirrorPad/paddings", "op": "Const", "attr": {"value": {"tensor": {"dtype": "DT_INT32", "tensorShape": {"dim": [{"size": "3"}, {"size": "2"}]}}}, "dtype": {"type": "DT_INT32"}}}, {"name": "StatefulPartitionedCall/sequential_5/residual_stack_._2._._3/conv1d_49/conv1d/strided_slice/stack", "op": "Const", "attr": {"dtype": {"type": "DT_INT32"}, "value": {"tensor": {"dtype": "DT_INT32", "tensorShape": {"dim": [{"size": "1"}]}}}}}, {"name": "StatefulPartitionedCall/sequential_5/residual_stack_._2._._3/conv1d_49/conv1d/strided_slice/stack_1", "op": "Const", "attr": {"dtype": {"type": "DT_INT32"}, "value": {"tensor": {"dtype": "DT_INT32", "tensorShape": {"dim": [{"size": "1"}]}}}}}, {"name": "StatefulPartitionedCall/sequential_5/residual_stack_._2._._3/conv1d_49/conv1d/strided_slice/stack_2", "op": "Const", "attr": {"dtype": {"type": "DT_INT32"}, "value": {"tensor": {"dtype": "DT_INT32", "tensorShape": {"dim": [{"size": "1"}]}}}}}, {"name": "StatefulPartitionedCall/sequential_5/residual_stack_._2._._3/conv1d_49/conv1d/dilation_rate", "op": "Const", "attr": {"value": {"tensor": {"dtype": "DT_INT32", "tensorShape": {"dim": [{"size": "1"}]}}}, "dtype": {"type": "DT_INT32"}}}, {"name": "StatefulPartitionedCall/sequential_5/residual_stack_._2._._3/conv1d_49/conv1d/required_space_to_batch_paddings/strided_slice_4/stack", "op": "Const", "attr": {"dtype": {"type": "DT_INT32"}, "value": {"tensor": {"dtype": "DT_INT32", "tensorShape": {"dim": [{"size": "1"}]}}}}}, {"name": "StatefulPartitionedCall/sequential_5/residual_stack_._2._._3/conv1d_49/conv1d/required_space_to_batch_paddings/strided_slice_4/stack_1", "op": "Const", "attr": {"dtype": {"type": "DT_INT32"}, "value": {"tensor": {"dtype": "DT_INT32", "tensorShape": {"dim": [{"size": "1"}]}}}}}, {"name": "StatefulPartitionedCall/sequential_5/residual_stack_._2._._3/conv1d_49/conv1d/required_space_to_batch_paddings/strided_slice_4/stack_2", "op": "Const", "attr": {"dtype": {"type": "DT_INT32"}, "value": {"tensor": {"dtype": "DT_INT32", "tensorShape": {"dim": [{"size": "1"}]}}}}}, {"name": "StatefulPartitionedCall/sequential_5/residual_stack_._2._._3/conv1d_49/BiasAdd/ReadVariableOp", "op": "Const", "attr": {"value": {"tensor": {"dtype": "DT_FLOAT", "tensorShape": {"dim": [{"size": "48"}]}}}, "dtype": {"type": "DT_FLOAT"}}}, {"name": "StatefulPartitionedCall/sequential_5/residual_stack_._2._._3/conv1d_50/conv1d/ExpandDims/dim", "op": "Const", "attr": {"value": {"tensor": {"dtype": "DT_INT32", "tensorShape": {}}}, "dtype": {"type": "DT_INT32"}}}, {"name": "StatefulPartitionedCall/sequential_5/residual_stack_._2._._3/conv1d_50/conv1d/ExpandDims_1", "op": "Const", "attr": {"dtype": {"type": "DT_FLOAT"}, "value": {"tensor": {"dtype": "DT_FLOAT", "tensorShape": {"dim": [{"size": "1"}, {"size": "1"}, {"size": "48"}, {"size": "48"}]}}}}}, {"name": "StatefulPartitionedCall/sequential_5/residual_stack_._2._._3/conv1d_50/BiasAdd/ReadVariableOp", "op": "Const", "attr": {"value": {"tensor": {"dtype": "DT_FLOAT", "tensorShape": {"dim": [{"size": "48"}]}}}, "dtype": {"type": "DT_FLOAT"}}}, {"name": "StatefulPartitionedCall/sequential_5/last_reflect_padding/MirrorPad/paddings", "op": "Const", "attr": {"dtype": {"type": "DT_INT32"}, "value": {"tensor": {"dtype": "DT_INT32", "tensorShape": {"dim": [{"size": "3"}, {"size": "2"}]}}}}}, {"name": "StatefulPartitionedCall/sequential_5/conv1d_51/conv1d/ExpandDims/dim", "op": "Const", "attr": {"value": {"tensor": {"dtype": "DT_INT32", "tensorShape": {}}}, "dtype": {"type": "DT_INT32"}}}, {"name": "StatefulPartitionedCall/sequential_5/conv1d_51/conv1d/ExpandDims_1", "op": "Const", "attr": {"dtype": {"type": "DT_FLOAT"}, "value": {"tensor": {"dtype": "DT_FLOAT", "tensorShape": {"dim": [{"size": "1"}, {"size": "7"}, {"size": "48"}, {"size": "4"}]}}}}}, {"name": "StatefulPartitionedCall/sequential_5/conv1d_51/BiasAdd/ReadVariableOp", "op": "Const", "attr": {"value": {"tensor": {"dtype": "DT_FLOAT", "tensorShape": {"dim": [{"size": "4"}]}}}, "dtype": {"type": "DT_FLOAT"}}}, {"name": "StatefulPartitionedCall/PartitionedCall/conv1d_transpose/ExpandDims/dim", "op": "Const", "attr": {"dtype": {"type": "DT_INT32"}, "value": {"tensor": {"dtype": "DT_INT32", "tensorShape": {}}}}}, {"name": "StatefulPartitionedCall/PartitionedCall/Pad/paddings", "op": "Const", "attr": {"dtype": {"type": "DT_INT32"}, "value": {"tensor": {"dtype": "DT_INT32", "tensorShape": {"dim": [{"size": "3"}, {"size": "2"}]}}}}}, {"name": "StatefulPartitionedCall/PartitionedCall/conv1d/ExpandDims/dim", "op": "Const", "attr": {"dtype": {"type": "DT_INT32"}, "value": {"tensor": {"dtype": "DT_INT32", "tensorShape": {}}}}}, {"name": "StatefulPartitionedCall/PartitionedCall/conv1d/ExpandDims_1", "op": "Const", "attr": {"dtype": {"type": "DT_FLOAT"}, "value": {"tensor": {"dtype": "DT_FLOAT", "tensorShape": {"dim": [{"size": "1"}, {"size": "63"}, {"size": "4"}, {"size": "1"}]}}}}}, {"name": "mels", "op": "Placeholder", "attr": {"dtype": {"type": "DT_FLOAT"}, "shape": {"shape": {"dim": [{"size": "-1"}, {"size": "-1"}, {"size": "80"}]}}}}, {"name": "StatefulPartitionedCall/sequential_5/first_reflect_padding/MirrorPad", "op": "MirrorPad", "input": ["mels", "StatefulPartitionedCall/sequential_5/first_reflect_padding/MirrorPad/paddings"], "attr": {"Tpaddings": {"type": "DT_INT32"}, "mode": {"s": "UkVGTEVDVA=="}, "T": {"type": "DT_FLOAT"}}}, {"name": "StatefulPartitionedCall/sequential_5/conv1d_26/conv1d/ExpandDims", "op": "ExpandDims", "input": ["StatefulPartitionedCall/sequential_5/first_reflect_padding/MirrorPad", "StatefulPartitionedCall/sequential_5/conv1d_26/conv1d/ExpandDims/dim"], "attr": {"Tdim": {"type": "DT_INT32"}, "T": {"type": "DT_FLOAT"}}}, {"name": "StatefulPartitionedCall/sequential_5/conv1d_26/conv1d", "op": "_FusedConv2D", "input": ["StatefulPartitionedCall/sequential_5/conv1d_26/conv1d/ExpandDims", "StatefulPartitionedCall/sequential_5/conv1d_26/conv1d/ExpandDims_1", "StatefulPartitionedCall/sequential_5/conv1d_26/BiasAdd/ReadVariableOp"], "device": "/device:CPU:0", "attr": {"strides": {"list": {"i": ["1", "1", "1", "1"]}}, "explicit_paddings": {"list": {}}, "padding": {"s": "VkFMSUQ="}, "epsilon": {"f": 0.0}, "num_args": {"i": "1"}, "fused_ops": {"list": {"s": ["Qmlhc0FkZA=="]}}, "dilations": {"list": {"i": ["1", "1", "1", "1"]}}, "T": {"type": "DT_FLOAT"}, "data_format": {"s": "TkhXQw=="}, "use_cudnn_on_gpu": {"b": true}}}, {"name": "StatefulPartitionedCall/sequential_5/conv1d_26/BiasAdd", "op": "Squeeze", "input": ["StatefulPartitionedCall/sequential_5/conv1d_26/conv1d"], "attr": {"T": {"type": "DT_FLOAT"}, "squeeze_dims": {"list": {"i": ["-3"]}}}}, {"name": "StatefulPartitionedCall/sequential_5/leaky_re_lu_28/LeakyRelu", "op": "LeakyRelu", "input": ["StatefulPartitionedCall/sequential_5/conv1d_26/BiasAdd"], "attr": {"alpha": {"f": 0.2}, "T": {"type": "DT_FLOAT"}}}, {"name": "StatefulPartitionedCall/sequential_5/conv_transpose_._0/ExpandDims", "op": "ExpandDims", "input": ["StatefulPartitionedCall/sequential_5/leaky_re_lu_28/LeakyRelu", "StatefulPartitionedCall/sequential_5/conv_transpose_._0/ExpandDims/dim"], "attr": {"T": {"type": "DT_FLOAT"}, "Tdim": {"type": "DT_INT32"}}}, {"name": "StatefulPartitionedCall/sequential_5/conv_transpose_._0/conv2d_transpose_3/Shape", "op": "Shape", "input": ["StatefulPartitionedCall/sequential_5/conv_transpose_._0/ExpandDims"], "attr": {"T": {"type": "DT_FLOAT"}, "out_type": {"type": "DT_INT32"}}}, {"name": "StatefulPartitionedCall/sequential_5/conv_transpose_._0/conv2d_transpose_3/strided_slice", "op": "StridedSlice", "input": ["StatefulPartitionedCall/sequential_5/conv_transpose_._0/conv2d_transpose_3/Shape", "StatefulPartitionedCall/sequential_5/conv_transpose_._0/conv2d_transpose_3/strided_slice/stack", "StatefulPartitionedCall/sequential_5/conv_transpose_._0/conv2d_transpose_3/strided_slice/stack_1", "StatefulPartitionedCall/sequential_5/conv_transpose_._0/conv2d_transpose_3/strided_slice/stack_2"], "attr": {"shrink_axis_mask": {"i": "1"}, "Index": {"type": "DT_INT32"}, "begin_mask": {"i": "0"}, "T": {"type": "DT_INT32"}, "ellipsis_mask": {"i": "0"}, "new_axis_mask": {"i": "0"}, "end_mask": {"i": "0"}}}, {"name": "StatefulPartitionedCall/sequential_5/conv_transpose_._0/conv2d_transpose_3/strided_slice_1", "op": "StridedSlice", "input": ["StatefulPartitionedCall/sequential_5/conv_transpose_._0/conv2d_transpose_3/Shape", "StatefulPartitionedCall/sequential_5/conv_transpose_._0/conv2d_transpose_3/strided_slice_1/stack", "StatefulPartitionedCall/sequential_5/conv_transpose_._0/conv2d_transpose_3/strided_slice_1/stack_1", "StatefulPartitionedCall/sequential_5/conv_transpose_._0/conv2d_transpose_3/strided_slice_1/stack_2"], "attr": {"ellipsis_mask": {"i": "0"}, "new_axis_mask": {"i": "0"}, "T": {"type": "DT_INT32"}, "begin_mask": {"i": "0"}, "shrink_axis_mask": {"i": "1"}, "end_mask": {"i": "0"}, "Index": {"type": "DT_INT32"}}}, {"name": "StatefulPartitionedCall/sequential_5/conv_transpose_._0/conv2d_transpose_3/mul", "op": "Mul", "input": ["StatefulPartitionedCall/sequential_5/conv_transpose_._0/conv2d_transpose_3/strided_slice_1", "StatefulPartitionedCall/sequential_5/conv_transpose_._0/conv2d_transpose_3/mul/y"], "attr": {"T": {"type": "DT_INT32"}}}, {"name": "StatefulPartitionedCall/sequential_5/conv_transpose_._0/conv2d_transpose_3/stack", "op": "Pack", "input": ["StatefulPartitionedCall/sequential_5/conv_transpose_._0/conv2d_transpose_3/strided_slice", "StatefulPartitionedCall/sequential_5/conv_transpose_._0/conv2d_transpose_3/mul", "StatefulPartitionedCall/sequential_5/conv_transpose_._0/conv2d_transpose_3/stack/2", "StatefulPartitionedCall/sequential_5/conv_transpose_._0/conv2d_transpose_3/stack/3"], "attr": {"N": {"i": "4"}, "T": {"type": "DT_INT32"}, "axis": {"i": "0"}}}, {"name": "StatefulPartitionedCall/sequential_5/conv_transpose_._0/conv2d_transpose_3/conv2d_transpose", "op": "Conv2DBackpropInput", "input": ["StatefulPartitionedCall/sequential_5/conv_transpose_._0/conv2d_transpose_3/stack", "StatefulPartitionedCall/sequential_5/conv_transpose_._0/conv2d_transpose_3/conv2d_transpose/ReadVariableOp", "StatefulPartitionedCall/sequential_5/conv_transpose_._0/ExpandDims"], "attr": {"explicit_paddings": {"list": {}}, "padding": {"s": "U0FNRQ=="}, "dilations": {"list": {"i": ["1", "1", "1", "1"]}}, "strides": {"list": {"i": ["1", "8", "1", "1"]}}, "data_format": {"s": "TkhXQw=="}, "T": {"type": "DT_FLOAT"}, "use_cudnn_on_gpu": {"b": true}}}, {"name": "StatefulPartitionedCall/sequential_5/conv_transpose_._0/conv2d_transpose_3/BiasAdd", "op": "BiasAdd", "input": ["StatefulPartitionedCall/sequential_5/conv_transpose_._0/conv2d_transpose_3/conv2d_transpose", "StatefulPartitionedCall/sequential_5/conv_transpose_._0/conv2d_transpose_3/BiasAdd/ReadVariableOp"], "attr": {"data_format": {"s": "TkhXQw=="}, "T": {"type": "DT_FLOAT"}}}, {"name": "StatefulPartitionedCall/sequential_5/conv_transpose_._0/Squeeze", "op": "Squeeze", "input": ["StatefulPartitionedCall/sequential_5/conv_transpose_._0/conv2d_transpose_3/BiasAdd"], "attr": {"T": {"type": "DT_FLOAT"}, "squeeze_dims": {"list": {"i": ["2"]}}}}, {"name": "StatefulPartitionedCall/sequential_5/residual_stack_._0._._0/shortcut/conv1d/ExpandDims", "op": "ExpandDims", "input": ["StatefulPartitionedCall/sequential_5/conv_transpose_._0/Squeeze", "StatefulPartitionedCall/sequential_5/residual_stack_._0._._0/shortcut/conv1d/ExpandDims/dim"], "attr": {"T": {"type": "DT_FLOAT"}, "Tdim": {"type": "DT_INT32"}}}, {"name": "StatefulPartitionedCall/sequential_5/residual_stack_._0._._0/leaky_re_lu_29/LeakyRelu", "op": "LeakyRelu", "input": ["StatefulPartitionedCall/sequential_5/conv_transpose_._0/Squeeze"], "attr": {"alpha": {"f": 0.2}, "T": {"type": "DT_FLOAT"}}}, {"name": "StatefulPartitionedCall/sequential_5/residual_stack_._0._._0/shortcut/conv1d", "op": "_FusedConv2D", "input": ["StatefulPartitionedCall/sequential_5/residual_stack_._0._._0/shortcut/conv1d/ExpandDims", "StatefulPartitionedCall/sequential_5/residual_stack_._0._._0/shortcut/conv1d/ExpandDims_1", "StatefulPartitionedCall/sequential_5/residual_stack_._0._._0/shortcut/BiasAdd/ReadVariableOp"], "device": "/device:CPU:0", "attr": {"strides": {"list": {"i": ["1", "1", "1", "1"]}}, "explicit_paddings": {"list": {}}, "T": {"type": "DT_FLOAT"}, "data_format": {"s": "TkhXQw=="}, "use_cudnn_on_gpu": {"b": true}, "fused_ops": {"list": {"s": ["Qmlhc0FkZA=="]}}, "num_args": {"i": "1"}, "dilations": {"list": {"i": ["1", "1", "1", "1"]}}, "padding": {"s": "VkFMSUQ="}, "epsilon": {"f": 0.0}}}, {"name": "StatefulPartitionedCall/sequential_5/residual_stack_._0._._0/tf_reflection_pad1d_12/MirrorPad", "op": "MirrorPad", "input": ["StatefulPartitionedCall/sequential_5/residual_stack_._0._._0/leaky_re_lu_29/LeakyRelu", "StatefulPartitionedCall/sequential_5/residual_stack_._0._._0/tf_reflection_pad1d_12/MirrorPad/paddings"], "attr": {"mode": {"s": "UkVGTEVDVA=="}, "T": {"type": "DT_FLOAT"}, "Tpaddings": {"type": "DT_INT32"}}}, {"name": "StatefulPartitionedCall/sequential_5/residual_stack_._0._._0/shortcut/BiasAdd", "op": "Squeeze", "input": ["StatefulPartitionedCall/sequential_5/residual_stack_._0._._0/shortcut/conv1d"], "attr": {"squeeze_dims": {"list": {"i": ["-3"]}}, "T": {"type": "DT_FLOAT"}}}, {"name": "StatefulPartitionedCall/sequential_5/residual_stack_._0._._0/conv1d_27/conv1d/ExpandDims", "op": "ExpandDims", "input": ["StatefulPartitionedCall/sequential_5/residual_stack_._0._._0/tf_reflection_pad1d_12/MirrorPad", "StatefulPartitionedCall/sequential_5/residual_stack_._0._._0/conv1d_27/conv1d/ExpandDims/dim"], "attr": {"Tdim": {"type": "DT_INT32"}, "T": {"type": "DT_FLOAT"}}}, {"name": "StatefulPartitionedCall/sequential_5/residual_stack_._0._._0/conv1d_27/conv1d", "op": "_FusedConv2D", "input": ["StatefulPartitionedCall/sequential_5/residual_stack_._0._._0/conv1d_27/conv1d/ExpandDims", "StatefulPartitionedCall/sequential_5/residual_stack_._0._._0/conv1d_27/conv1d/ExpandDims_1", "StatefulPartitionedCall/sequential_5/residual_stack_._0._._0/conv1d_27/BiasAdd/ReadVariableOp"], "device": "/device:CPU:0", "attr": {"explicit_paddings": {"list": {}}, "fused_ops": {"list": {"s": ["Qmlhc0FkZA=="]}}, "dilations": {"list": {"i": ["1", "1", "1", "1"]}}, "epsilon": {"f": 0.0}, "strides": {"list": {"i": ["1", "1", "1", "1"]}}, "T": {"type": "DT_FLOAT"}, "data_format": {"s": "TkhXQw=="}, "use_cudnn_on_gpu": {"b": true}, "num_args": {"i": "1"}, "padding": {"s": "VkFMSUQ="}}}, {"name": "StatefulPartitionedCall/sequential_5/residual_stack_._0._._0/conv1d_27/BiasAdd", "op": "Squeeze", "input": ["StatefulPartitionedCall/sequential_5/residual_stack_._0._._0/conv1d_27/conv1d"], "attr": {"T": {"type": "DT_FLOAT"}, "squeeze_dims": {"list": {"i": ["-3"]}}}}, {"name": "StatefulPartitionedCall/sequential_5/residual_stack_._0._._0/leaky_re_lu_30/LeakyRelu", "op": "LeakyRelu", "input": ["StatefulPartitionedCall/sequential_5/residual_stack_._0._._0/conv1d_27/BiasAdd"], "attr": {"alpha": {"f": 0.2}, "T": {"type": "DT_FLOAT"}}}, {"name": "StatefulPartitionedCall/sequential_5/residual_stack_._0._._0/conv1d_28/conv1d/ExpandDims", "op": "ExpandDims", "input": ["StatefulPartitionedCall/sequential_5/residual_stack_._0._._0/leaky_re_lu_30/LeakyRelu", "StatefulPartitionedCall/sequential_5/residual_stack_._0._._0/conv1d_28/conv1d/ExpandDims/dim"], "attr": {"Tdim": {"type": "DT_INT32"}, "T": {"type": "DT_FLOAT"}}}, {"name": "StatefulPartitionedCall/sequential_5/residual_stack_._0._._0/conv1d_28/conv1d", "op": "_FusedConv2D", "input": ["StatefulPartitionedCall/sequential_5/residual_stack_._0._._0/conv1d_28/conv1d/ExpandDims", "StatefulPartitionedCall/sequential_5/residual_stack_._0._._0/conv1d_28/conv1d/ExpandDims_1", "StatefulPartitionedCall/sequential_5/residual_stack_._0._._0/conv1d_28/BiasAdd/ReadVariableOp"], "device": "/device:CPU:0", "attr": {"T": {"type": "DT_FLOAT"}, "epsilon": {"f": 0.0}, "padding": {"s": "VkFMSUQ="}, "strides": {"list": {"i": ["1", "1", "1", "1"]}}, "data_format": {"s": "TkhXQw=="}, "num_args": {"i": "1"}, "fused_ops": {"list": {"s": ["Qmlhc0FkZA=="]}}, "explicit_paddings": {"list": {}}, "use_cudnn_on_gpu": {"b": true}, "dilations": {"list": {"i": ["1", "1", "1", "1"]}}}}, {"name": "StatefulPartitionedCall/sequential_5/residual_stack_._0._._0/conv1d_28/BiasAdd", "op": "Squeeze", "input": ["StatefulPartitionedCall/sequential_5/residual_stack_._0._._0/conv1d_28/conv1d"], "attr": {"T": {"type": "DT_FLOAT"}, "squeeze_dims": {"list": {"i": ["-3"]}}}}, {"name": "StatefulPartitionedCall/sequential_5/residual_stack_._0._._0/add", "op": "AddV2", "input": ["StatefulPartitionedCall/sequential_5/residual_stack_._0._._0/shortcut/BiasAdd", "StatefulPartitionedCall/sequential_5/residual_stack_._0._._0/conv1d_28/BiasAdd"], "attr": {"T": {"type": "DT_FLOAT"}}}, {"name": "StatefulPartitionedCall/sequential_5/residual_stack_._0._._1/shortcut/conv1d/ExpandDims", "op": "ExpandDims", "input": ["StatefulPartitionedCall/sequential_5/residual_stack_._0._._0/add", "StatefulPartitionedCall/sequential_5/residual_stack_._0._._1/shortcut/conv1d/ExpandDims/dim"], "attr": {"T": {"type": "DT_FLOAT"}, "Tdim": {"type": "DT_INT32"}}}, {"name": "StatefulPartitionedCall/sequential_5/residual_stack_._0._._1/leaky_re_lu_31/LeakyRelu", "op": "LeakyRelu", "input": ["StatefulPartitionedCall/sequential_5/residual_stack_._0._._0/add"], "attr": {"alpha": {"f": 0.2}, "T": {"type": "DT_FLOAT"}}}, {"name": "StatefulPartitionedCall/sequential_5/residual_stack_._0._._1/shortcut/conv1d", "op": "_FusedConv2D", "input": ["StatefulPartitionedCall/sequential_5/residual_stack_._0._._1/shortcut/conv1d/ExpandDims", "StatefulPartitionedCall/sequential_5/residual_stack_._0._._1/shortcut/conv1d/ExpandDims_1", "StatefulPartitionedCall/sequential_5/residual_stack_._0._._1/shortcut/BiasAdd/ReadVariableOp"], "device": "/device:CPU:0", "attr": {"fused_ops": {"list": {"s": ["Qmlhc0FkZA=="]}}, "data_format": {"s": "TkhXQw=="}, "padding": {"s": "VkFMSUQ="}, "num_args": {"i": "1"}, "T": {"type": "DT_FLOAT"}, "strides": {"list": {"i": ["1", "1", "1", "1"]}}, "dilations": {"list": {"i": ["1", "1", "1", "1"]}}, "explicit_paddings": {"list": {}}, "epsilon": {"f": 0.0}, "use_cudnn_on_gpu": {"b": true}}}, {"name": "StatefulPartitionedCall/sequential_5/residual_stack_._0._._1/tf_reflection_pad1d_13/MirrorPad", "op": "MirrorPad", "input": ["StatefulPartitionedCall/sequential_5/residual_stack_._0._._1/leaky_re_lu_31/LeakyRelu", "StatefulPartitionedCall/sequential_5/residual_stack_._0._._1/tf_reflection_pad1d_13/MirrorPad/paddings"], "attr": {"Tpaddings": {"type": "DT_INT32"}, "mode": {"s": "UkVGTEVDVA=="}, "T": {"type": "DT_FLOAT"}}}, {"name": "StatefulPartitionedCall/sequential_5/residual_stack_._0._._1/shortcut/BiasAdd", "op": "Squeeze", "input": ["StatefulPartitionedCall/sequential_5/residual_stack_._0._._1/shortcut/conv1d"], "attr": {"T": {"type": "DT_FLOAT"}, "squeeze_dims": {"list": {"i": ["-3"]}}}}, {"name": "StatefulPartitionedCall/sequential_5/residual_stack_._0._._1/conv1d_29/conv1d/Shape", "op": "Shape", "input": ["StatefulPartitionedCall/sequential_5/residual_stack_._0._._1/tf_reflection_pad1d_13/MirrorPad"], "attr": {"T": {"type": "DT_FLOAT"}, "out_type": {"type": "DT_INT32"}}}, {"name": "StatefulPartitionedCall/sequential_5/residual_stack_._0._._1/conv1d_29/conv1d/strided_slice", "op": "StridedSlice", "input": ["StatefulPartitionedCall/sequential_5/residual_stack_._0._._1/conv1d_29/conv1d/Shape", "StatefulPartitionedCall/sequential_5/residual_stack_._0._._1/conv1d_29/conv1d/strided_slice/stack", "StatefulPartitionedCall/sequential_5/residual_stack_._0._._1/conv1d_29/conv1d/strided_slice/stack_1", "StatefulPartitionedCall/sequential_5/residual_stack_._0._._1/conv1d_29/conv1d/strided_slice/stack_2"], "attr": {"ellipsis_mask": {"i": "0"}, "begin_mask": {"i": "0"}, "Index": {"type": "DT_INT32"}, "shrink_axis_mask": {"i": "1"}, "end_mask": {"i": "0"}, "new_axis_mask": {"i": "0"}, "T": {"type": "DT_INT32"}}}, {"name": "ConstantFolding/StatefulPartitionedCall/sequential_5/residual_stack_._0._._1/conv1d_29/conv1d/stack_const_axis", "op": "Const", "input": ["^StatefulPartitionedCall/sequential_5/residual_stack_._0._._1/conv1d_29/conv1d/strided_slice"], "attr": {"value": {"tensor": {"dtype": "DT_INT32", "tensorShape": {}}}, "dtype": {"type": "DT_INT32"}}}, {"name": "StatefulPartitionedCall/sequential_5/residual_stack_._0._._1/conv1d_29/conv1d/stack", "op": "ExpandDims", "input": ["StatefulPartitionedCall/sequential_5/residual_stack_._0._._1/conv1d_29/conv1d/strided_slice", "ConstantFolding/StatefulPartitionedCall/sequential_5/residual_stack_._0._._1/conv1d_29/conv1d/stack_const_axis"], "attr": {"Tdim": {"type": "DT_INT32"}, "T": {"type": "DT_INT32"}}}, {"name": "StatefulPartitionedCall/sequential_5/residual_stack_._0._._1/conv1d_29/conv1d/required_space_to_batch_paddings/mod", "op": "FloorMod", "input": ["StatefulPartitionedCall/sequential_5/residual_stack_._0._._1/conv1d_29/conv1d/stack", "StatefulPartitionedCall/sequential_5/residual_stack_._0._._1/conv1d_29/conv1d/dilation_rate"], "attr": {"T": {"type": "DT_INT32"}}}, {"name": "StatefulPartitionedCall/sequential_5/residual_stack_._0._._1/conv1d_29/conv1d/required_space_to_batch_paddings/sub", "op": "Sub", "input": ["StatefulPartitionedCall/sequential_5/residual_stack_._0._._1/conv1d_29/conv1d/dilation_rate", "StatefulPartitionedCall/sequential_5/residual_stack_._0._._1/conv1d_29/conv1d/required_space_to_batch_paddings/mod"], "attr": {"T": {"type": "DT_INT32"}}}, {"name": "StatefulPartitionedCall/sequential_5/residual_stack_._0._._1/conv1d_29/conv1d/required_space_to_batch_paddings/mod_1", "op": "FloorMod", "input": ["StatefulPartitionedCall/sequential_5/residual_stack_._0._._1/conv1d_29/conv1d/required_space_to_batch_paddings/sub", "StatefulPartitionedCall/sequential_5/residual_stack_._0._._1/conv1d_29/conv1d/dilation_rate"], "attr": {"T": {"type": "DT_INT32"}}}, {"name": "StatefulPartitionedCall/sequential_5/residual_stack_._0._._1/conv1d_29/conv1d/required_space_to_batch_paddings/strided_slice_3", "op": "StridedSlice", "input": ["StatefulPartitionedCall/sequential_5/residual_stack_._0._._1/conv1d_29/conv1d/required_space_to_batch_paddings/mod_1", "StatefulPartitionedCall/sequential_5/residual_stack_._0._._1/conv1d_29/conv1d/required_space_to_batch_paddings/strided_slice_3/stack", "StatefulPartitionedCall/sequential_5/residual_stack_._0._._1/conv1d_29/conv1d/required_space_to_batch_paddings/strided_slice_3/stack_1", "StatefulPartitionedCall/sequential_5/residual_stack_._0._._1/conv1d_29/conv1d/required_space_to_batch_paddings/strided_slice_3/stack_2"], "attr": {"T": {"type": "DT_INT32"}, "ellipsis_mask": {"i": "0"}, "end_mask": {"i": "0"}, "Index": {"type": "DT_INT32"}, "shrink_axis_mask": {"i": "1"}, "new_axis_mask": {"i": "0"}, "begin_mask": {"i": "0"}}}, {"name": "StatefulPartitionedCall/sequential_5/residual_stack_._0._._1/conv1d_29/conv1d/required_space_to_batch_paddings/strided_slice_4", "op": "StridedSlice", "input": ["StatefulPartitionedCall/sequential_5/residual_stack_._0._._1/conv1d_29/conv1d/required_space_to_batch_paddings/mod_1", "StatefulPartitionedCall/sequential_5/residual_stack_._0._._1/conv1d_29/conv1d/required_space_to_batch_paddings/strided_slice_4/stack", "StatefulPartitionedCall/sequential_5/residual_stack_._0._._1/conv1d_29/conv1d/required_space_to_batch_paddings/strided_slice_4/stack_1", "StatefulPartitionedCall/sequential_5/residual_stack_._0._._1/conv1d_29/conv1d/required_space_to_batch_paddings/strided_slice_4/stack_2"], "attr": {"T": {"type": "DT_INT32"}, "Index": {"type": "DT_INT32"}, "end_mask": {"i": "0"}, "ellipsis_mask": {"i": "0"}, "shrink_axis_mask": {"i": "1"}, "new_axis_mask": {"i": "0"}, "begin_mask": {"i": "0"}}}, {"name": "StatefulPartitionedCall/sequential_5/residual_stack_._0._._1/conv1d_29/conv1d/required_space_to_batch_paddings/paddings/0", "op": "Pack", "input": ["StatefulPartitionedCall/sequential_5/residual_stack_._0._._1/conv1d_29/conv1d/required_space_to_batch_paddings/strided_slice_2", "StatefulPartitionedCall/sequential_5/residual_stack_._0._._1/conv1d_29/conv1d/required_space_to_batch_paddings/strided_slice_3"], "attr": {"T": {"type": "DT_INT32"}, "N": {"i": "2"}, "axis": {"i": "0"}}}, {"name": "StatefulPartitionedCall/sequential_5/residual_stack_._0._._1/conv1d_29/conv1d/required_space_to_batch_paddings/crops/0", "op": "Pack", "input": ["StatefulPartitionedCall/sequential_5/residual_stack_._0._._1/conv1d_29/conv1d/required_space_to_batch_paddings/crops/0/0", "StatefulPartitionedCall/sequential_5/residual_stack_._0._._1/conv1d_29/conv1d/required_space_to_batch_paddings/strided_slice_4"], "attr": {"T": {"type": "DT_INT32"}, "axis": {"i": "0"}, "N": {"i": "2"}}}, {"name": "ConstantFolding/StatefulPartitionedCall/sequential_5/residual_stack_._0._._1/conv1d_29/conv1d/required_space_to_batch_paddings/paddings_const_axis", "op": "Const", "input": ["^StatefulPartitionedCall/sequential_5/residual_stack_._0._._1/conv1d_29/conv1d/required_space_to_batch_paddings/paddings/0"], "attr": {"dtype": {"type": "DT_INT32"}, "value": {"tensor": {"dtype": "DT_INT32", "tensorShape": {}}}}}, {"name": "ConstantFolding/StatefulPartitionedCall/sequential_5/residual_stack_._0._._1/conv1d_29/conv1d/required_space_to_batch_paddings/crops_const_axis", "op": "Const", "input": ["^StatefulPartitionedCall/sequential_5/residual_stack_._0._._1/conv1d_29/conv1d/required_space_to_batch_paddings/crops/0"], "attr": {"value": {"tensor": {"dtype": "DT_INT32", "tensorShape": {}}}, "dtype": {"type": "DT_INT32"}}}, {"name": "StatefulPartitionedCall/sequential_5/residual_stack_._0._._1/conv1d_29/conv1d/required_space_to_batch_paddings/paddings", "op": "ExpandDims", "input": ["StatefulPartitionedCall/sequential_5/residual_stack_._0._._1/conv1d_29/conv1d/required_space_to_batch_paddings/paddings/0", "ConstantFolding/StatefulPartitionedCall/sequential_5/residual_stack_._0._._1/conv1d_29/conv1d/required_space_to_batch_paddings/paddings_const_axis"], "attr": {"Tdim": {"type": "DT_INT32"}, "T": {"type": "DT_INT32"}}}, {"name": "StatefulPartitionedCall/sequential_5/residual_stack_._0._._1/conv1d_29/conv1d/required_space_to_batch_paddings/crops", "op": "ExpandDims", "input": ["StatefulPartitionedCall/sequential_5/residual_stack_._0._._1/conv1d_29/conv1d/required_space_to_batch_paddings/crops/0", "ConstantFolding/StatefulPartitionedCall/sequential_5/residual_stack_._0._._1/conv1d_29/conv1d/required_space_to_batch_paddings/crops_const_axis"], "attr": {"T": {"type": "DT_INT32"}, "Tdim": {"type": "DT_INT32"}}}, {"name": "StatefulPartitionedCall/sequential_5/residual_stack_._0._._1/conv1d_29/conv1d/SpaceToBatchND", "op": "SpaceToBatchND", "input": ["StatefulPartitionedCall/sequential_5/residual_stack_._0._._1/tf_reflection_pad1d_13/MirrorPad", "StatefulPartitionedCall/sequential_5/residual_stack_._0._._1/conv1d_29/conv1d/SpaceToBatchND/block_shape", "StatefulPartitionedCall/sequential_5/residual_stack_._0._._1/conv1d_29/conv1d/required_space_to_batch_paddings/paddings"], "attr": {"Tpaddings": {"type": "DT_INT32"}, "Tblock_shape": {"type": "DT_INT32"}, "T": {"type": "DT_FLOAT"}}}, {"name": "StatefulPartitionedCall/sequential_5/residual_stack_._0._._1/conv1d_29/conv1d/ExpandDims", "op": "ExpandDims", "input": ["StatefulPartitionedCall/sequential_5/residual_stack_._0._._1/conv1d_29/conv1d/SpaceToBatchND", "StatefulPartitionedCall/sequential_5/residual_stack_._0._._1/conv1d_29/conv1d/ExpandDims/dim"], "attr": {"Tdim": {"type": "DT_INT32"}, "T": {"type": "DT_FLOAT"}}}, {"name": "StatefulPartitionedCall/sequential_5/residual_stack_._0._._1/conv1d_29/conv1d", "op": "Conv2D", "input": ["StatefulPartitionedCall/sequential_5/residual_stack_._0._._1/conv1d_29/conv1d/ExpandDims", "StatefulPartitionedCall/sequential_5/residual_stack_._0._._1/conv1d_29/conv1d/ExpandDims_1"], "device": "/device:CPU:0", "attr": {"explicit_paddings": {"list": {}}, "strides": {"list": {"i": ["1", "1", "1", "1"]}}, "T": {"type": "DT_FLOAT"}, "use_cudnn_on_gpu": {"b": true}, "padding": {"s": "VkFMSUQ="}, "dilations": {"list": {"i": ["1", "1", "1", "1"]}}, "data_format": {"s": "TkhXQw=="}}}, {"name": "StatefulPartitionedCall/sequential_5/residual_stack_._0._._1/conv1d_29/conv1d/Squeeze", "op": "Squeeze", "input": ["StatefulPartitionedCall/sequential_5/residual_stack_._0._._1/conv1d_29/conv1d"], "attr": {"squeeze_dims": {"list": {"i": ["-3"]}}, "T": {"type": "DT_FLOAT"}}}, {"name": "StatefulPartitionedCall/sequential_5/residual_stack_._0._._1/conv1d_29/conv1d/BatchToSpaceND", "op": "BatchToSpaceND", "input": ["StatefulPartitionedCall/sequential_5/residual_stack_._0._._1/conv1d_29/conv1d/Squeeze", "StatefulPartitionedCall/sequential_5/residual_stack_._0._._1/conv1d_29/conv1d/BatchToSpaceND/block_shape", "StatefulPartitionedCall/sequential_5/residual_stack_._0._._1/conv1d_29/conv1d/required_space_to_batch_paddings/crops"], "attr": {"Tcrops": {"type": "DT_INT32"}, "Tblock_shape": {"type": "DT_INT32"}, "T": {"type": "DT_FLOAT"}}}, {"name": "StatefulPartitionedCall/sequential_5/residual_stack_._0._._1/conv1d_29/BiasAdd", "op": "BiasAdd", "input": ["StatefulPartitionedCall/sequential_5/residual_stack_._0._._1/conv1d_29/conv1d/BatchToSpaceND", "StatefulPartitionedCall/sequential_5/residual_stack_._0._._1/conv1d_29/BiasAdd/ReadVariableOp"], "attr": {"data_format": {"s": "TkhXQw=="}, "T": {"type": "DT_FLOAT"}}}, {"name": "StatefulPartitionedCall/sequential_5/residual_stack_._0._._1/leaky_re_lu_32/LeakyRelu", "op": "LeakyRelu", "input": ["StatefulPartitionedCall/sequential_5/residual_stack_._0._._1/conv1d_29/BiasAdd"], "attr": {"alpha": {"f": 0.2}, "T": {"type": "DT_FLOAT"}}}, {"name": "StatefulPartitionedCall/sequential_5/residual_stack_._0._._1/conv1d_30/conv1d/ExpandDims", "op": "ExpandDims", "input": ["StatefulPartitionedCall/sequential_5/residual_stack_._0._._1/leaky_re_lu_32/LeakyRelu", "StatefulPartitionedCall/sequential_5/residual_stack_._0._._1/conv1d_30/conv1d/ExpandDims/dim"], "attr": {"T": {"type": "DT_FLOAT"}, "Tdim": {"type": "DT_INT32"}}}, {"name": "StatefulPartitionedCall/sequential_5/residual_stack_._0._._1/conv1d_30/conv1d", "op": "_FusedConv2D", "input": ["StatefulPartitionedCall/sequential_5/residual_stack_._0._._1/conv1d_30/conv1d/ExpandDims", "StatefulPartitionedCall/sequential_5/residual_stack_._0._._1/conv1d_30/conv1d/ExpandDims_1", "StatefulPartitionedCall/sequential_5/residual_stack_._0._._1/conv1d_30/BiasAdd/ReadVariableOp"], "device": "/device:CPU:0", "attr": {"fused_ops": {"list": {"s": ["Qmlhc0FkZA=="]}}, "use_cudnn_on_gpu": {"b": true}, "data_format": {"s": "TkhXQw=="}, "padding": {"s": "VkFMSUQ="}, "strides": {"list": {"i": ["1", "1", "1", "1"]}}, "dilations": {"list": {"i": ["1", "1", "1", "1"]}}, "explicit_paddings": {"list": {}}, "epsilon": {"f": 0.0}, "T": {"type": "DT_FLOAT"}, "num_args": {"i": "1"}}}, {"name": "StatefulPartitionedCall/sequential_5/residual_stack_._0._._1/conv1d_30/BiasAdd", "op": "Squeeze", "input": ["StatefulPartitionedCall/sequential_5/residual_stack_._0._._1/conv1d_30/conv1d"], "attr": {"T": {"type": "DT_FLOAT"}, "squeeze_dims": {"list": {"i": ["-3"]}}}}, {"name": "StatefulPartitionedCall/sequential_5/residual_stack_._0._._1/add", "op": "AddV2", "input": ["StatefulPartitionedCall/sequential_5/residual_stack_._0._._1/shortcut/BiasAdd", "StatefulPartitionedCall/sequential_5/residual_stack_._0._._1/conv1d_30/BiasAdd"], "attr": {"T": {"type": "DT_FLOAT"}}}, {"name": "StatefulPartitionedCall/sequential_5/residual_stack_._0._._2/shortcut/conv1d/ExpandDims", "op": "ExpandDims", "input": ["StatefulPartitionedCall/sequential_5/residual_stack_._0._._1/add", "StatefulPartitionedCall/sequential_5/residual_stack_._0._._2/shortcut/conv1d/ExpandDims/dim"], "attr": {"Tdim": {"type": "DT_INT32"}, "T": {"type": "DT_FLOAT"}}}, {"name": "StatefulPartitionedCall/sequential_5/residual_stack_._0._._2/leaky_re_lu_33/LeakyRelu", "op": "LeakyRelu", "input": ["StatefulPartitionedCall/sequential_5/residual_stack_._0._._1/add"], "attr": {"alpha": {"f": 0.2}, "T": {"type": "DT_FLOAT"}}}, {"name": "StatefulPartitionedCall/sequential_5/residual_stack_._0._._2/shortcut/conv1d", "op": "_FusedConv2D", "input": ["StatefulPartitionedCall/sequential_5/residual_stack_._0._._2/shortcut/conv1d/ExpandDims", "StatefulPartitionedCall/sequential_5/residual_stack_._0._._2/shortcut/conv1d/ExpandDims_1", "StatefulPartitionedCall/sequential_5/residual_stack_._0._._2/shortcut/BiasAdd/ReadVariableOp"], "device": "/device:CPU:0", "attr": {"use_cudnn_on_gpu": {"b": true}, "T": {"type": "DT_FLOAT"}, "fused_ops": {"list": {"s": ["Qmlhc0FkZA=="]}}, "explicit_paddings": {"list": {}}, "dilations": {"list": {"i": ["1", "1", "1", "1"]}}, "strides": {"list": {"i": ["1", "1", "1", "1"]}}, "data_format": {"s": "TkhXQw=="}, "padding": {"s": "VkFMSUQ="}, "epsilon": {"f": 0.0}, "num_args": {"i": "1"}}}, {"name": "StatefulPartitionedCall/sequential_5/residual_stack_._0._._2/tf_reflection_pad1d_14/MirrorPad", "op": "MirrorPad", "input": ["StatefulPartitionedCall/sequential_5/residual_stack_._0._._2/leaky_re_lu_33/LeakyRelu", "StatefulPartitionedCall/sequential_5/residual_stack_._0._._2/tf_reflection_pad1d_14/MirrorPad/paddings"], "attr": {"mode": {"s": "UkVGTEVDVA=="}, "T": {"type": "DT_FLOAT"}, "Tpaddings": {"type": "DT_INT32"}}}, {"name": "StatefulPartitionedCall/sequential_5/residual_stack_._0._._2/shortcut/BiasAdd", "op": "Squeeze", "input": ["StatefulPartitionedCall/sequential_5/residual_stack_._0._._2/shortcut/conv1d"], "attr": {"T": {"type": "DT_FLOAT"}, "squeeze_dims": {"list": {"i": ["-3"]}}}}, {"name": "StatefulPartitionedCall/sequential_5/residual_stack_._0._._2/conv1d_31/conv1d/Shape", "op": "Shape", "input": ["StatefulPartitionedCall/sequential_5/residual_stack_._0._._2/tf_reflection_pad1d_14/MirrorPad"], "attr": {"out_type": {"type": "DT_INT32"}, "T": {"type": "DT_FLOAT"}}}, {"name": "StatefulPartitionedCall/sequential_5/residual_stack_._0._._2/conv1d_31/conv1d/strided_slice", "op": "StridedSlice", "input": ["StatefulPartitionedCall/sequential_5/residual_stack_._0._._2/conv1d_31/conv1d/Shape", "StatefulPartitionedCall/sequential_5/residual_stack_._0._._2/conv1d_31/conv1d/strided_slice/stack", "StatefulPartitionedCall/sequential_5/residual_stack_._0._._2/conv1d_31/conv1d/strided_slice/stack_1", "StatefulPartitionedCall/sequential_5/residual_stack_._0._._2/conv1d_31/conv1d/strided_slice/stack_2"], "attr": {"new_axis_mask": {"i": "0"}, "begin_mask": {"i": "0"}, "Index": {"type": "DT_INT32"}, "end_mask": {"i": "0"}, "T": {"type": "DT_INT32"}, "shrink_axis_mask": {"i": "1"}, "ellipsis_mask": {"i": "0"}}}, {"name": "ConstantFolding/StatefulPartitionedCall/sequential_5/residual_stack_._0._._2/conv1d_31/conv1d/stack_const_axis", "op": "Const", "input": ["^StatefulPartitionedCall/sequential_5/residual_stack_._0._._2/conv1d_31/conv1d/strided_slice"], "attr": {"dtype": {"type": "DT_INT32"}, "value": {"tensor": {"dtype": "DT_INT32", "tensorShape": {}}}}}, {"name": "StatefulPartitionedCall/sequential_5/residual_stack_._0._._2/conv1d_31/conv1d/stack", "op": "ExpandDims", "input": ["StatefulPartitionedCall/sequential_5/residual_stack_._0._._2/conv1d_31/conv1d/strided_slice", "ConstantFolding/StatefulPartitionedCall/sequential_5/residual_stack_._0._._2/conv1d_31/conv1d/stack_const_axis"], "attr": {"Tdim": {"type": "DT_INT32"}, "T": {"type": "DT_INT32"}}}, {"name": "StatefulPartitionedCall/sequential_5/residual_stack_._0._._2/conv1d_31/conv1d/required_space_to_batch_paddings/mod", "op": "FloorMod", "input": ["StatefulPartitionedCall/sequential_5/residual_stack_._0._._2/conv1d_31/conv1d/stack", "StatefulPartitionedCall/sequential_5/residual_stack_._0._._2/conv1d_31/conv1d/dilation_rate"], "attr": {"T": {"type": "DT_INT32"}}}, {"name": "StatefulPartitionedCall/sequential_5/residual_stack_._0._._2/conv1d_31/conv1d/required_space_to_batch_paddings/sub", "op": "Sub", "input": ["StatefulPartitionedCall/sequential_5/residual_stack_._0._._2/conv1d_31/conv1d/dilation_rate", "StatefulPartitionedCall/sequential_5/residual_stack_._0._._2/conv1d_31/conv1d/required_space_to_batch_paddings/mod"], "attr": {"T": {"type": "DT_INT32"}}}, {"name": "StatefulPartitionedCall/sequential_5/residual_stack_._0._._2/conv1d_31/conv1d/required_space_to_batch_paddings/mod_1", "op": "FloorMod", "input": ["StatefulPartitionedCall/sequential_5/residual_stack_._0._._2/conv1d_31/conv1d/required_space_to_batch_paddings/sub", "StatefulPartitionedCall/sequential_5/residual_stack_._0._._2/conv1d_31/conv1d/dilation_rate"], "attr": {"T": {"type": "DT_INT32"}}}, {"name": "StatefulPartitionedCall/sequential_5/residual_stack_._0._._2/conv1d_31/conv1d/required_space_to_batch_paddings/strided_slice_3", "op": "StridedSlice", "input": ["StatefulPartitionedCall/sequential_5/residual_stack_._0._._2/conv1d_31/conv1d/required_space_to_batch_paddings/mod_1", "StatefulPartitionedCall/sequential_5/residual_stack_._0._._2/conv1d_31/conv1d/required_space_to_batch_paddings/strided_slice_3/stack", "StatefulPartitionedCall/sequential_5/residual_stack_._0._._2/conv1d_31/conv1d/required_space_to_batch_paddings/strided_slice_3/stack_1", "StatefulPartitionedCall/sequential_5/residual_stack_._0._._2/conv1d_31/conv1d/required_space_to_batch_paddings/strided_slice_3/stack_2"], "attr": {"shrink_axis_mask": {"i": "1"}, "end_mask": {"i": "0"}, "new_axis_mask": {"i": "0"}, "ellipsis_mask": {"i": "0"}, "begin_mask": {"i": "0"}, "T": {"type": "DT_INT32"}, "Index": {"type": "DT_INT32"}}}, {"name": "StatefulPartitionedCall/sequential_5/residual_stack_._0._._2/conv1d_31/conv1d/required_space_to_batch_paddings/strided_slice_4", "op": "StridedSlice", "input": ["StatefulPartitionedCall/sequential_5/residual_stack_._0._._2/conv1d_31/conv1d/required_space_to_batch_paddings/mod_1", "StatefulPartitionedCall/sequential_5/residual_stack_._0._._2/conv1d_31/conv1d/required_space_to_batch_paddings/strided_slice_4/stack", "StatefulPartitionedCall/sequential_5/residual_stack_._0._._2/conv1d_31/conv1d/required_space_to_batch_paddings/strided_slice_4/stack_1", "StatefulPartitionedCall/sequential_5/residual_stack_._0._._2/conv1d_31/conv1d/required_space_to_batch_paddings/strided_slice_4/stack_2"], "attr": {"ellipsis_mask": {"i": "0"}, "shrink_axis_mask": {"i": "1"}, "new_axis_mask": {"i": "0"}, "Index": {"type": "DT_INT32"}, "begin_mask": {"i": "0"}, "end_mask": {"i": "0"}, "T": {"type": "DT_INT32"}}}, {"name": "StatefulPartitionedCall/sequential_5/residual_stack_._0._._2/conv1d_31/conv1d/required_space_to_batch_paddings/paddings/0", "op": "Pack", "input": ["StatefulPartitionedCall/sequential_5/residual_stack_._0._._2/conv1d_31/conv1d/required_space_to_batch_paddings/strided_slice_2", "StatefulPartitionedCall/sequential_5/residual_stack_._0._._2/conv1d_31/conv1d/required_space_to_batch_paddings/strided_slice_3"], "attr": {"N": {"i": "2"}, "axis": {"i": "0"}, "T": {"type": "DT_INT32"}}}, {"name": "StatefulPartitionedCall/sequential_5/residual_stack_._0._._2/conv1d_31/conv1d/required_space_to_batch_paddings/crops/0", "op": "Pack", "input": ["StatefulPartitionedCall/sequential_5/residual_stack_._0._._2/conv1d_31/conv1d/required_space_to_batch_paddings/crops/0/0", "StatefulPartitionedCall/sequential_5/residual_stack_._0._._2/conv1d_31/conv1d/required_space_to_batch_paddings/strided_slice_4"], "attr": {"axis": {"i": "0"}, "T": {"type": "DT_INT32"}, "N": {"i": "2"}}}, {"name": "ConstantFolding/StatefulPartitionedCall/sequential_5/residual_stack_._0._._2/conv1d_31/conv1d/required_space_to_batch_paddings/paddings_const_axis", "op": "Const", "input": ["^StatefulPartitionedCall/sequential_5/residual_stack_._0._._2/conv1d_31/conv1d/required_space_to_batch_paddings/paddings/0"], "attr": {"value": {"tensor": {"dtype": "DT_INT32", "tensorShape": {}}}, "dtype": {"type": "DT_INT32"}}}, {"name": "ConstantFolding/StatefulPartitionedCall/sequential_5/residual_stack_._0._._2/conv1d_31/conv1d/required_space_to_batch_paddings/crops_const_axis", "op": "Const", "input": ["^StatefulPartitionedCall/sequential_5/residual_stack_._0._._2/conv1d_31/conv1d/required_space_to_batch_paddings/crops/0"], "attr": {"dtype": {"type": "DT_INT32"}, "value": {"tensor": {"dtype": "DT_INT32", "tensorShape": {}}}}}, {"name": "StatefulPartitionedCall/sequential_5/residual_stack_._0._._2/conv1d_31/conv1d/required_space_to_batch_paddings/paddings", "op": "ExpandDims", "input": ["StatefulPartitionedCall/sequential_5/residual_stack_._0._._2/conv1d_31/conv1d/required_space_to_batch_paddings/paddings/0", "ConstantFolding/StatefulPartitionedCall/sequential_5/residual_stack_._0._._2/conv1d_31/conv1d/required_space_to_batch_paddings/paddings_const_axis"], "attr": {"Tdim": {"type": "DT_INT32"}, "T": {"type": "DT_INT32"}}}, {"name": "StatefulPartitionedCall/sequential_5/residual_stack_._0._._2/conv1d_31/conv1d/required_space_to_batch_paddings/crops", "op": "ExpandDims", "input": ["StatefulPartitionedCall/sequential_5/residual_stack_._0._._2/conv1d_31/conv1d/required_space_to_batch_paddings/crops/0", "ConstantFolding/StatefulPartitionedCall/sequential_5/residual_stack_._0._._2/conv1d_31/conv1d/required_space_to_batch_paddings/crops_const_axis"], "attr": {"Tdim": {"type": "DT_INT32"}, "T": {"type": "DT_INT32"}}}, {"name": "StatefulPartitionedCall/sequential_5/residual_stack_._0._._2/conv1d_31/conv1d/SpaceToBatchND", "op": "SpaceToBatchND", "input": ["StatefulPartitionedCall/sequential_5/residual_stack_._0._._2/tf_reflection_pad1d_14/MirrorPad", "StatefulPartitionedCall/sequential_5/residual_stack_._0._._2/conv1d_31/conv1d/SpaceToBatchND/block_shape", "StatefulPartitionedCall/sequential_5/residual_stack_._0._._2/conv1d_31/conv1d/required_space_to_batch_paddings/paddings"], "attr": {"Tblock_shape": {"type": "DT_INT32"}, "Tpaddings": {"type": "DT_INT32"}, "T": {"type": "DT_FLOAT"}}}, {"name": "StatefulPartitionedCall/sequential_5/residual_stack_._0._._2/conv1d_31/conv1d/ExpandDims", "op": "ExpandDims", "input": ["StatefulPartitionedCall/sequential_5/residual_stack_._0._._2/conv1d_31/conv1d/SpaceToBatchND", "StatefulPartitionedCall/sequential_5/residual_stack_._0._._2/conv1d_31/conv1d/ExpandDims/dim"], "attr": {"Tdim": {"type": "DT_INT32"}, "T": {"type": "DT_FLOAT"}}}, {"name": "StatefulPartitionedCall/sequential_5/residual_stack_._0._._2/conv1d_31/conv1d", "op": "Conv2D", "input": ["StatefulPartitionedCall/sequential_5/residual_stack_._0._._2/conv1d_31/conv1d/ExpandDims", "StatefulPartitionedCall/sequential_5/residual_stack_._0._._2/conv1d_31/conv1d/ExpandDims_1"], "device": "/device:CPU:0", "attr": {"explicit_paddings": {"list": {}}, "data_format": {"s": "TkhXQw=="}, "padding": {"s": "VkFMSUQ="}, "T": {"type": "DT_FLOAT"}, "dilations": {"list": {"i": ["1", "1", "1", "1"]}}, "use_cudnn_on_gpu": {"b": true}, "strides": {"list": {"i": ["1", "1", "1", "1"]}}}}, {"name": "StatefulPartitionedCall/sequential_5/residual_stack_._0._._2/conv1d_31/conv1d/Squeeze", "op": "Squeeze", "input": ["StatefulPartitionedCall/sequential_5/residual_stack_._0._._2/conv1d_31/conv1d"], "attr": {"squeeze_dims": {"list": {"i": ["-3"]}}, "T": {"type": "DT_FLOAT"}}}, {"name": "StatefulPartitionedCall/sequential_5/residual_stack_._0._._2/conv1d_31/conv1d/BatchToSpaceND", "op": "BatchToSpaceND", "input": ["StatefulPartitionedCall/sequential_5/residual_stack_._0._._2/conv1d_31/conv1d/Squeeze", "StatefulPartitionedCall/sequential_5/residual_stack_._0._._2/conv1d_31/conv1d/BatchToSpaceND/block_shape", "StatefulPartitionedCall/sequential_5/residual_stack_._0._._2/conv1d_31/conv1d/required_space_to_batch_paddings/crops"], "attr": {"T": {"type": "DT_FLOAT"}, "Tcrops": {"type": "DT_INT32"}, "Tblock_shape": {"type": "DT_INT32"}}}, {"name": "StatefulPartitionedCall/sequential_5/residual_stack_._0._._2/conv1d_31/BiasAdd", "op": "BiasAdd", "input": ["StatefulPartitionedCall/sequential_5/residual_stack_._0._._2/conv1d_31/conv1d/BatchToSpaceND", "StatefulPartitionedCall/sequential_5/residual_stack_._0._._2/conv1d_31/BiasAdd/ReadVariableOp"], "attr": {"T": {"type": "DT_FLOAT"}, "data_format": {"s": "TkhXQw=="}}}, {"name": "StatefulPartitionedCall/sequential_5/residual_stack_._0._._2/leaky_re_lu_34/LeakyRelu", "op": "LeakyRelu", "input": ["StatefulPartitionedCall/sequential_5/residual_stack_._0._._2/conv1d_31/BiasAdd"], "attr": {"T": {"type": "DT_FLOAT"}, "alpha": {"f": 0.2}}}, {"name": "StatefulPartitionedCall/sequential_5/residual_stack_._0._._2/conv1d_32/conv1d/ExpandDims", "op": "ExpandDims", "input": ["StatefulPartitionedCall/sequential_5/residual_stack_._0._._2/leaky_re_lu_34/LeakyRelu", "StatefulPartitionedCall/sequential_5/residual_stack_._0._._2/conv1d_32/conv1d/ExpandDims/dim"], "attr": {"Tdim": {"type": "DT_INT32"}, "T": {"type": "DT_FLOAT"}}}, {"name": "StatefulPartitionedCall/sequential_5/residual_stack_._0._._2/conv1d_32/conv1d", "op": "_FusedConv2D", "input": ["StatefulPartitionedCall/sequential_5/residual_stack_._0._._2/conv1d_32/conv1d/ExpandDims", "StatefulPartitionedCall/sequential_5/residual_stack_._0._._2/conv1d_32/conv1d/ExpandDims_1", "StatefulPartitionedCall/sequential_5/residual_stack_._0._._2/conv1d_32/BiasAdd/ReadVariableOp"], "device": "/device:CPU:0", "attr": {"num_args": {"i": "1"}, "epsilon": {"f": 0.0}, "padding": {"s": "VkFMSUQ="}, "explicit_paddings": {"list": {}}, "fused_ops": {"list": {"s": ["Qmlhc0FkZA=="]}}, "use_cudnn_on_gpu": {"b": true}, "dilations": {"list": {"i": ["1", "1", "1", "1"]}}, "T": {"type": "DT_FLOAT"}, "strides": {"list": {"i": ["1", "1", "1", "1"]}}, "data_format": {"s": "TkhXQw=="}}}, {"name": "StatefulPartitionedCall/sequential_5/residual_stack_._0._._2/conv1d_32/BiasAdd", "op": "Squeeze", "input": ["StatefulPartitionedCall/sequential_5/residual_stack_._0._._2/conv1d_32/conv1d"], "attr": {"T": {"type": "DT_FLOAT"}, "squeeze_dims": {"list": {"i": ["-3"]}}}}, {"name": "StatefulPartitionedCall/sequential_5/residual_stack_._0._._2/add", "op": "AddV2", "input": ["StatefulPartitionedCall/sequential_5/residual_stack_._0._._2/shortcut/BiasAdd", "StatefulPartitionedCall/sequential_5/residual_stack_._0._._2/conv1d_32/BiasAdd"], "attr": {"T": {"type": "DT_FLOAT"}}}, {"name": "StatefulPartitionedCall/sequential_5/residual_stack_._0._._3/shortcut/conv1d/ExpandDims", "op": "ExpandDims", "input": ["StatefulPartitionedCall/sequential_5/residual_stack_._0._._2/add", "StatefulPartitionedCall/sequential_5/residual_stack_._0._._3/shortcut/conv1d/ExpandDims/dim"], "attr": {"T": {"type": "DT_FLOAT"}, "Tdim": {"type": "DT_INT32"}}}, {"name": "StatefulPartitionedCall/sequential_5/residual_stack_._0._._3/leaky_re_lu_35/LeakyRelu", "op": "LeakyRelu", "input": ["StatefulPartitionedCall/sequential_5/residual_stack_._0._._2/add"], "attr": {"T": {"type": "DT_FLOAT"}, "alpha": {"f": 0.2}}}, {"name": "StatefulPartitionedCall/sequential_5/residual_stack_._0._._3/shortcut/conv1d", "op": "_FusedConv2D", "input": ["StatefulPartitionedCall/sequential_5/residual_stack_._0._._3/shortcut/conv1d/ExpandDims", "StatefulPartitionedCall/sequential_5/residual_stack_._0._._3/shortcut/conv1d/ExpandDims_1", "StatefulPartitionedCall/sequential_5/residual_stack_._0._._3/shortcut/BiasAdd/ReadVariableOp"], "device": "/device:CPU:0", "attr": {"data_format": {"s": "TkhXQw=="}, "padding": {"s": "VkFMSUQ="}, "num_args": {"i": "1"}, "epsilon": {"f": 0.0}, "fused_ops": {"list": {"s": ["Qmlhc0FkZA=="]}}, "dilations": {"list": {"i": ["1", "1", "1", "1"]}}, "strides": {"list": {"i": ["1", "1", "1", "1"]}}, "use_cudnn_on_gpu": {"b": true}, "T": {"type": "DT_FLOAT"}, "explicit_paddings": {"list": {}}}}, {"name": "StatefulPartitionedCall/sequential_5/residual_stack_._0._._3/tf_reflection_pad1d_15/MirrorPad", "op": "MirrorPad", "input": ["StatefulPartitionedCall/sequential_5/residual_stack_._0._._3/leaky_re_lu_35/LeakyRelu", "StatefulPartitionedCall/sequential_5/residual_stack_._0._._3/tf_reflection_pad1d_15/MirrorPad/paddings"], "attr": {"T": {"type": "DT_FLOAT"}, "mode": {"s": "UkVGTEVDVA=="}, "Tpaddings": {"type": "DT_INT32"}}}, {"name": "StatefulPartitionedCall/sequential_5/residual_stack_._0._._3/shortcut/BiasAdd", "op": "Squeeze", "input": ["StatefulPartitionedCall/sequential_5/residual_stack_._0._._3/shortcut/conv1d"], "attr": {"T": {"type": "DT_FLOAT"}, "squeeze_dims": {"list": {"i": ["-3"]}}}}, {"name": "StatefulPartitionedCall/sequential_5/residual_stack_._0._._3/conv1d_33/conv1d/Shape", "op": "Shape", "input": ["StatefulPartitionedCall/sequential_5/residual_stack_._0._._3/tf_reflection_pad1d_15/MirrorPad"], "attr": {"T": {"type": "DT_FLOAT"}, "out_type": {"type": "DT_INT32"}}}, {"name": "StatefulPartitionedCall/sequential_5/residual_stack_._0._._3/conv1d_33/conv1d/strided_slice", "op": "StridedSlice", "input": ["StatefulPartitionedCall/sequential_5/residual_stack_._0._._3/conv1d_33/conv1d/Shape", "StatefulPartitionedCall/sequential_5/residual_stack_._0._._3/conv1d_33/conv1d/strided_slice/stack", "StatefulPartitionedCall/sequential_5/residual_stack_._0._._3/conv1d_33/conv1d/strided_slice/stack_1", "StatefulPartitionedCall/sequential_5/residual_stack_._0._._3/conv1d_33/conv1d/strided_slice/stack_2"], "attr": {"ellipsis_mask": {"i": "0"}, "end_mask": {"i": "0"}, "shrink_axis_mask": {"i": "1"}, "new_axis_mask": {"i": "0"}, "T": {"type": "DT_INT32"}, "begin_mask": {"i": "0"}, "Index": {"type": "DT_INT32"}}}, {"name": "ConstantFolding/StatefulPartitionedCall/sequential_5/residual_stack_._0._._3/conv1d_33/conv1d/stack_const_axis", "op": "Const", "input": ["^StatefulPartitionedCall/sequential_5/residual_stack_._0._._3/conv1d_33/conv1d/strided_slice"], "attr": {"dtype": {"type": "DT_INT32"}, "value": {"tensor": {"dtype": "DT_INT32", "tensorShape": {}}}}}, {"name": "StatefulPartitionedCall/sequential_5/residual_stack_._0._._3/conv1d_33/conv1d/stack", "op": "ExpandDims", "input": ["StatefulPartitionedCall/sequential_5/residual_stack_._0._._3/conv1d_33/conv1d/strided_slice", "ConstantFolding/StatefulPartitionedCall/sequential_5/residual_stack_._0._._3/conv1d_33/conv1d/stack_const_axis"], "attr": {"T": {"type": "DT_INT32"}, "Tdim": {"type": "DT_INT32"}}}, {"name": "StatefulPartitionedCall/sequential_5/residual_stack_._0._._3/conv1d_33/conv1d/required_space_to_batch_paddings/mod", "op": "FloorMod", "input": ["StatefulPartitionedCall/sequential_5/residual_stack_._0._._3/conv1d_33/conv1d/stack", "StatefulPartitionedCall/sequential_5/residual_stack_._0._._3/conv1d_33/conv1d/dilation_rate"], "attr": {"T": {"type": "DT_INT32"}}}, {"name": "StatefulPartitionedCall/sequential_5/residual_stack_._0._._3/conv1d_33/conv1d/required_space_to_batch_paddings/sub", "op": "Sub", "input": ["StatefulPartitionedCall/sequential_5/residual_stack_._0._._3/conv1d_33/conv1d/dilation_rate", "StatefulPartitionedCall/sequential_5/residual_stack_._0._._3/conv1d_33/conv1d/required_space_to_batch_paddings/mod"], "attr": {"T": {"type": "DT_INT32"}}}, {"name": "StatefulPartitionedCall/sequential_5/residual_stack_._0._._3/conv1d_33/conv1d/required_space_to_batch_paddings/mod_1", "op": "FloorMod", "input": ["StatefulPartitionedCall/sequential_5/residual_stack_._0._._3/conv1d_33/conv1d/required_space_to_batch_paddings/sub", "StatefulPartitionedCall/sequential_5/residual_stack_._0._._3/conv1d_33/conv1d/dilation_rate"], "attr": {"T": {"type": "DT_INT32"}}}, {"name": "StatefulPartitionedCall/sequential_5/residual_stack_._0._._3/conv1d_33/conv1d/required_space_to_batch_paddings/strided_slice_3", "op": "StridedSlice", "input": ["StatefulPartitionedCall/sequential_5/residual_stack_._0._._3/conv1d_33/conv1d/required_space_to_batch_paddings/mod_1", "StatefulPartitionedCall/sequential_5/residual_stack_._0._._3/conv1d_33/conv1d/required_space_to_batch_paddings/strided_slice_3/stack", "StatefulPartitionedCall/sequential_5/residual_stack_._0._._3/conv1d_33/conv1d/required_space_to_batch_paddings/strided_slice_3/stack_1", "StatefulPartitionedCall/sequential_5/residual_stack_._0._._3/conv1d_33/conv1d/required_space_to_batch_paddings/strided_slice_3/stack_2"], "attr": {"begin_mask": {"i": "0"}, "end_mask": {"i": "0"}, "Index": {"type": "DT_INT32"}, "T": {"type": "DT_INT32"}, "shrink_axis_mask": {"i": "1"}, "new_axis_mask": {"i": "0"}, "ellipsis_mask": {"i": "0"}}}, {"name": "StatefulPartitionedCall/sequential_5/residual_stack_._0._._3/conv1d_33/conv1d/required_space_to_batch_paddings/strided_slice_4", "op": "StridedSlice", "input": ["StatefulPartitionedCall/sequential_5/residual_stack_._0._._3/conv1d_33/conv1d/required_space_to_batch_paddings/mod_1", "StatefulPartitionedCall/sequential_5/residual_stack_._0._._3/conv1d_33/conv1d/required_space_to_batch_paddings/strided_slice_4/stack", "StatefulPartitionedCall/sequential_5/residual_stack_._0._._3/conv1d_33/conv1d/required_space_to_batch_paddings/strided_slice_4/stack_1", "StatefulPartitionedCall/sequential_5/residual_stack_._0._._3/conv1d_33/conv1d/required_space_to_batch_paddings/strided_slice_4/stack_2"], "attr": {"ellipsis_mask": {"i": "0"}, "Index": {"type": "DT_INT32"}, "shrink_axis_mask": {"i": "1"}, "new_axis_mask": {"i": "0"}, "T": {"type": "DT_INT32"}, "begin_mask": {"i": "0"}, "end_mask": {"i": "0"}}}, {"name": "StatefulPartitionedCall/sequential_5/residual_stack_._0._._3/conv1d_33/conv1d/required_space_to_batch_paddings/paddings/0", "op": "Pack", "input": ["StatefulPartitionedCall/sequential_5/residual_stack_._0._._3/conv1d_33/conv1d/required_space_to_batch_paddings/strided_slice_2", "StatefulPartitionedCall/sequential_5/residual_stack_._0._._3/conv1d_33/conv1d/required_space_to_batch_paddings/strided_slice_3"], "attr": {"axis": {"i": "0"}, "N": {"i": "2"}, "T": {"type": "DT_INT32"}}}, {"name": "StatefulPartitionedCall/sequential_5/residual_stack_._0._._3/conv1d_33/conv1d/required_space_to_batch_paddings/crops/0", "op": "Pack", "input": ["StatefulPartitionedCall/sequential_5/residual_stack_._0._._3/conv1d_33/conv1d/required_space_to_batch_paddings/crops/0/0", "StatefulPartitionedCall/sequential_5/residual_stack_._0._._3/conv1d_33/conv1d/required_space_to_batch_paddings/strided_slice_4"], "attr": {"N": {"i": "2"}, "axis": {"i": "0"}, "T": {"type": "DT_INT32"}}}, {"name": "ConstantFolding/StatefulPartitionedCall/sequential_5/residual_stack_._0._._3/conv1d_33/conv1d/required_space_to_batch_paddings/paddings_const_axis", "op": "Const", "input": ["^StatefulPartitionedCall/sequential_5/residual_stack_._0._._3/conv1d_33/conv1d/required_space_to_batch_paddings/paddings/0"], "attr": {"value": {"tensor": {"dtype": "DT_INT32", "tensorShape": {}}}, "dtype": {"type": "DT_INT32"}}}, {"name": "ConstantFolding/StatefulPartitionedCall/sequential_5/residual_stack_._0._._3/conv1d_33/conv1d/required_space_to_batch_paddings/crops_const_axis", "op": "Const", "input": ["^StatefulPartitionedCall/sequential_5/residual_stack_._0._._3/conv1d_33/conv1d/required_space_to_batch_paddings/crops/0"], "attr": {"value": {"tensor": {"dtype": "DT_INT32", "tensorShape": {}}}, "dtype": {"type": "DT_INT32"}}}, {"name": "StatefulPartitionedCall/sequential_5/residual_stack_._0._._3/conv1d_33/conv1d/required_space_to_batch_paddings/paddings", "op": "ExpandDims", "input": ["StatefulPartitionedCall/sequential_5/residual_stack_._0._._3/conv1d_33/conv1d/required_space_to_batch_paddings/paddings/0", "ConstantFolding/StatefulPartitionedCall/sequential_5/residual_stack_._0._._3/conv1d_33/conv1d/required_space_to_batch_paddings/paddings_const_axis"], "attr": {"Tdim": {"type": "DT_INT32"}, "T": {"type": "DT_INT32"}}}, {"name": "StatefulPartitionedCall/sequential_5/residual_stack_._0._._3/conv1d_33/conv1d/required_space_to_batch_paddings/crops", "op": "ExpandDims", "input": ["StatefulPartitionedCall/sequential_5/residual_stack_._0._._3/conv1d_33/conv1d/required_space_to_batch_paddings/crops/0", "ConstantFolding/StatefulPartitionedCall/sequential_5/residual_stack_._0._._3/conv1d_33/conv1d/required_space_to_batch_paddings/crops_const_axis"], "attr": {"T": {"type": "DT_INT32"}, "Tdim": {"type": "DT_INT32"}}}, {"name": "StatefulPartitionedCall/sequential_5/residual_stack_._0._._3/conv1d_33/conv1d/SpaceToBatchND", "op": "SpaceToBatchND", "input": ["StatefulPartitionedCall/sequential_5/residual_stack_._0._._3/tf_reflection_pad1d_15/MirrorPad", "StatefulPartitionedCall/sequential_5/residual_stack_._0._._3/conv1d_33/conv1d/SpaceToBatchND/block_shape", "StatefulPartitionedCall/sequential_5/residual_stack_._0._._3/conv1d_33/conv1d/required_space_to_batch_paddings/paddings"], "attr": {"Tpaddings": {"type": "DT_INT32"}, "T": {"type": "DT_FLOAT"}, "Tblock_shape": {"type": "DT_INT32"}}}, {"name": "StatefulPartitionedCall/sequential_5/residual_stack_._0._._3/conv1d_33/conv1d/ExpandDims", "op": "ExpandDims", "input": ["StatefulPartitionedCall/sequential_5/residual_stack_._0._._3/conv1d_33/conv1d/SpaceToBatchND", "StatefulPartitionedCall/sequential_5/residual_stack_._0._._3/conv1d_33/conv1d/ExpandDims/dim"], "attr": {"Tdim": {"type": "DT_INT32"}, "T": {"type": "DT_FLOAT"}}}, {"name": "StatefulPartitionedCall/sequential_5/residual_stack_._0._._3/conv1d_33/conv1d", "op": "Conv2D", "input": ["StatefulPartitionedCall/sequential_5/residual_stack_._0._._3/conv1d_33/conv1d/ExpandDims", "StatefulPartitionedCall/sequential_5/residual_stack_._0._._3/conv1d_33/conv1d/ExpandDims_1"], "device": "/device:CPU:0", "attr": {"T": {"type": "DT_FLOAT"}, "use_cudnn_on_gpu": {"b": true}, "dilations": {"list": {"i": ["1", "1", "1", "1"]}}, "strides": {"list": {"i": ["1", "1", "1", "1"]}}, "data_format": {"s": "TkhXQw=="}, "padding": {"s": "VkFMSUQ="}, "explicit_paddings": {"list": {}}}}, {"name": "StatefulPartitionedCall/sequential_5/residual_stack_._0._._3/conv1d_33/conv1d/Squeeze", "op": "Squeeze", "input": ["StatefulPartitionedCall/sequential_5/residual_stack_._0._._3/conv1d_33/conv1d"], "attr": {"squeeze_dims": {"list": {"i": ["-3"]}}, "T": {"type": "DT_FLOAT"}}}, {"name": "StatefulPartitionedCall/sequential_5/residual_stack_._0._._3/conv1d_33/conv1d/BatchToSpaceND", "op": "BatchToSpaceND", "input": ["StatefulPartitionedCall/sequential_5/residual_stack_._0._._3/conv1d_33/conv1d/Squeeze", "StatefulPartitionedCall/sequential_5/residual_stack_._0._._3/conv1d_33/conv1d/BatchToSpaceND/block_shape", "StatefulPartitionedCall/sequential_5/residual_stack_._0._._3/conv1d_33/conv1d/required_space_to_batch_paddings/crops"], "attr": {"Tcrops": {"type": "DT_INT32"}, "Tblock_shape": {"type": "DT_INT32"}, "T": {"type": "DT_FLOAT"}}}, {"name": "StatefulPartitionedCall/sequential_5/residual_stack_._0._._3/conv1d_33/BiasAdd", "op": "BiasAdd", "input": ["StatefulPartitionedCall/sequential_5/residual_stack_._0._._3/conv1d_33/conv1d/BatchToSpaceND", "StatefulPartitionedCall/sequential_5/residual_stack_._0._._3/conv1d_33/BiasAdd/ReadVariableOp"], "attr": {"T": {"type": "DT_FLOAT"}, "data_format": {"s": "TkhXQw=="}}}, {"name": "StatefulPartitionedCall/sequential_5/residual_stack_._0._._3/leaky_re_lu_36/LeakyRelu", "op": "LeakyRelu", "input": ["StatefulPartitionedCall/sequential_5/residual_stack_._0._._3/conv1d_33/BiasAdd"], "attr": {"alpha": {"f": 0.2}, "T": {"type": "DT_FLOAT"}}}, {"name": "StatefulPartitionedCall/sequential_5/residual_stack_._0._._3/conv1d_34/conv1d/ExpandDims", "op": "ExpandDims", "input": ["StatefulPartitionedCall/sequential_5/residual_stack_._0._._3/leaky_re_lu_36/LeakyRelu", "StatefulPartitionedCall/sequential_5/residual_stack_._0._._3/conv1d_34/conv1d/ExpandDims/dim"], "attr": {"T": {"type": "DT_FLOAT"}, "Tdim": {"type": "DT_INT32"}}}, {"name": "StatefulPartitionedCall/sequential_5/residual_stack_._0._._3/conv1d_34/conv1d", "op": "_FusedConv2D", "input": ["StatefulPartitionedCall/sequential_5/residual_stack_._0._._3/conv1d_34/conv1d/ExpandDims", "StatefulPartitionedCall/sequential_5/residual_stack_._0._._3/conv1d_34/conv1d/ExpandDims_1", "StatefulPartitionedCall/sequential_5/residual_stack_._0._._3/conv1d_34/BiasAdd/ReadVariableOp"], "device": "/device:CPU:0", "attr": {"explicit_paddings": {"list": {}}, "strides": {"list": {"i": ["1", "1", "1", "1"]}}, "dilations": {"list": {"i": ["1", "1", "1", "1"]}}, "data_format": {"s": "TkhXQw=="}, "T": {"type": "DT_FLOAT"}, "epsilon": {"f": 0.0}, "use_cudnn_on_gpu": {"b": true}, "num_args": {"i": "1"}, "fused_ops": {"list": {"s": ["Qmlhc0FkZA=="]}}, "padding": {"s": "VkFMSUQ="}}}, {"name": "StatefulPartitionedCall/sequential_5/residual_stack_._0._._3/conv1d_34/BiasAdd", "op": "Squeeze", "input": ["StatefulPartitionedCall/sequential_5/residual_stack_._0._._3/conv1d_34/conv1d"], "attr": {"squeeze_dims": {"list": {"i": ["-3"]}}, "T": {"type": "DT_FLOAT"}}}, {"name": "StatefulPartitionedCall/sequential_5/residual_stack_._0._._3/add", "op": "AddV2", "input": ["StatefulPartitionedCall/sequential_5/residual_stack_._0._._3/shortcut/BiasAdd", "StatefulPartitionedCall/sequential_5/residual_stack_._0._._3/conv1d_34/BiasAdd"], "attr": {"T": {"type": "DT_FLOAT"}}}, {"name": "StatefulPartitionedCall/sequential_5/leaky_re_lu_37/LeakyRelu", "op": "LeakyRelu", "input": ["StatefulPartitionedCall/sequential_5/residual_stack_._0._._3/add"], "attr": {"T": {"type": "DT_FLOAT"}, "alpha": {"f": 0.2}}}, {"name": "StatefulPartitionedCall/sequential_5/conv_transpose_._1/ExpandDims", "op": "ExpandDims", "input": ["StatefulPartitionedCall/sequential_5/leaky_re_lu_37/LeakyRelu", "StatefulPartitionedCall/sequential_5/conv_transpose_._1/ExpandDims/dim"], "attr": {"Tdim": {"type": "DT_INT32"}, "T": {"type": "DT_FLOAT"}}}, {"name": "StatefulPartitionedCall/sequential_5/conv_transpose_._1/conv2d_transpose_4/Shape", "op": "Shape", "input": ["StatefulPartitionedCall/sequential_5/conv_transpose_._1/ExpandDims"], "attr": {"out_type": {"type": "DT_INT32"}, "T": {"type": "DT_FLOAT"}}}, {"name": "StatefulPartitionedCall/sequential_5/conv_transpose_._1/conv2d_transpose_4/strided_slice", "op": "StridedSlice", "input": ["StatefulPartitionedCall/sequential_5/conv_transpose_._1/conv2d_transpose_4/Shape", "StatefulPartitionedCall/sequential_5/conv_transpose_._1/conv2d_transpose_4/strided_slice/stack", "StatefulPartitionedCall/sequential_5/conv_transpose_._1/conv2d_transpose_4/strided_slice/stack_1", "StatefulPartitionedCall/sequential_5/conv_transpose_._1/conv2d_transpose_4/strided_slice/stack_2"], "attr": {"begin_mask": {"i": "0"}, "T": {"type": "DT_INT32"}, "ellipsis_mask": {"i": "0"}, "new_axis_mask": {"i": "0"}, "end_mask": {"i": "0"}, "Index": {"type": "DT_INT32"}, "shrink_axis_mask": {"i": "1"}}}, {"name": "StatefulPartitionedCall/sequential_5/conv_transpose_._1/conv2d_transpose_4/strided_slice_1", "op": "StridedSlice", "input": ["StatefulPartitionedCall/sequential_5/conv_transpose_._1/conv2d_transpose_4/Shape", "StatefulPartitionedCall/sequential_5/conv_transpose_._1/conv2d_transpose_4/strided_slice_1/stack", "StatefulPartitionedCall/sequential_5/conv_transpose_._1/conv2d_transpose_4/strided_slice_1/stack_1", "StatefulPartitionedCall/sequential_5/conv_transpose_._1/conv2d_transpose_4/strided_slice_1/stack_2"], "attr": {"new_axis_mask": {"i": "0"}, "begin_mask": {"i": "0"}, "T": {"type": "DT_INT32"}, "ellipsis_mask": {"i": "0"}, "shrink_axis_mask": {"i": "1"}, "Index": {"type": "DT_INT32"}, "end_mask": {"i": "0"}}}, {"name": "StatefulPartitionedCall/sequential_5/conv_transpose_._1/conv2d_transpose_4/mul", "op": "Mul", "input": ["StatefulPartitionedCall/sequential_5/conv_transpose_._1/conv2d_transpose_4/strided_slice_1", "StatefulPartitionedCall/sequential_5/conv_transpose_._1/conv2d_transpose_4/mul/y"], "attr": {"T": {"type": "DT_INT32"}}}, {"name": "StatefulPartitionedCall/sequential_5/conv_transpose_._1/conv2d_transpose_4/stack", "op": "Pack", "input": ["StatefulPartitionedCall/sequential_5/conv_transpose_._1/conv2d_transpose_4/strided_slice", "StatefulPartitionedCall/sequential_5/conv_transpose_._1/conv2d_transpose_4/mul", "StatefulPartitionedCall/sequential_5/conv_transpose_._1/conv2d_transpose_4/stack/2", "StatefulPartitionedCall/sequential_5/conv_transpose_._1/conv2d_transpose_4/stack/3"], "attr": {"N": {"i": "4"}, "T": {"type": "DT_INT32"}, "axis": {"i": "0"}}}, {"name": "StatefulPartitionedCall/sequential_5/conv_transpose_._1/conv2d_transpose_4/conv2d_transpose", "op": "Conv2DBackpropInput", "input": ["StatefulPartitionedCall/sequential_5/conv_transpose_._1/conv2d_transpose_4/stack", "StatefulPartitionedCall/sequential_5/conv_transpose_._1/conv2d_transpose_4/conv2d_transpose/ReadVariableOp", "StatefulPartitionedCall/sequential_5/conv_transpose_._1/ExpandDims"], "attr": {"use_cudnn_on_gpu": {"b": true}, "strides": {"list": {"i": ["1", "4", "1", "1"]}}, "padding": {"s": "U0FNRQ=="}, "data_format": {"s": "TkhXQw=="}, "dilations": {"list": {"i": ["1", "1", "1", "1"]}}, "explicit_paddings": {"list": {}}, "T": {"type": "DT_FLOAT"}}}, {"name": "StatefulPartitionedCall/sequential_5/conv_transpose_._1/conv2d_transpose_4/BiasAdd", "op": "BiasAdd", "input": ["StatefulPartitionedCall/sequential_5/conv_transpose_._1/conv2d_transpose_4/conv2d_transpose", "StatefulPartitionedCall/sequential_5/conv_transpose_._1/conv2d_transpose_4/BiasAdd/ReadVariableOp"], "attr": {"T": {"type": "DT_FLOAT"}, "data_format": {"s": "TkhXQw=="}}}, {"name": "StatefulPartitionedCall/sequential_5/conv_transpose_._1/Squeeze", "op": "Squeeze", "input": ["StatefulPartitionedCall/sequential_5/conv_transpose_._1/conv2d_transpose_4/BiasAdd"], "attr": {"squeeze_dims": {"list": {"i": ["2"]}}, "T": {"type": "DT_FLOAT"}}}, {"name": "StatefulPartitionedCall/sequential_5/residual_stack_._1._._0/shortcut/conv1d/ExpandDims", "op": "ExpandDims", "input": ["StatefulPartitionedCall/sequential_5/conv_transpose_._1/Squeeze", "StatefulPartitionedCall/sequential_5/residual_stack_._1._._0/shortcut/conv1d/ExpandDims/dim"], "attr": {"Tdim": {"type": "DT_INT32"}, "T": {"type": "DT_FLOAT"}}}, {"name": "StatefulPartitionedCall/sequential_5/residual_stack_._1._._0/leaky_re_lu_38/LeakyRelu", "op": "LeakyRelu", "input": ["StatefulPartitionedCall/sequential_5/conv_transpose_._1/Squeeze"], "attr": {"alpha": {"f": 0.2}, "T": {"type": "DT_FLOAT"}}}, {"name": "StatefulPartitionedCall/sequential_5/residual_stack_._1._._0/shortcut/conv1d", "op": "_FusedConv2D", "input": ["StatefulPartitionedCall/sequential_5/residual_stack_._1._._0/shortcut/conv1d/ExpandDims", "StatefulPartitionedCall/sequential_5/residual_stack_._1._._0/shortcut/conv1d/ExpandDims_1", "StatefulPartitionedCall/sequential_5/residual_stack_._1._._0/shortcut/BiasAdd/ReadVariableOp"], "device": "/device:CPU:0", "attr": {"T": {"type": "DT_FLOAT"}, "padding": {"s": "VkFMSUQ="}, "strides": {"list": {"i": ["1", "1", "1", "1"]}}, "epsilon": {"f": 0.0}, "data_format": {"s": "TkhXQw=="}, "fused_ops": {"list": {"s": ["Qmlhc0FkZA=="]}}, "num_args": {"i": "1"}, "use_cudnn_on_gpu": {"b": true}, "explicit_paddings": {"list": {}}, "dilations": {"list": {"i": ["1", "1", "1", "1"]}}}}, {"name": "StatefulPartitionedCall/sequential_5/residual_stack_._1._._0/tf_reflection_pad1d_16/MirrorPad", "op": "MirrorPad", "input": ["StatefulPartitionedCall/sequential_5/residual_stack_._1._._0/leaky_re_lu_38/LeakyRelu", "StatefulPartitionedCall/sequential_5/residual_stack_._1._._0/tf_reflection_pad1d_16/MirrorPad/paddings"], "attr": {"T": {"type": "DT_FLOAT"}, "mode": {"s": "UkVGTEVDVA=="}, "Tpaddings": {"type": "DT_INT32"}}}, {"name": "StatefulPartitionedCall/sequential_5/residual_stack_._1._._0/shortcut/BiasAdd", "op": "Squeeze", "input": ["StatefulPartitionedCall/sequential_5/residual_stack_._1._._0/shortcut/conv1d"], "attr": {"squeeze_dims": {"list": {"i": ["-3"]}}, "T": {"type": "DT_FLOAT"}}}, {"name": "StatefulPartitionedCall/sequential_5/residual_stack_._1._._0/conv1d_35/conv1d/ExpandDims", "op": "ExpandDims", "input": ["StatefulPartitionedCall/sequential_5/residual_stack_._1._._0/tf_reflection_pad1d_16/MirrorPad", "StatefulPartitionedCall/sequential_5/residual_stack_._1._._0/conv1d_35/conv1d/ExpandDims/dim"], "attr": {"T": {"type": "DT_FLOAT"}, "Tdim": {"type": "DT_INT32"}}}, {"name": "StatefulPartitionedCall/sequential_5/residual_stack_._1._._0/conv1d_35/conv1d", "op": "_FusedConv2D", "input": ["StatefulPartitionedCall/sequential_5/residual_stack_._1._._0/conv1d_35/conv1d/ExpandDims", "StatefulPartitionedCall/sequential_5/residual_stack_._1._._0/conv1d_35/conv1d/ExpandDims_1", "StatefulPartitionedCall/sequential_5/residual_stack_._1._._0/conv1d_35/BiasAdd/ReadVariableOp"], "device": "/device:CPU:0", "attr": {"T": {"type": "DT_FLOAT"}, "epsilon": {"f": 0.0}, "data_format": {"s": "TkhXQw=="}, "dilations": {"list": {"i": ["1", "1", "1", "1"]}}, "strides": {"list": {"i": ["1", "1", "1", "1"]}}, "explicit_paddings": {"list": {}}, "fused_ops": {"list": {"s": ["Qmlhc0FkZA=="]}}, "padding": {"s": "VkFMSUQ="}, "num_args": {"i": "1"}, "use_cudnn_on_gpu": {"b": true}}}, {"name": "StatefulPartitionedCall/sequential_5/residual_stack_._1._._0/conv1d_35/BiasAdd", "op": "Squeeze", "input": ["StatefulPartitionedCall/sequential_5/residual_stack_._1._._0/conv1d_35/conv1d"], "attr": {"T": {"type": "DT_FLOAT"}, "squeeze_dims": {"list": {"i": ["-3"]}}}}, {"name": "StatefulPartitionedCall/sequential_5/residual_stack_._1._._0/leaky_re_lu_39/LeakyRelu", "op": "LeakyRelu", "input": ["StatefulPartitionedCall/sequential_5/residual_stack_._1._._0/conv1d_35/BiasAdd"], "attr": {"T": {"type": "DT_FLOAT"}, "alpha": {"f": 0.2}}}, {"name": "StatefulPartitionedCall/sequential_5/residual_stack_._1._._0/conv1d_36/conv1d/ExpandDims", "op": "ExpandDims", "input": ["StatefulPartitionedCall/sequential_5/residual_stack_._1._._0/leaky_re_lu_39/LeakyRelu", "StatefulPartitionedCall/sequential_5/residual_stack_._1._._0/conv1d_36/conv1d/ExpandDims/dim"], "attr": {"T": {"type": "DT_FLOAT"}, "Tdim": {"type": "DT_INT32"}}}, {"name": "StatefulPartitionedCall/sequential_5/residual_stack_._1._._0/conv1d_36/conv1d", "op": "_FusedConv2D", "input": ["StatefulPartitionedCall/sequential_5/residual_stack_._1._._0/conv1d_36/conv1d/ExpandDims", "StatefulPartitionedCall/sequential_5/residual_stack_._1._._0/conv1d_36/conv1d/ExpandDims_1", "StatefulPartitionedCall/sequential_5/residual_stack_._1._._0/conv1d_36/BiasAdd/ReadVariableOp"], "device": "/device:CPU:0", "attr": {"strides": {"list": {"i": ["1", "1", "1", "1"]}}, "data_format": {"s": "TkhXQw=="}, "explicit_paddings": {"list": {}}, "fused_ops": {"list": {"s": ["Qmlhc0FkZA=="]}}, "epsilon": {"f": 0.0}, "padding": {"s": "VkFMSUQ="}, "use_cudnn_on_gpu": {"b": true}, "T": {"type": "DT_FLOAT"}, "num_args": {"i": "1"}, "dilations": {"list": {"i": ["1", "1", "1", "1"]}}}}, {"name": "StatefulPartitionedCall/sequential_5/residual_stack_._1._._0/conv1d_36/BiasAdd", "op": "Squeeze", "input": ["StatefulPartitionedCall/sequential_5/residual_stack_._1._._0/conv1d_36/conv1d"], "attr": {"T": {"type": "DT_FLOAT"}, "squeeze_dims": {"list": {"i": ["-3"]}}}}, {"name": "StatefulPartitionedCall/sequential_5/residual_stack_._1._._0/add", "op": "AddV2", "input": ["StatefulPartitionedCall/sequential_5/residual_stack_._1._._0/shortcut/BiasAdd", "StatefulPartitionedCall/sequential_5/residual_stack_._1._._0/conv1d_36/BiasAdd"], "attr": {"T": {"type": "DT_FLOAT"}}}, {"name": "StatefulPartitionedCall/sequential_5/residual_stack_._1._._1/shortcut/conv1d/ExpandDims", "op": "ExpandDims", "input": ["StatefulPartitionedCall/sequential_5/residual_stack_._1._._0/add", "StatefulPartitionedCall/sequential_5/residual_stack_._1._._1/shortcut/conv1d/ExpandDims/dim"], "attr": {"Tdim": {"type": "DT_INT32"}, "T": {"type": "DT_FLOAT"}}}, {"name": "StatefulPartitionedCall/sequential_5/residual_stack_._1._._1/leaky_re_lu_40/LeakyRelu", "op": "LeakyRelu", "input": ["StatefulPartitionedCall/sequential_5/residual_stack_._1._._0/add"], "attr": {"T": {"type": "DT_FLOAT"}, "alpha": {"f": 0.2}}}, {"name": "StatefulPartitionedCall/sequential_5/residual_stack_._1._._1/shortcut/conv1d", "op": "_FusedConv2D", "input": ["StatefulPartitionedCall/sequential_5/residual_stack_._1._._1/shortcut/conv1d/ExpandDims", "StatefulPartitionedCall/sequential_5/residual_stack_._1._._1/shortcut/conv1d/ExpandDims_1", "StatefulPartitionedCall/sequential_5/residual_stack_._1._._1/shortcut/BiasAdd/ReadVariableOp"], "device": "/device:CPU:0", "attr": {"fused_ops": {"list": {"s": ["Qmlhc0FkZA=="]}}, "padding": {"s": "VkFMSUQ="}, "use_cudnn_on_gpu": {"b": true}, "strides": {"list": {"i": ["1", "1", "1", "1"]}}, "data_format": {"s": "TkhXQw=="}, "num_args": {"i": "1"}, "dilations": {"list": {"i": ["1", "1", "1", "1"]}}, "epsilon": {"f": 0.0}, "T": {"type": "DT_FLOAT"}, "explicit_paddings": {"list": {}}}}, {"name": "StatefulPartitionedCall/sequential_5/residual_stack_._1._._1/tf_reflection_pad1d_17/MirrorPad", "op": "MirrorPad", "input": ["StatefulPartitionedCall/sequential_5/residual_stack_._1._._1/leaky_re_lu_40/LeakyRelu", "StatefulPartitionedCall/sequential_5/residual_stack_._1._._1/tf_reflection_pad1d_17/MirrorPad/paddings"], "attr": {"mode": {"s": "UkVGTEVDVA=="}, "Tpaddings": {"type": "DT_INT32"}, "T": {"type": "DT_FLOAT"}}}, {"name": "StatefulPartitionedCall/sequential_5/residual_stack_._1._._1/shortcut/BiasAdd", "op": "Squeeze", "input": ["StatefulPartitionedCall/sequential_5/residual_stack_._1._._1/shortcut/conv1d"], "attr": {"T": {"type": "DT_FLOAT"}, "squeeze_dims": {"list": {"i": ["-3"]}}}}, {"name": "StatefulPartitionedCall/sequential_5/residual_stack_._1._._1/conv1d_37/conv1d/Shape", "op": "Shape", "input": ["StatefulPartitionedCall/sequential_5/residual_stack_._1._._1/tf_reflection_pad1d_17/MirrorPad"], "attr": {"T": {"type": "DT_FLOAT"}, "out_type": {"type": "DT_INT32"}}}, {"name": "StatefulPartitionedCall/sequential_5/residual_stack_._1._._1/conv1d_37/conv1d/strided_slice", "op": "StridedSlice", "input": ["StatefulPartitionedCall/sequential_5/residual_stack_._1._._1/conv1d_37/conv1d/Shape", "StatefulPartitionedCall/sequential_5/residual_stack_._1._._1/conv1d_37/conv1d/strided_slice/stack", "StatefulPartitionedCall/sequential_5/residual_stack_._1._._1/conv1d_37/conv1d/strided_slice/stack_1", "StatefulPartitionedCall/sequential_5/residual_stack_._1._._1/conv1d_37/conv1d/strided_slice/stack_2"], "attr": {"Index": {"type": "DT_INT32"}, "ellipsis_mask": {"i": "0"}, "end_mask": {"i": "0"}, "shrink_axis_mask": {"i": "1"}, "new_axis_mask": {"i": "0"}, "T": {"type": "DT_INT32"}, "begin_mask": {"i": "0"}}}, {"name": "ConstantFolding/StatefulPartitionedCall/sequential_5/residual_stack_._1._._1/conv1d_37/conv1d/stack_const_axis", "op": "Const", "input": ["^StatefulPartitionedCall/sequential_5/residual_stack_._1._._1/conv1d_37/conv1d/strided_slice"], "attr": {"dtype": {"type": "DT_INT32"}, "value": {"tensor": {"dtype": "DT_INT32", "tensorShape": {}}}}}, {"name": "StatefulPartitionedCall/sequential_5/residual_stack_._1._._1/conv1d_37/conv1d/stack", "op": "ExpandDims", "input": ["StatefulPartitionedCall/sequential_5/residual_stack_._1._._1/conv1d_37/conv1d/strided_slice", "ConstantFolding/StatefulPartitionedCall/sequential_5/residual_stack_._1._._1/conv1d_37/conv1d/stack_const_axis"], "attr": {"Tdim": {"type": "DT_INT32"}, "T": {"type": "DT_INT32"}}}, {"name": "StatefulPartitionedCall/sequential_5/residual_stack_._1._._1/conv1d_37/conv1d/required_space_to_batch_paddings/mod", "op": "FloorMod", "input": ["StatefulPartitionedCall/sequential_5/residual_stack_._1._._1/conv1d_37/conv1d/stack", "StatefulPartitionedCall/sequential_5/residual_stack_._1._._1/conv1d_37/conv1d/dilation_rate"], "attr": {"T": {"type": "DT_INT32"}}}, {"name": "StatefulPartitionedCall/sequential_5/residual_stack_._1._._1/conv1d_37/conv1d/required_space_to_batch_paddings/sub", "op": "Sub", "input": ["StatefulPartitionedCall/sequential_5/residual_stack_._1._._1/conv1d_37/conv1d/dilation_rate", "StatefulPartitionedCall/sequential_5/residual_stack_._1._._1/conv1d_37/conv1d/required_space_to_batch_paddings/mod"], "attr": {"T": {"type": "DT_INT32"}}}, {"name": "StatefulPartitionedCall/sequential_5/residual_stack_._1._._1/conv1d_37/conv1d/required_space_to_batch_paddings/mod_1", "op": "FloorMod", "input": ["StatefulPartitionedCall/sequential_5/residual_stack_._1._._1/conv1d_37/conv1d/required_space_to_batch_paddings/sub", "StatefulPartitionedCall/sequential_5/residual_stack_._1._._1/conv1d_37/conv1d/dilation_rate"], "attr": {"T": {"type": "DT_INT32"}}}, {"name": "StatefulPartitionedCall/sequential_5/residual_stack_._1._._1/conv1d_37/conv1d/required_space_to_batch_paddings/strided_slice_3", "op": "StridedSlice", "input": ["StatefulPartitionedCall/sequential…
e": "int32"}, {"name": "StatefulPartitionedCall/PartitionedCall/conv1d_transpose/concat/values_1", "shape": [1], "dtype": "int32"}, {"name": "StatefulPartitionedCall/PartitionedCall/strided_slice_1/stack", "shape": [1], "dtype": "int32"}, {"name": "StatefulPartitionedCall/PartitionedCall/strided_slice_1/stack_1", "shape": [1], "dtype": "int32"}, {"name": "StatefulPartitionedCall/PartitionedCall/strided_slice_1/stack_2", "shape": [1], "dtype": "int32"}, {"name": "StatefulPartitionedCall/PartitionedCall/mul/y", "shape": [], "dtype": "int32"}, {"name": "StatefulPartitionedCall/PartitionedCall/conv1d_transpose/concat/values_2/1", "shape": [], "dtype": "int32"}, {"name": "StatefulPartitionedCall/PartitionedCall/conv1d_transpose/concat/axis", "shape": [], "dtype": "int32"}, {"name": "StatefulPartitionedCall/PartitionedCall/conv1d_transpose/ExpandDims_1", "shape": [1, 4, 4, 4], "dtype": "float32"}, {"name": "StatefulPartitionedCall/sequential_5/residual_stack_._2._._3/shortcut/conv1d/ExpandDims/dim", "shape": [], "dtype": "int32"}, {"name": "StatefulPartitionedCall/sequential_5/residual_stack_._2._._3/shortcut/conv1d/ExpandDims_1", "shape": [1, 1, 48, 48], "dtype": "float32"}, {"name": "StatefulPartitionedCall/sequential_5/residual_stack_._2._._3/shortcut/BiasAdd/ReadVariableOp", "shape": [48], "dtype": "float32"}, {"name": "StatefulPartitionedCall/sequential_5/residual_stack_._2._._3/conv1d_49/conv1d/SpaceToBatchND/block_shape", "shape": [1], "dtype": "int32"}, {"name": "StatefulPartitionedCall/sequential_5/residual_stack_._2._._3/conv1d_49/conv1d/required_space_to_batch_paddings/strided_slice_2", "shape": [], "dtype": "int32"}, {"name": "StatefulPartitionedCall/sequential_5/residual_stack_._2._._3/conv1d_49/conv1d/required_space_to_batch_paddings/strided_slice_3/stack", "shape": [1], "dtype": "int32"}, {"name": "StatefulPartitionedCall/sequential_5/residual_stack_._2._._3/conv1d_49/conv1d/required_space_to_batch_paddings/strided_slice_3/stack_1", "shape": [1], "dtype": "int32"}, {"name": "StatefulPartitionedCall/sequential_5/residual_stack_._2._._3/conv1d_49/conv1d/required_space_to_batch_paddings/strided_slice_3/stack_2", "shape": [1], "dtype": "int32"}, {"name": "StatefulPartitionedCall/sequential_5/residual_stack_._2._._3/conv1d_49/conv1d/ExpandDims/dim", "shape": [], "dtype": "int32"}, {"name": "StatefulPartitionedCall/sequential_5/residual_stack_._2._._3/conv1d_49/conv1d/ExpandDims_1", "shape": [1, 3, 48, 48], "dtype": "float32"}, {"name": "StatefulPartitionedCall/sequential_5/residual_stack_._2._._3/conv1d_49/conv1d/BatchToSpaceND/block_shape", "shape": [1], "dtype": "int32"}, {"name": "StatefulPartitionedCall/sequential_5/residual_stack_._2._._3/conv1d_49/conv1d/required_space_to_batch_paddings/crops/0/0", "shape": [], "dtype": "int32"}, {"name": "StatefulPartitionedCall/sequential_5/residual_stack_._2._._2/shortcut/conv1d/ExpandDims/dim", "shape": [], "dtype": "int32"}, {"name": "StatefulPartitionedCall/sequential_5/residual_stack_._2._._2/shortcut/conv1d/ExpandDims_1", "shape": [1, 1, 48, 48], "dtype": "float32"}, {"name": "StatefulPartitionedCall/sequential_5/residual_stack_._2._._2/shortcut/BiasAdd/ReadVariableOp", "shape": [48], "dtype": "float32"}, {"name": "StatefulPartitionedCall/sequential_5/residual_stack_._2._._2/conv1d_47/conv1d/SpaceToBatchND/block_shape", "shape": [1], "dtype": "int32"}, {"name": "StatefulPartitionedCall/sequential_5/residual_stack_._2._._2/conv1d_47/conv1d/required_space_to_batch_paddings/strided_slice_2", "shape": [], "dtype": "int32"}, {"name": "StatefulPartitionedCall/sequential_5/residual_stack_._2._._2/conv1d_47/conv1d/required_space_to_batch_paddings/strided_slice_3/stack", "shape": [1], "dtype": "int32"}, {"name": "StatefulPartitionedCall/sequential_5/residual_stack_._2._._2/conv1d_47/conv1d/required_space_to_batch_paddings/strided_slice_3/stack_1", "shape": [1], "dtype": "int32"}, {"name": "StatefulPartitionedCall/sequential_5/residual_stack_._2._._2/conv1d_47/conv1d/required_space_to_batch_paddings/strided_slice_3/stack_2", "shape": [1], "dtype": "int32"}, {"name": "StatefulPartitionedCall/sequential_5/residual_stack_._2._._2/conv1d_47/conv1d/ExpandDims/dim", "shape": [], "dtype": "int32"}, {"name": "StatefulPartitionedCall/sequential_5/residual_stack_._2._._2/conv1d_47/conv1d/ExpandDims_1", "shape": [1, 3, 48, 48], "dtype": "float32"}, {"name": "StatefulPartitionedCall/sequential_5/residual_stack_._2._._2/conv1d_47/conv1d/BatchToSpaceND/block_shape", "shape": [1], "dtype": "int32"}, {"name": "StatefulPartitionedCall/sequential_5/residual_stack_._2._._2/conv1d_47/conv1d/required_space_to_batch_paddings/crops/0/0", "shape": [], "dtype": "int32"}, {"name": "StatefulPartitionedCall/sequential_5/residual_stack_._2._._1/shortcut/conv1d/ExpandDims/dim", "shape": [], "dtype": "int32"}, {"name": "StatefulPartitionedCall/sequential_5/residual_stack_._2._._1/shortcut/conv1d/ExpandDims_1", "shape": [1, 1, 48, 48], "dtype": "float32"}, {"name": "StatefulPartitionedCall/sequential_5/residual_stack_._2._._1/shortcut/BiasAdd/ReadVariableOp", "shape": [48], "dtype": "float32"}, {"name": "StatefulPartitionedCall/sequential_5/residual_stack_._2._._1/conv1d_45/conv1d/SpaceToBatchND/block_shape", "shape": [1], "dtype": "int32"}, {"name": "StatefulPartitionedCall/sequential_5/residual_stack_._2._._1/conv1d_45/conv1d/required_space_to_batch_paddings/strided_slice_2", "shape": [], "dtype": "int32"}, {"name": "StatefulPartitionedCall/sequential_5/residual_stack_._2._._1/conv1d_45/conv1d/required_space_to_batch_paddings/strided_slice_3/stack", "shape": [1], "dtype": "int32"}, {"name": "StatefulPartitionedCall/sequential_5/residual_stack_._2._._1/conv1d_45/conv1d/required_space_to_batch_paddings/strided_slice_3/stack_1", "shape": [1], "dtype": "int32"}, {"name": "StatefulPartitionedCall/sequential_5/residual_stack_._2._._1/conv1d_45/conv1d/required_space_to_batch_paddings/strided_slice_3/stack_2", "shape": [1], "dtype": "int32"}, {"name": "StatefulPartitionedCall/sequential_5/residual_stack_._2._._1/conv1d_45/conv1d/ExpandDims/dim", "shape": [], "dtype": "int32"}, {"name": "StatefulPartitionedCall/sequential_5/residual_stack_._2._._1/conv1d_45/conv1d/ExpandDims_1", "shape": [1, 3, 48, 48], "dtype": "float32"}, {"name": "StatefulPartitionedCall/sequential_5/residual_stack_._2._._1/conv1d_45/conv1d/BatchToSpaceND/block_shape", "shape": [1], "dtype": "int32"}, {"name": "StatefulPartitionedCall/sequential_5/residual_stack_._2._._1/conv1d_45/conv1d/required_space_to_batch_paddings/crops/0/0", "shape": [], "dtype": "int32"}, {"name": "StatefulPartitionedCall/sequential_5/residual_stack_._2._._0/shortcut/conv1d/ExpandDims/dim", "shape": [], "dtype": "int32"}, {"name": "StatefulPartitionedCall/sequential_5/residual_stack_._2._._0/shortcut/conv1d/ExpandDims_1", "shape": [1, 1, 48, 48], "dtype": "float32"}, {"name": "StatefulPartitionedCall/sequential_5/residual_stack_._2._._0/shortcut/BiasAdd/ReadVariableOp", "shape": [48], "dtype": "float32"}, {"name": "StatefulPartitionedCall/sequential_5/conv_transpose_._2/conv2d_transpose_5/strided_slice/stack", "shape": [1], "dtype": "int32"}, {"name": "StatefulPartitionedCall/sequential_5/conv_transpose_._2/conv2d_transpose_5/strided_slice/stack_1", "shape": [1], "dtype": "int32"}, {"name": "StatefulPartitionedCall/sequential_5/conv_transpose_._2/conv2d_transpose_5/strided_slice/stack_2", "shape": [1], "dtype": "int32"}, {"name": "StatefulPartitionedCall/sequential_5/conv_transpose_._2/conv2d_transpose_5/strided_slice_1/stack", "shape": [1], "dtype": "int32"}, {"name": "StatefulPartitionedCall/sequential_5/conv_transpose_._2/conv2d_transpose_5/strided_slice_1/stack_1", "shape": [1], "dtype": "int32"}, {"name": "StatefulPartitionedCall/sequential_5/conv_transpose_._2/conv2d_transpose_5/strided_slice_1/stack_2", "shape": [1], "dtype": "int32"}, {"name": "StatefulPartitionedCall/sequential_5/conv_transpose_._2/conv2d_transpose_5/mul/y", "shape": [], "dtype": "int32"}, {"name": "StatefulPartitionedCall/sequential_5/conv_transpose_._2/conv2d_transpose_5/stack/2", "shape": [], "dtype": "int32"}, {"name": "StatefulPartitionedCall/sequential_5/conv_transpose_._2/conv2d_transpose_5/stack/3", "shape": [], "dtype": "int32"}, {"name": "StatefulPartitionedCall/sequential_5/conv_transpose_._2/conv2d_transpose_5/conv2d_transpose/ReadVariableOp", "shape": [4, 1, 48, 96], "dtype": "float32"}, {"name": "StatefulPartitionedCall/sequential_5/residual_stack_._1._._3/shortcut/conv1d/ExpandDims/dim", "shape": [], "dtype": "int32"}, {"name": "StatefulPartitionedCall/sequential_5/residual_stack_._1._._3/shortcut/conv1d/ExpandDims_1", "shape": [1, 1, 96, 96], "dtype": "float32"}, {"name": "StatefulPartitionedCall/sequential_5/residual_stack_._1._._3/shortcut/BiasAdd/ReadVariableOp", "shape": [96], "dtype": "float32"}, {"name": "StatefulPartitionedCall/sequential_5/residual_stack_._1._._3/conv1d_41/conv1d/SpaceToBatchND/block_shape", "shape": [1], "dtype": "int32"}, {"name": "StatefulPartitionedCall/sequential_5/residual_stack_._1._._3/conv1d_41/conv1d/required_space_to_batch_paddings/strided_slice_2", "shape": [], "dtype": "int32"}, {"name": "StatefulPartitionedCall/sequential_5/residual_stack_._1._._3/conv1d_41/conv1d/required_space_to_batch_paddings/strided_slice_3/stack", "shape": [1], "dtype": "int32"}, {"name": "StatefulPartitionedCall/sequential_5/residual_stack_._1._._3/conv1d_41/conv1d/required_space_to_batch_paddings/strided_slice_3/stack_1", "shape": [1], "dtype": "int32"}, {"name": "StatefulPartitionedCall/sequential_5/residual_stack_._1._._3/conv1d_41/conv1d/required_space_to_batch_paddings/strided_slice_3/stack_2", "shape": [1], "dtype": "int32"}, {"name": "StatefulPartitionedCall/sequential_5/residual_stack_._1._._3/conv1d_41/conv1d/ExpandDims/dim", "shape": [], "dtype": "int32"}, {"name": "StatefulPartitionedCall/sequential_5/residual_stack_._1._._3/conv1d_41/conv1d/ExpandDims_1", "shape": [1, 3, 96, 96], "dtype": "float32"}, {"name": "StatefulPartitionedCall/sequential_5/residual_stack_._1._._3/conv1d_41/conv1d/BatchToSpaceND/block_shape", "shape": [1], "dtype": "int32"}, {"name": "StatefulPartitionedCall/sequential_5/residual_stack_._1._._3/conv1d_41/conv1d/required_space_to_batch_paddings/crops/0/0", "shape": [], "dtype": "int32"}, {"name": "StatefulPartitionedCall/sequential_5/residual_stack_._1._._2/shortcut/conv1d/ExpandDims/dim", "shape": [], "dtype": "int32"}, {"name": "StatefulPartitionedCall/sequential_5/residual_stack_._1._._2/shortcut/conv1d/ExpandDims_1", "shape": [1, 1, 96, 96], "dtype": "float32"}, {"name": "StatefulPartitionedCall/sequential_5/residual_stack_._1._._2/shortcut/BiasAdd/ReadVariableOp", "shape": [96], "dtype": "float32"}, {"name": "StatefulPartitionedCall/sequential_5/residual_stack_._1._._2/conv1d_39/conv1d/SpaceToBatchND/block_shape", "shape": [1], "dtype": "int32"}, {"name": "StatefulPartitionedCall/sequential_5/residual_stack_._1._._2/conv1d_39/conv1d/required_space_to_batch_paddings/strided_slice_2", "shape": [], "dtype": "int32"}, {"name": "StatefulPartitionedCall/sequential_5/residual_stack_._1._._2/conv1d_39/conv1d/required_space_to_batch_paddings/strided_slice_3/stack", "shape": [1], "dtype": "int32"}, {"name": "StatefulPartitionedCall/sequential_5/residual_stack_._1._._2/conv1d_39/conv1d/required_space_to_batch_paddings/strided_slice_3/stack_1", "shape": [1], "dtype": "int32"}, {"name": "StatefulPartitionedCall/sequential_5/residual_stack_._1._._2/conv1d_39/conv1d/required_space_to_batch_paddings/strided_slice_3/stack_2", "shape": [1], "dtype": "int32"}, {"name": "StatefulPartitionedCall/sequential_5/residual_stack_._1._._2/conv1d_39/conv1d/ExpandDims/dim", "shape": [], "dtype": "int32"}, {"name": "StatefulPartitionedCall/sequential_5/residual_stack_._1._._2/conv1d_39/conv1d/ExpandDims_1", "shape": [1, 3, 96, 96], "dtype": "float32"}, {"name": "StatefulPartitionedCall/sequential_5/residual_stack_._1._._2/conv1d_39/conv1d/BatchToSpaceND/block_shape", "shape": [1], "dtype": "int32"}, {"name": "StatefulPartitionedCall/sequential_5/residual_stack_._1._._2/conv1d_39/conv1d/required_space_to_batch_paddings/crops/0/0", "shape": [], "dtype": "int32"}, {"name": "StatefulPartitionedCall/sequential_5/residual_stack_._1._._1/shortcut/conv1d/ExpandDims/dim", "shape": [], "dtype": "int32"}, {"name": "StatefulPartitionedCall/sequential_5/residual_stack_._1._._1/shortcut/conv1d/ExpandDims_1", "shape": [1, 1, 96, 96], "dtype": "float32"}, {"name": "StatefulPartitionedCall/sequential_5/residual_stack_._1._._1/shortcut/BiasAdd/ReadVariableOp", "shape": [96], "dtype": "float32"}, {"name": "StatefulPartitionedCall/sequential_5/residual_stack_._1._._1/conv1d_37/conv1d/SpaceToBatchND/block_shape", "shape": [1], "dtype": "int32"}, {"name": "StatefulPartitionedCall/sequential_5/residual_stack_._1._._1/conv1d_37/conv1d/required_space_to_batch_paddings/strided_slice_2", "shape": [], "dtype": "int32"}, {"name": "StatefulPartitionedCall/sequential_5/residual_stack_._1._._1/conv1d_37/conv1d/required_space_to_batch_paddings/strided_slice_3/stack", "shape": [1], "dtype": "int32"}, {"name": "StatefulPartitionedCall/sequential_5/residual_stack_._1._._1/conv1d_37/conv1d/required_space_to_batch_paddings/strided_slice_3/stack_1", "shape": [1], "dtype": "int32"}, {"name": "StatefulPartitionedCall/sequential_5/residual_stack_._1._._1/conv1d_37/conv1d/required_space_to_batch_paddings/strided_slice_3/stack_2", "shape": [1], "dtype": "int32"}, {"name": "StatefulPartitionedCall/sequential_5/residual_stack_._1._._1/conv1d_37/conv1d/ExpandDims/dim", "shape": [], "dtype": "int32"}, {"name": "StatefulPartitionedCall/sequential_5/residual_stack_._1._._1/conv1d_37/conv1d/ExpandDims_1", "shape": [1, 3, 96, 96], "dtype": "float32"}, {"name": "StatefulPartitionedCall/sequential_5/residual_stack_._1._._1/conv1d_37/conv1d/BatchToSpaceND/block_shape", "shape": [1], "dtype": "int32"}, {"name": "StatefulPartitionedCall/sequential_5/residual_stack_._1._._1/conv1d_37/conv1d/required_space_to_batch_paddings/crops/0/0", "shape": [], "dtype": "int32"}, {"name": "StatefulPartitionedCall/sequential_5/residual_stack_._1._._0/shortcut/conv1d/ExpandDims/dim", "shape": [], "dtype": "int32"}, {"name": "StatefulPartitionedCall/sequential_5/residual_stack_._1._._0/shortcut/conv1d/ExpandDims_1", "shape": [1, 1, 96, 96], "dtype": "float32"}, {"name": "StatefulPartitionedCall/sequential_5/residual_stack_._1._._0/shortcut/BiasAdd/ReadVariableOp", "shape": [96], "dtype": "float32"}, {"name": "StatefulPartitionedCall/sequential_5/conv_transpose_._1/conv2d_transpose_4/strided_slice/stack", "shape": [1], "dtype": "int32"}, {"name": "StatefulPartitionedCall/sequential_5/conv_transpose_._1/conv2d_transpose_4/strided_slice/stack_1", "shape": [1], "dtype": "int32"}, {"name": "StatefulPartitionedCall/sequential_5/conv_transpose_._1/conv2d_transpose_4/strided_slice/stack_2", "shape": [1], "dtype": "int32"}, {"name": "StatefulPartitionedCall/sequential_5/conv_transpose_._1/conv2d_transpose_4/strided_slice_1/stack", "shape": [1], "dtype": "int32"}, {"name": "StatefulPartitionedCall/sequential_5/conv_transpose_._1/conv2d_transpose_4/strided_slice_1/stack_1", "shape": [1], "dtype": "int32"}, {"name": "StatefulPartitionedCall/sequential_5/conv_transpose_._1/conv2d_transpose_4/strided_slice_1/stack_2", "shape": [1], "dtype": "int32"}, {"name": "StatefulPartitionedCall/sequential_5/conv_transpose_._1/conv2d_transpose_4/mul/y", "shape": [], "dtype": "int32"}, {"name": "StatefulPartitionedCall/sequential_5/conv_transpose_._1/conv2d_transpose_4/stack/2", "shape": [], "dtype": "int32"}, {"name": "StatefulPartitionedCall/sequential_5/conv_transpose_._1/conv2d_transpose_4/stack/3", "shape": [], "dtype": "int32"}, {"name": "StatefulPartitionedCall/sequential_5/conv_transpose_._1/conv2d_transpose_4/conv2d_transpose/ReadVariableOp", "shape": [8, 1, 96, 192], "dtype": "float32"}, {"name": "StatefulPartitionedCall/sequential_5/residual_stack_._0._._3/shortcut/conv1d/ExpandDims/dim", "shape": [], "dtype": "int32"}, {"name": "StatefulPartitionedCall/sequential_5/residual_stack_._0._._3/shortcut/conv1d/ExpandDims_1", "shape": [1, 1, 192, 192], "dtype": "float32"}, {"name": "StatefulPartitionedCall/sequential_5/residual_stack_._0._._3/shortcut/BiasAdd/ReadVariableOp", "shape": [192], "dtype": "float32"}, {"name": "StatefulPartitionedCall/sequential_5/residual_stack_._0._._3/conv1d_33/conv1d/SpaceToBatchND/block_shape", "shape": [1], "dtype": "int32"}, {"name": "StatefulPartitionedCall/sequential_5/residual_stack_._0._._3/conv1d_33/conv1d/required_space_to_batch_paddings/strided_slice_2", "shape": [], "dtype": "int32"}, {"name": "StatefulPartitionedCall/sequential_5/residual_stack_._0._._3/conv1d_33/conv1d/required_space_to_batch_paddings/strided_slice_3/stack", "shape": [1], "dtype": "int32"}, {"name": "StatefulPartitionedCall/sequential_5/residual_stack_._0._._3/conv1d_33/conv1d/required_space_to_batch_paddings/strided_slice_3/stack_1", "shape": [1], "dtype": "int32"}, {"name": "StatefulPartitionedCall/sequential_5/residual_stack_._0._._3/conv1d_33/conv1d/required_space_to_batch_paddings/strided_slice_3/stack_2", "shape": [1], "dtype": "int32"}, {"name": "StatefulPartitionedCall/sequential_5/residual_stack_._0._._3/conv1d_33/conv1d/ExpandDims/dim", "shape": [], "dtype": "int32"}, {"name": "StatefulPartitionedCall/sequential_5/residual_stack_._0._._3/conv1d_33/conv1d/ExpandDims_1", "shape": [1, 3, 192, 192], "dtype": "float32"}, {"name": "StatefulPartitionedCall/sequential_5/residual_stack_._0._._3/conv1d_33/conv1d/BatchToSpaceND/block_shape", "shape": [1], "dtype": "int32"}, {"name": "StatefulPartitionedCall/sequential_5/residual_stack_._0._._3/conv1d_33/conv1d/required_space_to_batch_paddings/crops/0/0", "shape": [], "dtype": "int32"}, {"name": "StatefulPartitionedCall/sequential_5/residual_stack_._0._._2/shortcut/conv1d/ExpandDims/dim", "shape": [], "dtype": "int32"}, {"name": "StatefulPartitionedCall/sequential_5/residual_stack_._0._._2/shortcut/conv1d/ExpandDims_1", "shape": [1, 1, 192, 192], "dtype": "float32"}, {"name": "StatefulPartitionedCall/sequential_5/residual_stack_._0._._2/shortcut/BiasAdd/ReadVariableOp", "shape": [192], "dtype": "float32"}, {"name": "StatefulPartitionedCall/sequential_5/residual_stack_._0._._2/conv1d_31/conv1d/SpaceToBatchND/block_shape", "shape": [1], "dtype": "int32"}, {"name": "StatefulPartitionedCall/sequential_5/residual_stack_._0._._2/conv1d_31/conv1d/required_space_to_batch_paddings/strided_slice_2", "shape": [], "dtype": "int32"}, {"name": "StatefulPartitionedCall/sequential_5/residual_stack_._0._._2/conv1d_31/conv1d/required_space_to_batch_paddings/strided_slice_3/stack", "shape": [1], "dtype": "int32"}, {"name": "StatefulPartitionedCall/sequential_5/residual_stack_._0._._2/conv1d_31/conv1d/required_space_to_batch_paddings/strided_slice_3/stack_1", "shape": [1], "dtype": "int32"}, {"name": "StatefulPartitionedCall/sequential_5/residual_stack_._0._._2/conv1d_31/conv1d/required_space_to_batch_paddings/strided_slice_3/stack_2", "shape": [1], "dtype": "int32"}, {"name": "StatefulPartitionedCall/sequential_5/residual_stack_._0._._2/conv1d_31/conv1d/ExpandDims/dim", "shape": [], "dtype": "int32"}, {"name": "StatefulPartitionedCall/sequential_5/residual_stack_._0._._2/conv1d_31/conv1d/ExpandDims_1", "shape": [1, 3, 192, 192], "dtype": "float32"}, {"name": "StatefulPartitionedCall/sequential_5/residual_stack_._0._._2/conv1d_31/conv1d/BatchToSpaceND/block_shape", "shape": [1], "dtype": "int32"}, {"name": "StatefulPartitionedCall/sequential_5/residual_stack_._0._._2/conv1d_31/conv1d/required_space_to_batch_paddings/crops/0/0", "shape": [], "dtype": "int32"}, {"name": "StatefulPartitionedCall/sequential_5/residual_stack_._0._._1/shortcut/conv1d/ExpandDims/dim", "shape": [], "dtype": "int32"}, {"name": "StatefulPartitionedCall/sequential_5/residual_stack_._0._._1/shortcut/conv1d/ExpandDims_1", "shape": [1, 1, 192, 192], "dtype": "float32"}, {"name": "StatefulPartitionedCall/sequential_5/residual_stack_._0._._1/shortcut/BiasAdd/ReadVariableOp", "shape": [192], "dtype": "float32"}, {"name": "StatefulPartitionedCall/sequential_5/residual_stack_._0._._1/conv1d_29/conv1d/SpaceToBatchND/block_shape", "shape": [1], "dtype": "int32"}, {"name": "StatefulPartitionedCall/sequential_5/residual_stack_._0._._1/conv1d_29/conv1d/required_space_to_batch_paddings/strided_slice_2", "shape": [], "dtype": "int32"}, {"name": "StatefulPartitionedCall/sequential_5/residual_stack_._0._._1/conv1d_29/conv1d/required_space_to_batch_paddings/strided_slice_3/stack", "shape": [1], "dtype": "int32"}, {"name": "StatefulPartitionedCall/sequential_5/residual_stack_._0._._1/conv1d_29/conv1d/required_space_to_batch_paddings/strided_slice_3/stack_1", "shape": [1], "dtype": "int32"}, {"name": "StatefulPartitionedCall/sequential_5/residual_stack_._0._._1/conv1d_29/conv1d/required_space_to_batch_paddings/strided_slice_3/stack_2", "shape": [1], "dtype": "int32"}, {"name": "StatefulPartitionedCall/sequential_5/residual_stack_._0._._1/conv1d_29/conv1d/ExpandDims/dim", "shape": [], "dtype": "int32"}, {"name": "StatefulPartitionedCall/sequential_5/residual_stack_._0._._1/conv1d_29/conv1d/ExpandDims_1", "shape": [1, 3, 192, 192], "dtype": "float32"}, {"name": "StatefulPartitionedCall/sequential_5/residual_stack_._0._._1/conv1d_29/conv1d/BatchToSpaceND/block_shape", "shape": [1], "dtype": "int32"}, {"name": "StatefulPartitionedCall/sequential_5/residual_stack_._0._._1/conv1d_29/conv1d/required_space_to_batch_paddings/crops/0/0", "shape": [], "dtype": "int32"}, {"name": "StatefulPartitionedCall/sequential_5/residual_stack_._0._._0/shortcut/conv1d/ExpandDims/dim", "shape": [], "dtype": "int32"}, {"name": "StatefulPartitionedCall/sequential_5/residual_stack_._0._._0/shortcut/conv1d/ExpandDims_1", "shape": [1, 1, 192, 192], "dtype": "float32"}, {"name": "StatefulPartitionedCall/sequential_5/residual_stack_._0._._0/shortcut/BiasAdd/ReadVariableOp", "shape": [192], "dtype": "float32"}, {"name": "StatefulPartitionedCall/sequential_5/conv_transpose_._0/conv2d_transpose_3/strided_slice/stack", "shape": [1], "dtype": "int32"}, {"name": "StatefulPartitionedCall/sequential_5/conv_transpose_._0/conv2d_transpose_3/strided_slice/stack_1", "shape": [1], "dtype": "int32"}, {"name": "StatefulPartitionedCall/sequential_5/conv_transpose_._0/conv2d_transpose_3/strided_slice/stack_2", "shape": [1], "dtype": "int32"}, {"name": "StatefulPartitionedCall/sequential_5/conv_transpose_._0/conv2d_transpose_3/strided_slice_1/stack", "shape": [1], "dtype": "int32"}, {"name": "StatefulPartitionedCall/sequential_5/conv_transpose_._0/conv2d_transpose_3/strided_slice_1/stack_1", "shape": [1], "dtype": "int32"}, {"name": "StatefulPartitionedCall/sequential_5/conv_transpose_._0/conv2d_transpose_3/strided_slice_1/stack_2", "shape": [1], "dtype": "int32"}, {"name": "StatefulPartitionedCall/sequential_5/conv_transpose_._0/conv2d_transpose_3/mul/y", "shape": [], "dtype": "int32"}, {"name": "StatefulPartitionedCall/sequential_5/conv_transpose_._0/conv2d_transpose_3/stack/2", "shape": [], "dtype": "int32"}, {"name": "StatefulPartitionedCall/sequential_5/conv_transpose_._0/conv2d_transpose_3/stack/3", "shape": [], "dtype": "int32"}, {"name": "StatefulPartitionedCall/sequential_5/conv_transpose_._0/conv2d_transpose_3/conv2d_transpose/ReadVariableOp", "shape": [16, 1, 192, 384], "dtype": "float32"}, {"name": "StatefulPartitionedCall/sequential_5/first_reflect_padding/MirrorPad/paddings", "shape": [3, 2], "dtype": "int32"}, {"name": "StatefulPartitionedCall/sequential_5/conv1d_26/conv1d/ExpandDims/dim", "shape": [], "dtype": "int32"}, {"name": "StatefulPartitionedCall/sequential_5/conv1d_26/conv1d/ExpandDims_1", "shape": [1, 7, 80, 384], "dtype": "float32"}, {"name": "StatefulPartitionedCall/sequential_5/conv1d_26/BiasAdd/ReadVariableOp", "shape": [384], "dtype": "float32"}, {"name": "StatefulPartitionedCall/sequential_5/conv_transpose_._0/ExpandDims/dim", "shape": [], "dtype": "int32"}, {"name": "StatefulPartitionedCall/sequential_5/conv_transpose_._0/conv2d_transpose_3/BiasAdd/ReadVariableOp", "shape": [192], "dtype": "float32"}, {"name": "StatefulPartitionedCall/sequential_5/residual_stack_._0._._0/tf_reflection_pad1d_12/MirrorPad/paddings", "shape": [3, 2], "dtype": "int32"}, {"name": "StatefulPartitionedCall/sequential_5/residual_stack_._0._._0/conv1d_27/conv1d/ExpandDims/dim", "shape": [], "dtype": "int32"}, {"name": "StatefulPartitionedCall/sequential_5/residual_stack_._0._._0/conv1d_27/conv1d/ExpandDims_1", "shape": [1, 3, 192, 192], "dtype": "float32"}, {"name": "StatefulPartitionedCall/sequential_5/residual_stack_._0._._0/conv1d_27/BiasAdd/ReadVariableOp", "shape": [192], "dtype": "float32"}, {"name": "StatefulPartitionedCall/sequential_5/residual_stack_._0._._0/conv1d_28/conv1d/ExpandDims/dim", "shape": [], "dtype": "int32"}, {"name": "StatefulPartitionedCall/sequential_5/residual_stack_._0._._0/conv1d_28/conv1d/ExpandDims_1", "shape": [1, 1, 192, 192], "dtype": "float32"}, {"name": "StatefulPartitionedCall/sequential_5/residual_stack_._0._._0/conv1d_28/BiasAdd/ReadVariableOp", "shape": [192], "dtype": "float32"}, {"name": "StatefulPartitionedCall/sequential_5/residual_stack_._0._._1/tf_reflection_pad1d_13/MirrorPad/paddings", "shape": [3, 2], "dtype": "int32"}, {"name": "StatefulPartitionedCall/sequential_5/residual_stack_._0._._1/conv1d_29/conv1d/strided_slice/stack", "shape": [1], "dtype": "int32"}, {"name": "StatefulPartitionedCall/sequential_5/residual_stack_._0._._1/conv1d_29/conv1d/strided_slice/stack_1", "shape": [1], "dtype": "int32"}, {"name": "StatefulPartitionedCall/sequential_5/residual_stack_._0._._1/conv1d_29/conv1d/strided_slice/stack_2", "shape": [1], "dtype": "int32"}, {"name": "StatefulPartitionedCall/sequential_5/residual_stack_._0._._1/conv1d_29/conv1d/dilation_rate", "shape": [1], "dtype": "int32"}, {"name": "StatefulPartitionedCall/sequential_5/residual_stack_._0._._1/conv1d_29/conv1d/required_space_to_batch_paddings/strided_slice_4/stack", "shape": [1], "dtype": "int32"}, {"name": "StatefulPartitionedCall/sequential_5/residual_stack_._0._._1/conv1d_29/conv1d/required_space_to_batch_paddings/strided_slice_4/stack_1", "shape": [1], "dtype": "int32"}, {"name": "StatefulPartitionedCall/sequential_5/residual_stack_._0._._1/conv1d_29/conv1d/required_space_to_batch_paddings/strided_slice_4/stack_2", "shape": [1], "dtype": "int32"}, {"name": "StatefulPartitionedCall/sequential_5/residual_stack_._0._._1/conv1d_29/BiasAdd/ReadVariableOp", "shape": [192], "dtype": "float32"}, {"name": "StatefulPartitionedCall/sequential_5/residual_stack_._0._._1/conv1d_30/conv1d/ExpandDims/dim", "shape": [], "dtype": "int32"}, {"name": "StatefulPartitionedCall/sequential_5/residual_stack_._0._._1/conv1d_30/conv1d/ExpandDims_1", "shape": [1, 1, 192, 192], "dtype": "float32"}, {"name": "StatefulPartitionedCall/sequential_5/residual_stack_._0._._1/conv1d_30/BiasAdd/ReadVariableOp", "shape": [192], "dtype": "float32"}, {"name": "StatefulPartitionedCall/sequential_5/residual_stack_._0._._2/tf_reflection_pad1d_14/MirrorPad/paddings", "shape": [3, 2], "dtype": "int32"}, {"name": "StatefulPartitionedCall/sequential_5/residual_stack_._0._._2/conv1d_31/conv1d/strided_slice/stack", "shape": [1], "dtype": "int32"}, {"name": "StatefulPartitionedCall/sequential_5/residual_stack_._0._._2/conv1d_31/conv1d/strided_slice/stack_1", "shape": [1], "dtype": "int32"}, {"name": "StatefulPartitionedCall/sequential_5/residual_stack_._0._._2/conv1d_31/conv1d/strided_slice/stack_2", "shape": [1], "dtype": "int32"}, {"name": "StatefulPartitionedCall/sequential_5/residual_stack_._0._._2/conv1d_31/conv1d/dilation_rate", "shape": [1], "dtype": "int32"}, {"name": "StatefulPartitionedCall/sequential_5/residual_stack_._0._._2/conv1d_31/conv1d/required_space_to_batch_paddings/strided_slice_4/stack", "shape": [1], "dtype": "int32"}, {"name": "StatefulPartitionedCall/sequential_5/residual_stack_._0._._2/conv1d_31/conv1d/required_space_to_batch_paddings/strided_slice_4/stack_1", "shape": [1], "dtype": "int32"}, {"name": "StatefulPartitionedCall/sequential_5/residual_stack_._0._._2/conv1d_31/conv1d/required_space_to_batch_paddings/strided_slice_4/stack_2", "shape": [1], "dtype": "int32"}, {"name": "StatefulPartitionedCall/sequential_5/residual_stack_._0._._2/conv1d_31/BiasAdd/ReadVariableOp", "shape": [192], "dtype": "float32"}, {"name": "StatefulPartitionedCall/sequential_5/residual_stack_._0._._2/conv1d_32/conv1d/ExpandDims/dim", "shape": [], "dtype": "int32"}, {"name": "StatefulPartitionedCall/sequential_5/residual_stack_._0._._2/conv1d_32/conv1d/ExpandDims_1", "shape": [1, 1, 192, 192], "dtype": "float32"}, {"name": "StatefulPartitionedCall/sequential_5/residual_stack_._0._._2/conv1d_32/BiasAdd/ReadVariableOp", "shape": [192], "dtype": "float32"}, {"name": "StatefulPartitionedCall/sequential_5/residual_stack_._0._._3/tf_reflection_pad1d_15/MirrorPad/paddings", "shape": [3, 2], "dtype": "int32"}, {"name": "StatefulPartitionedCall/sequential_5/residual_stack_._0._._3/conv1d_33/conv1d/strided_slice/stack", "shape": [1], "dtype": "int32"}, {"name": "StatefulPartitionedCall/sequential_5/residual_stack_._0._._3/conv1d_33/conv1d/strided_slice/stack_1", "shape": [1], "dtype": "int32"}, {"name": "StatefulPartitionedCall/sequential_5/residual_stack_._0._._3/conv1d_33/conv1d/strided_slice/stack_2", "shape": [1], "dtype": "int32"}, {"name": "StatefulPartitionedCall/sequential_5/residual_stack_._0._._3/conv1d_33/conv1d/dilation_rate", "shape": [1], "dtype": "int32"}, {"name": "StatefulPartitionedCall/sequential_5/residual_stack_._0._._3/conv1d_33/conv1d/required_space_to_batch_paddings/strided_slice_4/stack", "shape": [1], "dtype": "int32"}, {"name": "StatefulPartitionedCall/sequential_5/residual_stack_._0._._3/conv1d_33/conv1d/required_space_to_batch_paddings/strided_slice_4/stack_1", "shape": [1], "dtype": "int32"}, {"name": "StatefulPartitionedCall/sequential_5/residual_stack_._0._._3/conv1d_33/conv1d/required_space_to_batch_paddings/strided_slice_4/stack_2", "shape": [1], "dtype": "int32"}, {"name": "StatefulPartitionedCall/sequential_5/residual_stack_._0._._3/conv1d_33/BiasAdd/ReadVariableOp", "shape": [192], "dtype": "float32"}, {"name": "StatefulPartitionedCall/sequential_5/residual_stack_._0._._3/conv1d_34/conv1d/ExpandDims/dim", "shape": [], "dtype": "int32"}, {"name": "StatefulPartitionedCall/sequential_5/residual_stack_._0._._3/conv1d_34/conv1d/ExpandDims_1", "shape": [1, 1, 192, 192], "dtype": "float32"}, {"name": "StatefulPartitionedCall/sequential_5/residual_stack_._0._._3/conv1d_34/BiasAdd/ReadVariableOp", "shape": [192], "dtype": "float32"}, {"name": "StatefulPartitionedCall/sequential_5/conv_transpose_._1/ExpandDims/dim", "shape": [], "dtype": "int32"}, {"name": "StatefulPartitionedCall/sequential_5/conv_transpose_._1/conv2d_transpose_4/BiasAdd/ReadVariableOp", "shape": [96], "dtype": "float32"}, {"name": "StatefulPartitionedCall/sequential_5/residual_stack_._1._._0/tf_reflection_pad1d_16/MirrorPad/paddings", "shape": [3, 2], "dtype": "int32"}, {"name": "StatefulPartitionedCall/sequential_5/residual_stack_._1._._0/conv1d_35/conv1d/ExpandDims/dim", "shape": [], "dtype": "int32"}, {"name": "StatefulPartitionedCall/sequential_5/residual_stack_._1._._0/conv1d_35/conv1d/ExpandDims_1", "shape": [1, 3, 96, 96], "dtype": "float32"}, {"name": "StatefulPartitionedCall/sequential_5/residual_stack_._1._._0/conv1d_35/BiasAdd/ReadVariableOp", "shape": [96], "dtype": "float32"}, {"name": "StatefulPartitionedCall/sequential_5/residual_stack_._1._._0/conv1d_36/conv1d/ExpandDims/dim", "shape": [], "dtype": "int32"}, {"name": "StatefulPartitionedCall/sequential_5/residual_stack_._1._._0/conv1d_36/conv1d/ExpandDims_1", "shape": [1, 1, 96, 96], "dtype": "float32"}, {"name": "StatefulPartitionedCall/sequential_5/residual_stack_._1._._0/conv1d_36/BiasAdd/ReadVariableOp", "shape": [96], "dtype": "float32"}, {"name": "StatefulPartitionedCall/sequential_5/residual_stack_._1._._1/tf_reflection_pad1d_17/MirrorPad/paddings", "shape": [3, 2], "dtype": "int32"}, {"name": "StatefulPartitionedCall/sequential_5/residual_stack_._1._._1/conv1d_37/conv1d/strided_slice/stack", "shape": [1], "dtype": "int32"}, {"name": "StatefulPartitionedCall/sequential_5/residual_stack_._1._._1/conv1d_37/conv1d/strided_slice/stack_1", "shape": [1], "dtype": "int32"}, {"name": "StatefulPartitionedCall/sequential_5/residual_stack_._1._._1/conv1d_37/conv1d/strided_slice/stack_2", "shape": [1], "dtype": "int32"}, {"name": "StatefulPartitionedCall/sequential_5/residual_stack_._1._._1/conv1d_37/conv1d/dilation_rate", "shape": [1], "dtype": "int32"}, {"name": "StatefulPartitionedCall/sequential_5/residual_stack_._1._._1/conv1d_37/conv1d/required_space_to_batch_paddings/strided_slice_4/stack", "shape": [1], "dtype": "int32"}, {"name": "StatefulPartitionedCall/sequential_5/residual_stack_._1._._1/conv1d_37/conv1d/required_space_to_batch_paddings/strided_slice_4/stack_1", "shape": [1], "dtype": "int32"}, {"name": "StatefulPartitionedCall/sequential_5/residual_stack_._1._._1/conv1d_37/conv1d/required_space_to_batch_paddings/strided_slice_4/stack_2", "shape": [1], "dtype": "int32"}, {"name": "StatefulPartitionedCall/sequential_5/residual_stack_._1._._1/conv1d_37/BiasAdd/ReadVariableOp", "shape": [96], "dtype": "float32"}, {"name": "StatefulPartitionedCall/sequential_5/residual_stack_._1._._1/conv1d_38/conv1d/ExpandDims/dim", "shape": [], "dtype": "int32"}, {"name": "StatefulPartitionedCall/sequential_5/residual_stack_._1._._1/conv1d_38/conv1d/ExpandDims_1", "shape": [1, 1, 96, 96], "dtype": "float32"}, {"name": "StatefulPartitionedCall/sequential_5/residual_stack_._1._._1/conv1d_38/BiasAdd/ReadVariableOp", "shape": [96], "dtype": "float32"}, {"name": "StatefulPartitionedCall/sequential_5/residual_stack_._1._._2/tf_reflection_pad1d_18/MirrorPad/paddings", "shape": [3, 2], "dtype": "int32"}, {"name": "StatefulPartitionedCall/sequential_5/residual_stack_._1._._2/conv1d_39/conv1d/strided_slice/stack", "shape": [1], "dtype": "int32"}, {"name": "StatefulPartitionedCall/sequential_5/residual_stack_._1._._2/conv1d_39/conv1d/strided_slice/stack_1", "shape": [1], "dtype": "int32"}, {"name": "StatefulPartitionedCall/sequential_5/residual_stack_._1._._2/conv1d_39/conv1d/strided_slice/stack_2", "shape": [1], "dtype": "int32"}, {"name": "StatefulPartitionedCall/sequential_5/residual_stack_._1._._2/conv1d_39/conv1d/dilation_rate", "shape": [1], "dtype": "int32"}, {"name": "StatefulPartitionedCall/sequential_5/residual_stack_._1._._2/conv1d_39/conv1d/required_space_to_batch_paddings/strided_slice_4/stack", "shape": [1], "dtype": "int32"}, {"name": "StatefulPartitionedCall/sequential_5/residual_stack_._1._._2/conv1d_39/conv1d/required_space_to_batch_paddings/strided_slice_4/stack_1", "shape": [1], "dtype": "int32"}, {"name": "StatefulPartitionedCall/sequential_5/residual_stack_._1._._2/conv1d_39/conv1d/required_space_to_batch_paddings/strided_slice_4/stack_2", "shape": [1], "dtype": "int32"}, {"name": "StatefulPartitionedCall/sequential_5/residual_stack_._1._._2/conv1d_39/BiasAdd/ReadVariableOp", "shape": [96], "dtype": "float32"}, {"name": "StatefulPartitionedCall/sequential_5/residual_stack_._1._._2/conv1d_40/conv1d/ExpandDims/dim", "shape": [], "dtype": "int32"}, {"name": "StatefulPartitionedCall/sequential_5/residual_stack_._1._._2/conv1d_40/conv1d/ExpandDims_1", "shape": [1, 1, 96, 96], "dtype": "float32"}, {"name": "StatefulPartitionedCall/sequential_5/residual_stack_._1._._2/conv1d_40/BiasAdd/ReadVariableOp", "shape": [96], "dtype": "float32"}, {"name": "StatefulPartitionedCall/sequential_5/residual_stack_._1._._3/tf_reflection_pad1d_19/MirrorPad/paddings", "shape": [3, 2], "dtype": "int32"}, {"name": "StatefulPartitionedCall/sequential_5/residual_stack_._1._._3/conv1d_41/conv1d/strided_slice/stack", "shape": [1], "dtype": "int32"}, {"name": "StatefulPartitionedCall/sequential_5/residual_stack_._1._._3/conv1d_41/conv1d/strided_slice/stack_1", "shape": [1], "dtype": "int32"}, {"name": "StatefulPartitionedCall/sequential_5/residual_stack_._1._._3/conv1d_41/conv1d/strided_slice/stack_2", "shape": [1], "dtype": "int32"}, {"name": "StatefulPartitionedCall/sequential_5/residual_stack_._1._._3/conv1d_41/conv1d/dilation_rate", "shape": [1], "dtype": "int32"}, {"name": "StatefulPartitionedCall/sequential_5/residual_stack_._1._._3/conv1d_41/conv1d/required_space_to_batch_paddings/strided_slice_4/stack", "shape": [1], "dtype": "int32"}, {"name": "StatefulPartitionedCall/sequential_5/residual_stack_._1._._3/conv1d_41/conv1d/required_space_to_batch_paddings/strided_slice_4/stack_1", "shape": [1], "dtype": "int32"}, {"name": "StatefulPartitionedCall/sequential_5/residual_stack_._1._._3/conv1d_41/conv1d/required_space_to_batch_paddings/strided_slice_4/stack_2", "shape": [1], "dtype": "int32"}, {"name": "StatefulPartitionedCall/sequential_5/residual_stack_._1._._3/conv1d_41/BiasAdd/ReadVariableOp", "shape": [96], "dtype": "float32"}, {"name": "StatefulPartitionedCall/sequential_5/residual_stack_._1._._3/conv1d_42/conv1d/ExpandDims/dim", "shape": [], "dtype": "int32"}, {"name": "StatefulPartitionedCall/sequential_5/residual_stack_._1._._3/conv1d_42/conv1d/ExpandDims_1", "shape": [1, 1, 96, 96], "dtype": "float32"}, {"name": "StatefulPartitionedCall/sequential_5/residual_stack_._1._._3/conv1d_42/BiasAdd/ReadVariableOp", "shape": [96], "dtype": "float32"}, {"name": "StatefulPartitionedCall/sequential_5/conv_transpose_._2/ExpandDims/dim", "shape": [], "dtype": "int32"}, {"name": "StatefulPartitionedCall/sequential_5/conv_transpose_._2/conv2d_transpose_5/BiasAdd/ReadVariableOp", "shape": [48], "dtype": "float32"}, {"name": "StatefulPartitionedCall/sequential_5/residual_stack_._2._._0/tf_reflection_pad1d_20/MirrorPad/paddings", "shape": [3, 2], "dtype": "int32"}, {"name": "StatefulPartitionedCall/sequential_5/residual_stack_._2._._0/conv1d_43/conv1d/ExpandDims/dim", "shape": [], "dtype": "int32"}, {"name": "StatefulPartitionedCall/sequential_5/residual_stack_._2._._0/conv1d_43/conv1d/ExpandDims_1", "shape": [1, 3, 48, 48], "dtype": "float32"}, {"name": "StatefulPartitionedCall/sequential_5/residual_stack_._2._._0/conv1d_43/BiasAdd/ReadVariableOp", "shape": [48], "dtype": "float32"}, {"name": "StatefulPartitionedCall/sequential_5/residual_stack_._2._._0/conv1d_44/conv1d/ExpandDims/dim", "shape": [], "dtype": "int32"}, {"name": "StatefulPartitionedCall/sequential_5/residual_stack_._2._._0/conv1d_44/conv1d/ExpandDims_1", "shape": [1, 1, 48, 48], "dtype": "float32"}, {"name": "StatefulPartitionedCall/sequential_5/residual_stack_._2._._0/conv1d_44/BiasAdd/ReadVariableOp", "shape": [48], "dtype": "float32"}, {"name": "StatefulPartitionedCall/sequential_5/residual_stack_._2._._1/tf_reflection_pad1d_21/MirrorPad/paddings", "shape": [3, 2], "dtype": "int32"}, {"name": "StatefulPartitionedCall/sequential_5/residual_stack_._2._._1/conv1d_45/conv1d/strided_slice/stack", "shape": [1], "dtype": "int32"}, {"name": "StatefulPartitionedCall/sequential_5/residual_stack_._2._._1/conv1d_45/conv1d/strided_slice/stack_1", "shape": [1], "dtype": "int32"}, {"name": "StatefulPartitionedCall/sequential_5/residual_stack_._2._._1/conv1d_45/conv1d/strided_slice/stack_2", "shape": [1], "dtype": "int32"}, {"name": "StatefulPartitionedCall/sequential_5/residual_stack_._2._._1/conv1d_45/conv1d/dilation_rate", "shape": [1], "dtype": "int32"}, {"name": "StatefulPartitionedCall/sequential_5/residual_stack_._2._._1/conv1d_45/conv1d/required_space_to_batch_paddings/strided_slice_4/stack", "shape": [1], "dtype": "int32"}, {"name": "StatefulPartitionedCall/sequential_5/residual_stack_._2._._1/conv1d_45/conv1d/required_space_to_batch_paddings/strided_slice_4/stack_1", "shape": [1], "dtype": "int32"}, {"name": "StatefulPartitionedCall/sequential_5/residual_stack_._2._._1/conv1d_45/conv1d/required_space_to_batch_paddings/strided_slice_4/stack_2", "shape": [1], "dtype": "int32"}, {"name": "StatefulPartitionedCall/sequential_5/residual_stack_._2._._1/conv1d_45/BiasAdd/ReadVariableOp", "shape": [48], "dtype": "float32"}, {"name": "StatefulPartitionedCall/sequential_5/residual_stack_._2._._1/conv1d_46/conv1d/ExpandDims/dim", "shape": [], "dtype": "int32"}, {"name": "StatefulPartitionedCall/sequential_5/residual_stack_._2._._1/conv1d_46/conv1d/ExpandDims_1", "shape": [1, 1, 48, 48], "dtype": "float32"}, {"name": "StatefulPartitionedCall/sequential_5/residual_stack_._2._._1/conv1d_46/BiasAdd/ReadVariableOp", "shape": [48], "dtype": "float32"}, {"name": "StatefulPartitionedCall/sequential_5/residual_stack_._2._._2/tf_reflection_pad1d_22/MirrorPad/paddings", "shape": [3, 2], "dtype": "int32"}, {"name": "StatefulPartitionedCall/sequential_5/residual_stack_._2._._2/conv1d_47/conv1d/strided_slice/stack", "shape": [1], "dtype": "int32"}, {"name": "StatefulPartitionedCall/sequential_5/residual_stack_._2._._2/conv1d_47/conv1d/strided_slice/stack_1", "shape": [1], "dtype": "int32"}, {"name": "StatefulPartitionedCall/sequential_5/residual_stack_._2._._2/conv1d_47/conv1d/strided_slice/stack_2", "shape": [1], "dtype": "int32"}, {"name": "StatefulPartitionedCall/sequential_5/residual_stack_._2._._2/conv1d_47/conv1d/dilation_rate", "shape": [1], "dtype": "int32"}, {"name": "StatefulPartitionedCall/sequential_5/residual_stack_._2._._2/conv1d_47/conv1d/required_space_to_batch_paddings/strided_slice_4/stack", "shape": [1], "dtype": "int32"}, {"name": "StatefulPartitionedCall/sequential_5/residual_stack_._2._._2/conv1d_47/conv1d/required_space_to_batch_paddings/strided_slice_4/stack_1", "shape": [1], "dtype": "int32"}, {"name": "StatefulPartitionedCall/sequential_5/residual_stack_._2._._2/conv1d_47/conv1d/required_space_to_batch_paddings/strided_slice_4/stack_2", "shape": [1], "dtype": "int32"}, {"name": "StatefulPartitionedCall/sequential_5/residual_stack_._2._._2/conv1d_47/BiasAdd/ReadVariableOp", "shape": [48], "dtype": "float32"}, {"name": "StatefulPartitionedCall/sequential_5/residual_stack_._2._._2/conv1d_48/conv1d/ExpandDims/dim", "shape": [], "dtype": "int32"}, {"name": "StatefulPartitionedCall/sequential_5/residual_stack_._2._._2/conv1d_48/conv1d/ExpandDims_1", "shape": [1, 1, 48, 48], "dtype": "float32"}, {"name": "StatefulPartitionedCall/sequential_5/residual_stack_._2._._2/conv1d_48/BiasAdd/ReadVariableOp", "shape": [48], "dtype": "float32"}, {"name": "StatefulPartitionedCall/sequential_5/residual_stack_._2._._3/tf_reflection_pad1d_23/MirrorPad/paddings", "shape": [3, 2], "dtype": "int32"}, {"name": "StatefulPartitionedCall/sequential_5/residual_stack_._2._._3/conv1d_49/conv1d/strided_slice/stack", "shape": [1], "dtype": "int32"}, {"name": "StatefulPartitionedCall/sequential_5/residual_stack_._2._._3/conv1d_49/conv1d/strided_slice/stack_1", "shape": [1], "dtype": "int32"}, {"name": "StatefulPartitionedCall/sequential_5/residual_stack_._2._._3/conv1d_49/conv1d/strided_slice/stack_2", "shape": [1], "dtype": "int32"}, {"name": "StatefulPartitionedCall/sequential_5/residual_stack_._2._._3/conv1d_49/conv1d/dilation_rate", "shape": [1], "dtype": "int32"}, {"name": "StatefulPartitionedCall/sequential_5/residual_stack_._2._._3/conv1d_49/conv1d/required_space_to_batch_paddings/strided_slice_4/stack", "shape": [1], "dtype": "int32"}, {"name": "StatefulPartitionedCall/sequential_5/residual_stack_._2._._3/conv1d_49/conv1d/required_space_to_batch_paddings/strided_slice_4/stack_1", "shape": [1], "dtype": "int32"}, {"name": "StatefulPartitionedCall/sequential_5/residual_stack_._2._._3/conv1d_49/conv1d/required_space_to_batch_paddings/strided_slice_4/stack_2", "shape": [1], "dtype": "int32"}, {"name": "StatefulPartitionedCall/sequential_5/residual_stack_._2._._3/conv1d_49/BiasAdd/ReadVariableOp", "shape": [48], "dtype": "float32"}, {"name": "StatefulPartitionedCall/sequential_5/residual_stack_._2._._3/conv1d_50/conv1d/ExpandDims/dim", "shape": [], "dtype": "int32"}, {"name": "StatefulPartitionedCall/sequential_5/residual_stack_._2._._3/conv1d_50/conv1d/ExpandDims_1", "shape": [1, 1, 48, 48], "dtype": "float32"}, {"name": "StatefulPartitionedCall/sequential_5/residual_stack_._2._._3/conv1d_50/BiasAdd/ReadVariableOp", "shape": [48], "dtype": "float32"}, {"name": "StatefulPartitionedCall/sequential_5/last_reflect_padding/MirrorPad/paddings", "shape": [3, 2], "dtype": "int32"}, {"name": "StatefulPartitionedCall/sequential_5/conv1d_51/conv1d/ExpandDims/dim", "shape": [], "dtype": "int32"}, {"name": "StatefulPartitionedCall/sequential_5/conv1d_51/conv1d/ExpandDims_1", "shape": [1, 7, 48, 4], "dtype": "float32"}, {"name": "StatefulPartitionedCall/sequential_5/conv1d_51/BiasAdd/ReadVariableOp", "shape": [4], "dtype": "float32"}, {"name": "StatefulPartitionedCall/PartitionedCall/conv1d_transpose/ExpandDims/dim", "shape": [], "dtype": "int32"}, {"name": "StatefulPartitionedCall/PartitionedCall/Pad/paddings", "shape": [3, 2], "dtype": "int32"}, {"name": "StatefulPartitionedCall/PartitionedCall/conv1d/ExpandDims/dim", "shape": [], "dtype": "int32"}, {"name": "StatefulPartitionedCall/PartitionedCall/conv1d/ExpandDims_1", "shape": [1, 63, 4, 1], "dtype": "float32"}, {"name": "ConstantFolding/StatefulPartitionedCall/sequential_5/residual_stack_._0._._1/conv1d_29/conv1d/stack_const_axis", "shape": [], "dtype": "int32"}, {"name": "ConstantFolding/StatefulPartitionedCall/sequential_5/residual_stack_._0._._1/conv1d_29/conv1d/required_space_to_batch_paddings/paddings_const_axis", "shape": [], "dtype": "int32"}, {"name": "ConstantFolding/StatefulPartitionedCall/sequential_5/residual_stack_._0._._1/conv1d_29/conv1d/required_space_to_batch_paddings/crops_const_axis", "shape": [], "dtype": "int32"}, {"name": "ConstantFolding/StatefulPartitionedCall/sequential_5/residual_stack_._0._._2/conv1d_31/conv1d/stack_const_axis", "shape": [], "dtype": "int32"}, {"name": "ConstantFolding/StatefulPartitionedCall/sequential_5/residual_stack_._0._._2/conv1d_31/conv1d/required_space_to_batch_paddings/paddings_const_axis", "shape": [], "dtype": "int32"}, {"name": "ConstantFolding/StatefulPartitionedCall/sequential_5/residual_stack_._0._._2/conv1d_31/conv1d/required_space_to_batch_paddings/crops_const_axis", "shape": [], "dtype": "int32"}, {"name": "ConstantFolding/StatefulPartitionedCall/sequential_5/residual_stack_._0._._3/conv1d_33/conv1d/stack_const_axis", "shape": [], "dtype": "int32"}, {"name": "ConstantFolding/StatefulPartitionedCall/sequential_5/residual_stack_._0._._3/conv1d_33/conv1d/required_space_to_batch_paddings/paddings_const_axis", "shape": [], "dtype": "int32"}, {"name": "ConstantFolding/StatefulPartitionedCall/sequential_5/residual_stack_._0._._3/conv1d_33/conv1d/required_space_to_batch_paddings/crops_const_axis", "shape": [], "dtype": "int32"}, {"name": "ConstantFolding/StatefulPartitionedCall/sequential_5/residual_stack_._1._._1/conv1d_37/conv1d/stack_const_axis", "shape": [], "dtype": "int32"}, {"name": "ConstantFolding/StatefulPartitionedCall/sequential_5/residual_stack_._1._._1/conv1d_37/conv1d/required_space_to_batch_paddings/paddings_const_axis", "shape": [], "dtype": "int32"}, {"name": "ConstantFolding/StatefulPartitionedCall/sequential_5/residual_stack_._1._._1/conv1d_37/conv1d/required_space_to_batch_paddings/crops_const_axis", "shape": [], "dtype": "int32"}, {"name": "ConstantFolding/StatefulPartitionedCall/sequential_5/residual_stack_._1._._2/conv1d_39/conv1d/stack_const_axis", "shape": [], "dtype": "int32"}, {"name": "ConstantFolding/StatefulPartitionedCall/sequential_5/residual_stack_._1._._2/conv1d_39/conv1d/required_space_to_batch_paddings/paddings_const_axis", "shape": [], "dtype": "int32"}, {"name": "ConstantFolding/StatefulPartitionedCall/sequential_5/residual_stack_._1._._2/conv1d_39/conv1d/required_space_to_batch_paddings/crops_const_axis", "shape": [], "dtype": "int32"}, {"name": "ConstantFolding/StatefulPartitionedCall/sequential_5/residual_stack_._1._._3/conv1d_41/conv1d/stack_const_axis", "shape": [], "dtype": "int32"}, {"name": "ConstantFolding/StatefulPartitionedCall/sequential_5/residual_stack_._1._._3/conv1d_41/conv1d/required_space_to_batch_paddings/paddings_const_axis", "shape": [], "dtype": "int32"}, {"name": "ConstantFolding/StatefulPartitionedCall/sequential_5/residual_stack_._1._._3/conv1d_41/conv1d/required_space_to_batch_paddings/crops_const_axis", "shape": [], "dtype": "int32"}, {"name": "ConstantFolding/StatefulPartitionedCall/sequential_5/residual_stack_._2._._1/conv1d_45/conv1d/stack_const_axis", "shape": [], "dtype": "int32"}, {"name": "ConstantFolding/StatefulPartitionedCall/sequential_5/residual_stack_._2._._1/conv1d_45/conv1d/required_space_to_batch_paddings/paddings_const_axis", "shape": [], "dtype": "int32"}, {"name": "ConstantFolding/StatefulPartitionedCall/sequential_5/residual_stack_._2._._1/conv1d_45/conv1d/required_space_to_batch_paddings/crops_const_axis", "shape": [], "dtype": "int32"}, {"name": "ConstantFolding/StatefulPartitionedCall/sequential_5/residual_stack_._2._._2/conv1d_47/conv1d/stack_const_axis", "shape": [], "dtype": "int32"}, {"name": "ConstantFolding/StatefulPartitionedCall/sequential_5/residual_stack_._2._._2/conv1d_47/conv1d/required_space_to_batch_paddings/paddings_const_axis", "shape": [], "dtype": "int32"}, {"name": "ConstantFolding/StatefulPartitionedCall/sequential_5/residual_stack_._2._._2/conv1d_47/conv1d/required_space_to_batch_paddings/crops_const_axis", "shape": [], "dtype": "int32"}, {"name": "ConstantFolding/StatefulPartitionedCall/sequential_5/residual_stack_._2._._3/conv1d_49/conv1d/stack_const_axis", "shape": [], "dtype": "int32"}, {"name": "ConstantFolding/StatefulPartitionedCall/sequential_5/residual_stack_._2._._3/conv1d_49/conv1d/required_space_to_batch_paddings/paddings_const_axis", "shape": [], "dtype": "int32"}, {"name": "ConstantFolding/StatefulPartitionedCall/sequential_5/residual_stack_._2._._3/conv1d_49/conv1d/required_space_to_batch_paddings/crops_const_axis", "shape": [], "dtype": "int32"}, {"name": "ConstantFolding/StatefulPartitionedCall/PartitionedCall/conv1d_transpose/concat/values_0_const_axis", "shape": [], "dtype": "int32"}]}]}